policies/sim2real_tutorial/policy_rough_DR/exported/policy.pt (torch, 769376 bytes, 8 tensors)

weight f4 [512, 45]
-0.010977701 -0.06957724 -0.17247212 -0.59313315 -0.04426628 0.16031384 -0.1685911 -0.027753206
-0.25408298 -0.055689577 0.2950347 0.4256003 0.028706076 -0.13154417 0.032603163 -0.11802045
-0.55167437 -0.0064650085 -0.051069934 -0.1793286 -0.09183289 -0.006567836 0.055246454 -0.0034658846
-0.0056461715 -0.022442281 0.006793241 0.10053255 0.036895216 -0.02636335 -0.01581563 -0.033609074
0.0052688047 0.24926879 0.042287488 0.047818337 0.10335256 0.082155816 0.04804499 -0.039617155
-0.010735187 -0.04169299 0.083027154 0.046389364 0.044297885 -0.0009752715 0.021986645 -0.15317678
0.4461793 -0.45168772 -0.19668859 -0.054236222 0.0029319883 0.108650595 0.053696822 0.29678297
0.026633589 -0.31638548 0.1120703 -0.12467016 -0.553004 0.22935179 0.22536829 -0.14822641
-0.14610255 0.2918078 -0.015648466 0.055312004 0.026738426 0.03719574 0.029168155 0.0033690988
-0.083987005 0.04625609 0.03643301 0.046621546 -0.007065577 -0.01026391 0.19584256 -0.0006264755
0.014818485 -0.09641409 -0.046629187 0.16415118 -0.17541109 0.07129841 0.15594697 -0.18333372
-0.1997016 0.14959647 -0.065102704 0.16022666 -0.24147673 -0.25352904 -0.15017562 0.09524172
-0.12887885 -0.23776238 0.25961378 -0.75647724 -0.07720545 0.117064126 0.041376293 -0.089175746
0.20386407 0.14878835 0.23355646 -0.1801172 0.18359056 0.13516042 0.013925381 0.050325166
-0.013540061 0.04687619 -0.039274354 -0.016165007 0.032419704 -0.027018037 -0.059995387 0.047813106
-0.011268897 -0.033200692 -0.069087856 -0.09135244 0.011771818 0.008524295 -0.12081456 0.14980707
-0.099046 0.13348643 0.062564485 0.011821786 0.03253166 0.13420622 -0.036358606 -0.061292283
-0.25803667 -0.29185376 -0.2891676 0.25335196 -0.14368826 -0.08276217 0.29777476 0.2395211
0.040474266 0.3426438 -0.11382041 0.19912662 -0.09219259 0.3739524 0.15643555 -0.115940616
-0.21899442 0.020434154 0.26042795 -0.012124447 0.025947575 -0.03739941 0.044677973 -0.010078906
-0.027437873 0.06562888 0.06584813 -0.026875623 0.0050167865 0.046910096 0.09399242 0.037447575
0.11266637 0.10686777 -0.18222292 0.11671084 0.021202033 0.10002217 0.028729485 0.119954824
-0.02539628 -0.022832716 0.012197793 0.12468043 0.041537244 0.07621276 0.20448464 0.38175339
-0.31589556 -0.038025517 0.39687142 0.59942293 0.19833158 0.37041783 0.17617176 -0.056122355
0.31286904 0.21132539 -0.17285502 0.027271792 0.3629162 0.04425517 0.20483571 -0.11246916
0.12970267 -0.0056293933 0.04807299 0.030740425 -0.017311594 -0.039152533 -0.04355795 0.0052757002
0.024353242 -0.007055149 -0.043585356 -0.039072372 0.028140537 0.099272296 0.017407028 0.0056863185
0.15126206 -0.03607035 0.020521812 -0.0769751 0.018810065 -0.11542433 0.0019952152 -0.12442889
0.036294233 0.1605517 0.06327753 -0.10155893 0.45775026 0.110252015 0.15572323 0.092441775
0.19766383 0.3482893 0.017332688 -0.10550039 0.12533256 -0.16189365 0.5437078 0.13101499
-0.30016154 0.11310178 -0.13016263 -0.07169392 0.02701676 -0.17889147 0.02412378 0.027538605
0.052113842 -0.052122515 0.031622488 0.097394474 -0.03108038 -0.04071151 0.040390268 0.059788495
00000000: d1db 33bc 837e 8ebd 889c 30be 93d7 17bf
00000010: 8f50 35bd 5029 243e 25a3 2cbe b15a e3bc
00000020: 2a17 82be c11a 64bd ca0e 973e 48e8 d93e
00000030: 0129 eb3c 84b3 06be e58a 053d b5b4 f1bd
00000040: 883a 0dbf 6cd8 d3bb b52e 51bd eba1 37be
00000050: e212 bcbd 0037 d7bb 1b4a 623d e523 63bb
00000060: 8503 b9bb e0d8 b7bc d699 de3b 02e4 cd3d
00000070: 701f 173d f4f7 d7bc c88f 81bc aba9 09bd
00000080: f0a5 ac3b 5140 7f3e a535 2d3d 29dd 433d
00000090: 82aa d33d 4f41 a83d d3ca 443d 9945 22bd
000000a0: a3e2 2fbc 45c6 2abd 240a aa3d c602 3e3d
000000b0: b371 353d 5da9 7fba 561d b43c 60da 1cbe
000000c0: 9d71 e43e 9d43 e7be bc68 49be cd26 5ebd
000000d0: 9a26 403b 3484 de3d 33f1 5b3d f0f3 973e
000000e0: af2e da3c 47fd a1be 1d85 e53d 1253 ffbd
000000f0: ac91 0dbf 32db 6a3e f2c6 663e aac8 17be
00000100: e89b 15be d567 953e 3631 80bc d78e 623d
00000110: 8b0a db3c 8f5a 183d 0ef2 ee3c 19cc 5c3b
00000120: 6101 acbd 0777 3d3d c83a 153d 3cf6 3e3d
00000130: 5b86 e7bb f529 28bc f48a 483e 0f3a 24ba
00000140: 3bc9 723c c074 c5bd 3ffe 3ebd 3f17 283e
00000150: f79e 33be e704 923d 90b0 1f3e d6bb 3bbe
00000160: 947e 4cbe d12f 193e 9154 85bd 7512 243e
00000170: ad45 77be 8fce 81be a3c7 19be 170e c33d
00000180: d1f8 03be fb77 73be 19ec 843e 7ea8 41bf
00000190: e41d 9ebd 51bf ef3d 307a 293d c6a1 b6bd
000001a0: bec1 503e f95b 183e 6d29 6f3e a570 38be
000001b0: 2aff 3b3e 7e67 0a3e 4827 643c c321 4e3d
000001c0: 22d7 5dbc 3f01 403d 25de 20bd 7a6c 84bc
000001d0: 86ca 043d ee54 ddbc b9bd 75bd add7 433d
000001e0: 2ea1 38bc 73fd 07bd ef7d 8dbd fd16 bbbd
000001f0: 95de 403c 7ca9 0b3c a06d f7bd 0667 193e
00000200: a1d8 cabd abb0 083e cf21 803d 2ab0 413c
00000210: eb3f 053d 5b6d 093e c3ec 14bd 9e0d 7bbd
00000220: 621d 84be db6d 95be c70d 94be 59b7 813e
00000230: 0423 13be 367f a9bd ef75 983e 0545 753e
00000240: 58c8 253d 026f af3e ad1a e9bd d9e7 4b3e
00000250: 78cf bcbd b076 bf3e a430 203e 4672 edbd
00000260: 1340 60be 8765 a73c d056 853e 9ea5 46bc
00000270: 0290 d43c 2030 19bd 4000 373d ff21 25bc
00000280: 64c5 e0bc 6f68 863d 62db 863d 442a dcbc
00000290: db63 a43b cd24 403d 197f c03d a162 193d
000002a0: a0bd e63d 7ddd da3d a598 3abe 1806 ef3d
000002b0: e3af ad3c 6cd8 cc3d 195a eb3c e0aa f53d
000002c0: dc0b d0bc ad0b bbbc 41d9 473c 7458 ff3d
000002d0: f522 2a3d 6f15 9c3d 6c64 513e 2e75 c33e
000002e0: 10bd a1be a5c0 1bbd bb32 cb3e c873 193f
000002f0: 6f17 4b3e 68a7 bd3e 5f66 343e 8ee0 65bd
00000300: 5f30 a03e af65 583e e800 31be 1869 df3c
00000310: 27d0 b93e e944 353d 74c0 513e 3b56 e6bd
00000320: c7d0 043e c676 b8bb 2fe8 443d 58d3 fb3c
00000330: 0bd1 8dbc 685e 20bd d269 32bd c8df ac3b
00000340: 7380 c73c e12e e7bb 8f86 32bd 5a0a 20bd
00000350: fc86 e63c 464f cb3d 2f99 8e3c 4c54 ba3b
00000360: 71e4 1a3e 81be 13bd 5c1d a83c 1fa5 9dbd
00000370: 9117 9a3c 9763 ecbd 28c2 023b 93d4 febd
00000380: 43a9 143d aa67 243e a697 813d 21fe cfbd
00000390: 3e5e ea3e cfcb e13d e975 1f3e 1d52 bd3d
000003a0: 6368 4a3e fa52 b23e 48fd 8d3c 9710 d8bd
000003b0: 2e57 003e 73c7 25be 6f30 0b3f cb28 063e
000003c0: c6ae 99be e8a1 e73d 5a49 05be 43d4 92bd
000003d0: 4152 dd3c 532f 37be 3c9f c53c a498 e13c
000003e0: 5375 553d 6b7e 55bd 9586 013d c176 c73d
000003f0: 489c febc 1dc1 26bd 4470 253d c8e4 743d

bias f4 [512]
-0.22572426 0.09392834 0.11785452 0.006406389 -0.18534452 -0.1840545 0.070708886 0.11019609
-0.13720776 -0.01184158 0.12341129 -0.2135317 -0.14603259 -0.1325568 0.04047897 0.04645738
-0.07200791 -0.20020892 0.15564339 0.055394795 -0.04104339 -0.1573281 -0.108645245 0.14960451
-0.07126038 -0.055090312 -0.07290645 -0.22429138 -0.27263236 0.05203125 0.040146526 -0.13410449
0.057114623 0.16421933 0.1057489 -0.13908997 0.1719574 -0.13246693 -0.011333445 0.118299365
0.008320243 -0.062169034 -0.12413969 -0.098613285 0.1681951 0.047802366 -0.21985279 -0.25714383
0.16671659 0.11545088 -0.19069327 -0.062301118 -0.11747336 0.03164399 -0.1498511 0.10827903
0.0632834 0.10494401 0.008194273 -0.16899598 0.11919666 -0.12602292 -0.16093907 -0.1164525
0.24465601 -0.20136903 -0.045363504 -0.10883077 -0.20464168 0.052280527 0.069853544 0.018859485
-0.21705943 -0.05766346 -0.08371837 0.089040115 -0.21647674 -0.005565397 0.08819671 0.06008994
0.045714963 -0.24855347 0.11996243 -0.10370811 -0.0638185 -0.04370826 0.02925933 -0.050977044
-0.15243515 -0.054829437 0.088031635 -0.10240944 -0.17397845 -0.18819113 -0.02378078 0.014348757
0.00090867444 -0.077084646 -0.14691001 -0.10293617 -0.046930782 0.13432547 -0.1385439 -0.12290831
-0.04080036 -0.048366908 0.018804744 0.042270288 0.13744523 -0.23112532 -0.040715445 -0.16909175
-0.12727569 -0.15216458 -0.095606826 -0.036502022 -0.1737821 0.08753285 -0.089556076 0.023797005
-0.08294563 -0.12150283 -0.00038653766 0.0077837533 0.15415442 -0.15299232 0.17336711 -0.09684738
-0.015394108 -0.17450504 -0.07519164 0.08022234 -0.11758126 -0.21190141 0.041802507 -0.10872702
-0.21125634 -0.009997557 -0.2610805 0.004327591 0.106506415 -0.23658824 -0.039272025 -0.1345625
0.054681785 0.09324348 -0.10130819 0.12429314 0.056873538 -0.12947159 -0.154443 0.004657864
-0.15381885 -0.16965105 -0.10130671 -0.08111072 -0.037395615 -0.075353205 0.016184341 0.16513051
-0.1849243 -0.03101769 -0.16806528 -0.19180398 0.11006011 0.038418464 -0.16787629 -0.04978484
0.14916183 0.020765586 0.03192508 -0.13117887 -0.075354 -0.13063605 -0.2651947 0.0007013354
0.0942018 -0.07163914 -0.1902955 -0.07323713 0.14637409 -0.01779835 -0.15253781 -0.05346748
0.044154886 -0.030730926 -0.060690206 -0.1542938 0.10103308 -0.020334272 0.0012845375 -0.104210295
-0.114804626 -0.10509388 -0.17789786 0.17244455 0.15684204 -0.3010649 -0.025868133 0.012693291
-0.095534466 0.09607157 -0.038154572 0.14214633 0.012689857 0.06910784 -0.20188627 0.09203129
-0.16396786 0.04404785 -0.00016514731 -0.17547564 -0.04968345 0.12675475 -0.058886833 -0.2425409
0.16633539 0.10538243 -0.15451972 -0.026515028 0.1986361 -0.045863416 0.12389879 0.09268383
0.07933587 0.18688871 -0.038197916 -0.20452163 -0.16892825 -0.10863684 -0.17171799 0.1304876
-0.115730196 0.049471486 0.08798624 -0.2125959 -0.11850784 0.10466583 -0.11248187 0.08432175
-0.10128264 0.04591716 0.09789256 0.12961048 -0.10054822 -0.21312363 -0.09895872 -0.091933414
-0.079738036 -0.037207764 -0.14528847 -0.02538656 0.07507721 -0.19297247 0.08360019 -0.16876449
00000000: 4324 67be 805d c03d b65d f13d b0ec d13b
00000010: f4ca 3dbe c878 3cbe d2cf 903d 7dae e13d
00000020: 3180 0cbe 3003 42bc 0fbf fc3d 0ea8 5abe
00000030: 9189 15be f8bc 07be 47cd 253d 184a 3e3d
00000040: e278 93bd 9103 4dbe fb60 1f3e a7e5 623d
00000050: 1d1d 28bd 9e1a 21be 6681 debd ed31 193e
00000060: f6f0 91bd 61a6 61bd fa4f 95bd a4ac 65be
00000070: 7896 8bbe b81e 553d af70 243d b052 09be
00000080: 06f1 693d 1d29 283e e192 d83d 9a6d 0ebe
00000090: 9a15 303e 69a5 07be eaaf 39bc f046 f23d
000000a0: a151 083c f5a4 7ebd f33c febd c3f5 c9bd
000000b0: 563b 2c3e 6acc 433d 1721 61be 5ba8 83be
000000c0: c1b7 2a3e 8371 ec3d 1945 43be 752f 7fbd
000000d0: df95 f0bd 219d 013d 9172 19be 65c1 dd3d
000000e0: ba9a 813d e3ec d63d 4641 063c 480d 2dbe
000000f0: 611d f43d 270c 01be 36cd 24be a67e eebd
00000100: 1b87 7a3e af33 4ebe 15cf 39bd abe2 debd
00000110: 978d 51be 1b24 563d 600f 8f3d 357f 9a3c
00000120: d444 5ebe 8530 6cbd 8974 abbd aa5a b63d
00000130: 14ac 5dbe ef5d b6bb 7aa0 b43d de20 763d
00000140: 9d3f 3b3d cd84 7ebe ddae f53d eb64 d4bd
00000150: 46b3 82bd 6f07 33bd 43b1 ef3c 4ecd 50bd
00000160: f617 1cbe d594 60bd ee49 b43d 0abc d1bd
00000170: 6827 32be 2db5 40be e9cf c2bc 0d17 6b3c
00000180: 1c34 6e3a 8ede 9dbd 946f 16be 33d0 d2bd
00000190: 7e3a 40bd 9e8c 093e 74de 0dbe 5ab7 fbbd
000001a0: 471e 27bd 611c 46bd 680c 9a3c 9c23 2d3d
000001b0: 71be 0c3e 1eac 6cbe 3dc5 26bd 6326 2dbe
000001c0: 8f54 02be 08d1 1bbe 83cd c3bd 2583 15bd
000001d0: eff3 31be 6c44 b33d 2d69 b7bd f0f1 c23c
000001e0: 66df a9bd 7ad6 f8bd 35a8 cab9 db0e ff3b
000001f0: a8da 1d3e 05aa 1cbe 2687 313e eb57 c6bd
00000200: 9237 7cbc 73b1 32be 13fe 99bd 9c4b a43d
00000210: 72ce f0bd affc 58be 1b39 2b3d 46ac debd
00000220: 9553 58be cbcc 23bc 58ac 85be 77ce 8d3b
00000230: 0920 da3d 3044 72be b4db 20bd c1ca 09be
00000240: 02fa 5f3d 70f6 be3d ab7a cfbd 678d fe3d
00000250: 3af4 683d 3394 04be 4e26 1ebe ffa0 983b
00000260: b082 1dbe 01b9 2dbe e479 cfbd 611d a6bd
00000270: 252c 19bd c852 9abd 0695 843c f917 293e
00000280: cc5c 3dbe d018 febc 4e19 2cbe 4368 44be
00000290: 3267 e13d ae5c 1d3d c3e7 2bbe 30eb 4bbd
000002a0: e1bd 183e 971c aa3c dfc3 023d c153 06be
000002b0: 3353 9abd 75c5 05be 9ac7 87be d2d9 373a
000002c0: e0ec c03d 8bb7 92bd d3dc 42be 59fd 95bd
000002d0: 17e3 153e d8cd 91bc df32 1cbe b700 5bbd
000002e0: c1db 343d 6cbf fbbc 4b96 78bd 32ff 1dbe
000002f0: 6eea ce3d 0f94 a6bc ed5d a83a 356c d5bd
00000300: b01e ebbd 763b d7bd db2a 36be 4e95 303e
00000310: 339b 203e 2e25 9abe 68e9 d3bc 85f7 4f3c
00000320: 93a7 c3bd 2cc1 c43d f847 1cbd cf8e 113e
00000330: 1ee9 4f3c 6988 8d3d 46bb 4ebe e77a bc3d
00000340: 31e7 27be 856b 343d 652b 2db9 e3af 33be
00000350: e080 4bbd ffcb 013e 5233 71bd a45c 78be
00000360: d353 2a3e bed2 d73d 6b3a 1ebe 0b36 d9bc
00000370: 4367 4b3e 47db 3bbd a6be fd3d 05d1 bd3d
00000380: d87a a23d c15f 3f3e 6b75 1cbd 1e6e 51be
00000390: 87fb 2cbe fe7c debd d7d6 2fbe 8b9e 053e
000003a0: f403 edbd 9da2 4a3d 2132 b43d bdb2 59be
000003b0: 3db4 f2bd 0a5b d63d e55c e6bd e2b0 ac3d
000003c0: 466d cfbd a213 3c3d e57b c83d 9cb8 043e
000003d0: 3aec cdbd 153d 5abe dfaa cabd 9647 bcbd
000003e0: b24d a3bd 2b67 18bd 80c6 14be 7af7 cfbc
000003f0: 15c2 993d 939a 45be 9436 ab3d 99d0 2cbe

weight f4 [256, 512]
0.054031502 -0.04640517 0.0016319342 -0.059705686 0.14023194 -0.06579314 0.11332295 0.007762011
0.025930027 -0.04333811 -0.015000136 0.03383428 0.04900956 -0.10314979 -0.11308739 -0.07740508
0.029824572 0.1292188 0.0158008 -0.027325116 0.062549286 0.048336387 0.059196234 -0.0016113741
0.031396236 -0.040606517 0.08457029 0.114953965 0.04520226 -0.08445759 -0.091066785 0.059893902
-0.04449451 0.017938066 -0.1176417 -0.036297135 -0.008604159 0.085981265 0.08772968 -0.06444958
-0.011208989 -0.07692975 0.014855394 0.047765724 0.044574957 0.06723126 -0.03853035 0.10423513
-0.011561469 0.02477228 0.0006161677 0.06724592 0.0102511905 0.0455067 0.10190985 0.04610461
-0.007792061 -0.07547286 -0.041701443 0.044422913 0.0044761547 0.0022022212 -0.018272394 0.024578454
-0.1396594 -0.01698062 -0.055528045 -0.014448606 0.025191827 0.01277191 0.020321451 -0.11695972
-0.05353432 -0.008522883 0.026634203 0.0022076648 0.15719323 0.03003153 -0.048579857 -0.01319512
-0.04765691 0.067189366 0.07382055 -0.018478658 -0.06900725 0.02015406 -0.109000295 -0.09280676
-0.026053486 0.033181403 -0.0063511 0.01872906 0.048308603 0.12778518 0.0087462375 0.020460123
-0.06458277 0.0032614926 0.050930474 0.08300489 -0.036239658 -0.15686414 -0.035592612 -0.029823098
-0.055190124 0.03443801 -0.011590028 -0.08272874 -0.100181565 0.1260886 -0.04095458 -0.03088547
0.04696413 -0.05973552 0.04845109 0.09414456 0.0036246665 0.06091782 0.086112 0.040722698
0.06708495 0.044640988 -0.107194714 0.062491998 -0.045244858 0.06934595 0.033786997 0.086349525
-0.009100084 0.11196461 0.12534457 -0.08232622 0.040264 0.020326229 -0.0025575613 0.008425088
-0.003905464 0.041029707 0.075526275 0.035914764 0.03472702 -0.00070271874 -0.053265907 0.057010904
0.065271705 0.033288963 0.024132049 0.076538734 -0.081417315 0.048348602 0.1496561 -0.009535632
0.046488248 0.026231071 0.064184785 0.054307546 0.053672675 0.107526146 -0.04220099 -0.078861326
0.048701584 -0.16236 -0.056154214 0.1069461 -0.058863807 -0.029647965 -0.009011303 0.06717783
-0.099613264 -0.038375296 0.010841061 0.08571084 -0.11946405 -0.021596042 0.16433936 -0.0711208
0.004726681 0.010963109 -0.03735918 -0.027208978 -0.13880125 -0.052616168 0.0074793324 0.026734456
0.005051077 -0.0034221287 -0.072507635 -0.03768769 -0.054557603 0.061301153 0.023310253 -0.042252123
0.045594428 0.05093222 0.034280475 -0.048264936 -0.1000226 0.025686052 0.07127709 0.009910694
-0.012120841 0.032781567 -0.027426817 -0.1818458 0.0032406615 0.073640615 0.14153098 -0.0040522967
-0.09250616 0.07591933 0.014506865 -0.028820442 -0.005065269 -0.044451512 -0.06680024 -0.09391077
-0.11587818 0.028251283 0.023292936 -0.013790625 -0.002936324 -0.003354273 0.011038061 0.016248142
-0.07107431 0.0014055565 -0.07382641 -0.004025201 0.008143464 -0.013911695 0.069067314 -0.009214087
-0.008903611 0.00911182 -0.0919083 -0.007344394 0.10242224 -0.03160226 0.050680052 -0.047767904
-0.024293259 -0.03199658 0.08138777 0.087389156 -0.07944688 0.07544243 0.088739775 -0.022926826
-0.052006125 -0.06773902 -0.040367756 0.104556136 -0.124424756 0.063119434 0.027703984 0.09049007
00000000: 2350 5d3d 5913 3ebd a0e6 d53a f38d 74bd
00000010: f698 0f3e 8ebe 86bd dd15 e83d 7858 fe3b
00000020: 356b d43c 4d83 31bd 21c3 75bc d095 0a3d
00000030: 40be 483d 3240 d3bd 5d9a e7bd 8e86 9ebd
00000040: a952 f43c ef51 043e ae70 813c ecd8 dfbc
00000050: d719 803d 60fc 453d c077 723d be34 d3ba
00000060: 5799 003d 0553 26bd 3033 ad3d fc6c eb3d
00000070: 0126 393d 1af8 acbd 3981 babd 4f53 753d
00000080: e03f 36bd daf2 923c 22ee f0bd 4eac 14bd
00000090: 75f8 0cbc f216 b03d 9eab b33d 24fe 83bd
000000a0: e8a5 37bc 588d 9dbd 0a64 733c fea5 433d
000000b0: 3b94 363d 8bb0 893d 00d2 1dbd 3a79 d53d
000000c0: 516c 3dbc 3def ca3c 5086 213a 3bb8 893d
000000d0: 9cf4 273c 3c65 3a3d 1db6 d03d 30d8 3c3d
000000e0: 8c54 ffbb 8491 9abd 22cf 2abd cdf4 353d
000000f0: b5ac 923b 2453 103b fdaf 95bc c158 c93c
00000100: e002 0fbe f11a 8bbc 6071 63bd d9b9 6cbc
00000110: 175f ce3c 4641 513c 2c79 a63c 9488 efbd
00000120: ce46 5bbd 90a3 0bbc f92f da3c 78ae 103b
00000130: 43f7 203e af04 f63c acfb 46bd 5830 58bc
00000140: e433 43bd 949a 893d 3b2f 973d 8e60 97bc
00000150: ac53 8dbd 211a a53c 8c3b dfbd 7811 bebd
00000160: 1f6e d5bc 39e9 073d e31c d0bb b06d 993c
00000170: 3edf 453d 1eda 023e 614c 0f3c fd9b a73c
00000180: f943 84bd c4be 553b 799c 503d 78fe a93d
00000190: 0970 14bd fea0 20be 8fc9 11bd 924f f4bc
000001a0: 0a0f 62bd df0e 0d3d 1ae4 3dbc b06d a9bd
000001b0: fe2b cdbd 5f1d 013e fdbf 27bd 8603 fdbc
000001c0: 765d 403d 3cad 74bd a674 463d ddce c03d
000001d0: d08b 6d3b f784 793d 7d5b b03d d8cc 263d
000001e0: d663 893d 78d9 363d e788 dbbd 9cf7 7f3d
000001f0: ac52 39bd 4005 8e3d 3c64 0a3d 05d8 b03d
00000200: 8518 15bc b44d e53d 545a 003e a69a a8bd
00000210: ddeb 243d 3183 a63c c29c 27bb 6109 0a3c
00000220: d0f2 7fbb c40e 283d 85ad 9a3d 5c1b 133d
00000230: eb3d 0e3d a836 38ba 5a2d 5abd 4484 693d
00000240: 2cad 853d 025a 083d 93b0 c53c 57c0 9c3d
00000250: 1fbe a6bd 2f09 463d 733f 193e 573b 1cbc
00000260: 766a 3e3d 8be2 d63c 5073 833d 9771 5e3d
00000270: e1d7 5b3d ab36 dc3d f2da 2cbd 0c82 a1bd
00000280: 507b 473d b341 26be f601 66bd 8f06 db3d
00000290: 2d1b 71bd 4ae0 f2bc 25a4 13bc 8894 893d
000002a0: 0a02 ccbd 6a2f 1dbd b59e 313c 2a89 af3d
000002b0: 91a9 f4bd 2fea b0bc 9448 283e c8a7 91bd
000002c0: 46e2 9a3b 9d9e 333c f105 19bd 5de5 debc
000002d0: ea21 0ebe 0d84 57bd 3015 f53b 3802 db3c
000002e0: 8183 a53b cb45 60bb e27e 94bd 685e 1abd
000002f0: cb77 5fbd eb16 7b3d 25f5 be3c 9010 2dbd
00000300: 39c1 3a3d 4e9e 503d af69 0c3d 74b1 45bd
00000310: a6d8 ccbd 8e6b d23c b9f9 913d 7760 223c
00000320: 7e96 46bc f745 063d 34ae e0bc c935 3abe
00000330: 4761 543b e4d0 963d 7fed 103e 21c9 84bb
00000340: df73 bdbd 987b 9b3d 34ae 6d3c d918 ecbc
00000350: 8efa a5bb ca12 36bd 90ce 88bd 4a54 c0bd
00000360: 8a51 edbd 3c6f e73c d4d0 be3c 13f2 61bc
00000370: 586f 40bb 5dd3 5bbb fcd8 343c d31a 853c
00000380: 688f 91bd a63a b83a 4d32 97bd d5e5 83bb
00000390: 2a6c 053c e1ed 63bc 2a73 8d3d aff6 16bc
000003a0: 74e0 11bc be49 153c 6b3a bcbd 3ea9 f0bb
000003b0: c0c2 d13d 5f71 01bd e395 4f3d 47a8 43bd
000003c0: a802 c7bc d90e 03bd a2ae a63d 16f9 b23d
000003d0: 0cb5 a2bd 9081 9a3d 33bd b53d 0ad1 bbbc
000003e0: 6004 55bd c1ba 8abd a958 25bd 8721 d63d
000003f0: 68d2 febd c344 813d 77f3 e23c dc52 b93d

bias f4 [256]
-0.09982987 -0.03860535 -0.023396201 0.013666554 -0.046159588 -0.0132467495 -0.068135716 -0.0679366
-0.08823389 -0.016136622 -0.090313524 0.050445244 -0.012391499 -0.07021253 -0.016446933 -0.019846337
-0.021299217 -0.13714574 -0.12234402 -0.0458481 -0.1507341 -0.048962895 -0.064140595 -0.14096363
0.011941024 -0.0769403 -0.08341077 -0.015854504 -0.07268781 -0.035704613 -0.09006351 0.0060680173
-0.09938871 -0.11336695 -0.03524534 -0.08948645 -0.038719863 -0.05773811 0.0094384495 -0.04385448
-0.0390847 0.011664625 -0.097574264 -0.05966841 -0.07618818 -0.066437125 -0.0109328 -0.08431876
0.023289802 -0.023177644 0.041023426 -0.16020468 0.023379356 -0.0044671693 -0.024804873 0.008610585
-0.00056133274 -0.0557288 -0.0782652 0.028653182 -0.081698105 -0.05273083 -0.033940773 -0.08594323
-0.028779224 -0.014633464 -0.05484986 -0.07908726 -0.112510026 -0.017504202 -0.028160626 -0.069200255
-0.106075846 -0.0502878 -0.018106638 -0.007833347 -0.06592331 -0.0130637 -0.055880107 -0.11394409
-0.12193887 -0.080419466 -0.08201374 -0.029952195 -0.023322308 -0.04843905 -0.038187526 -0.15049627
-0.106825 -0.09579315 -0.021446541 0.013391345 -0.11018264 -0.11544752 -0.07944502 -0.02241049
-0.03363175 -0.084573835 -0.0016327248 -0.03956084 -0.09405183 -0.11037412 -0.083276436 0.010420524
-0.13778369 -0.010368767 -0.04128529 -0.007346155 -0.0840904 -0.09730445 -0.02948599 -0.054114435
-0.010487883 -0.03264437 -0.09451565 -0.08865467 -0.0915985 -0.12217435 -0.05359049 -0.067198224
-0.052509606 -0.11335197 -0.020585977 -0.04650237 -0.10386384 0.027212193 -0.025027387 -0.025708023
-0.057829663 -0.066820286 -0.05364133 -0.079404354 0.009159641 -0.07899138 -0.059990212 -0.03704371
-0.03319918 -0.027171673 -0.14699356 -0.0685191 0.0009668528 0.019771405 -0.012004856 -0.064896286
-0.000859818 -0.10167474 -0.07683819 -0.11444071 -0.010028182 0.0018693084 0.063124835 -0.06144015
-0.08198965 -0.04473617 -0.0020015198 -0.092270285 -0.08503081 -0.06270765 -0.06817325 -0.026226817
-0.04582738 0.046984076 0.0073836152 -0.09558396 0.005513425 -0.054671958 -0.07226131 -0.079038
-0.02573187 0.014549636 -0.05518424 -0.07583675 -0.092823416 -0.060489208 -0.06296002 -0.041413847
-0.10717591 0.019899836 -0.08224747 -0.100418285 -0.023599885 -0.12120158 -0.045727782 -0.0067168097
-0.036026515 0.035851307 -0.05541009 -0.133151 0.015858628 -0.027485788 -0.06691027 -0.048647292
-0.03577571 -0.11861791 -0.024440361 -0.099926576 -0.035845038 -0.06864298 -0.1115127 -0.11287665
-0.12313542 -0.12233391 -0.083723426 -0.1041183 -0.016945587 -0.07135992 -0.04653925 -0.056644067
-0.09629585 -0.022912316 -0.025531188 -0.08906685 -0.024118874 -0.09512278 -0.10615418 -0.026250372
-0.0980329 -0.04148112 -0.042578645 -0.08503598 -0.078010894 -0.048974052 -0.086019084 0.008892864
0.06292992 -0.022649117 0.0039826287 -0.10440861 0.0046818713 -0.052260086 -0.096151195 -0.0774026
-0.049023565 -0.08737988 0.027802683 -0.029107368 -0.040055417 -0.0046863225 -0.02323847 -0.09079188
-0.083849385 -0.037526157 -0.03673871 -0.0119125545 -0.079082094 -0.05446453 -0.09610199 -0.088789284
-0.029133629 -0.15313694 -0.07814401 -0.016523223 -0.026930775 -0.050241403 -0.046962243 -0.077139996
00000000: 9a73 ccbd a520 1ebd 64a9 bfbc afe9 5f3c
00000010: d611 3dbd e508 59bc bd8a 8bbd 5822 8bbd
00000020: f8b3 b4bd f330 84bc 4cf6 b8bd ac9f 4e3d
00000030: b705 4bbc 96cb 8fbd b8bb 86bc c994 a2bc
00000040: b27b aebc ef6f 0cbe 808f fabd 38cb 3bbd
00000050: 0a5a 1abe 518d 48bd 255c 83bd c558 10be
00000060: 49a4 433c e092 9dbd 44d3 aabd 4ee1 81bc
00000070: 59dd 94bd 003f 12bd 3873 b8bd 38d6 c63b
00000080: 4f8c cbbd ee2c e8bd 6b5d 10bd ac44 b7bd
00000090: b898 1ebd cc7e 6cbd baa3 1a3c c1a0 33bd
000000a0: 4717 20bd fc1c 3f3c 04d5 c7bd dd66 74bd
000000b0: 8c08 9cbd 3010 88bd 7d1f 33bc 50af acbd
000000c0: 41ca be3c 0bdf bdbc 2e08 283d b20c 24be
000000d0: 1086 bf3c 5561 92bb 9733 cbbc 6913 0d3c
000000e0: 6726 13ba e243 64bd 8149 a0bd 14ba ea3c
000000f0: 5651 a7bd 48fc 57bd 7b05 0bbd 0103 b0bd
00000100: 68c2 ebbc 32c1 6fbc 3faa 60bd 80f8 a1bd
00000110: a86b e6bd f964 8fbc 1db1 e6bc ddb8 8dbd
00000120: 4b3e d9bd 95fa 4dbd 5f54 94bc 7057 00bc
00000130: cd02 87bd 2109 56bc 8ae2 64bd 855b e9bd
00000140: 16bb f9bd f6b2 a4bd d2f6 a7bd 4e5e f5bc
00000150: 6d0e bfbc 0668 46bd 866a 1cbd b21b 1abe
00000160: 11c7 dabd 332f c4bd a8b0 afbc 5f67 5b3c
00000170: 70a7 e1bd c06f ecbd 12b4 a2bd 3496 b7bc
00000180: 72c1 09bd 0c35 adbd 2701 d6ba 8c0a 22bd
00000190: 3f9e c0bd d40b e2bd d68c aabd d8ba 2a3c
000001a0: 2b17 0dbe c3e1 29bc c41a 29bd 04b8 f0bb
000001b0: 9637 acbd 8e47 c7bd 9a8c f1bc 19a7 5dbd
000001c0: 5fd5 2bbc 1ab6 05bd 6c91 c1bd 9490 b5bd
000001d0: ff97 bbbd 8c36 fabd b481 5bbd 399f 89bd
000001e0: 5014 57bd 1425 e8bd eca3 a8bc 4579 3ebd
000001f0: 91b6 d4bd 1bec de3c 3c06 cdbc a299 d2bc
00000200: ccde 6cbd 13d9 88bd 03b7 5bbd c09e a2bd
00000210: 5212 163c 3cc6 a1bd 4cb8 75bd 25bb 17bd
00000220: ddfb 07bd 2197 debc 7b85 16be be53 8cbd
00000230: 6574 7d3a a4f7 a13c 04b0 44bc 58e8 84bd
00000240: 6965 61ba d93a d0bd 575d 9dbd e45f eabd
00000250: 3e4d 24bc 9503 f53a 9847 813d aba8 7bbd
00000260: 31ea a7bd 463d 37bd ee2b 03bb 34f8 bcbd
00000270: a224 aebd de6c 80bd 6b9e 8bbd 9fd9 d6bc
00000280: 7eb5 3bbd 6072 403d 41f2 f13b 86c1 c3bd
00000290: f6a9 b43b b4ef 5fbd bdfd 93bd adde a1bd
000002a0: a5cb d2bc 9961 6e3c df08 62bd 4c50 9bbd
000002b0: 341a bebd 88c3 77bd 2ff1 80bd 91a1 29bd
000002c0: 0b7f dbbd fb04 a33c 5d71 a8bd 1aa8 cdbd
000002d0: 8c54 c1bc 8938 f8bd 0e4d 3bbd af18 dcbb
000002e0: 8a90 13bd d2d8 123d b1f5 62bd bc58 08be
000002f0: f4e9 813c e029 e1bc 4008 89bd 6242 47bd
00000300: 8d89 12bd f2ed f2bd 2737 c8bc 4ea6 ccbd
00000310: 3fd2 12bd b194 8cbd c560 e4bd e02b e7bd
00000320: 6c2e fcbd 338a fabd 3077 abbd fa3b d5bd
00000330: 79d1 8abc 2625 92bd f19f 3ebd 9c03 68bd
00000340: c236 c5bd 9cb2 bbbc c826 d1bc ae68 b6bd
00000350: f294 c5bc bbcf c2bd 5d67 d9bd 050b d7bc
00000360: 79c5 c8bd 1be8 29bd f266 2ebd 5827 aebd
00000370: 2dc4 9fbd 0499 48bd c62a b0bd 60b3 113c
00000380: 67e1 803d a48a b9bc b680 823b 2ed4 d5bd
00000390: 626a 993b ac0e 56bd ebea c4bd 4185 9ebd
000003a0: efcc 48bd 39f4 b2bd 74c2 e33c 9372 eebc
000003b0: 2611 24bd b98f 99bb 9b5e bebc 18f1 b9bd
000003c0: 3ab9 abbd 07b5 19bd 547b 16bd e02c 43bc
000003d0: cbf5 a1bd 3316 5fbd 1fd1 c4bd 28d7 b5bd
000003e0: a6a9 eebc eecf 1cbe f709 a0bd b65b 87bc
000003f0: ee9d dcbc eec9 4dbd 7b5b 40bd 93fb 9dbd

weight f4 [128, 256]
0.037354082 0.016293412 -0.09841557 -0.097418554 -0.08777164 -0.086783454 0.09995548 -0.08383454
0.03816654 0.10860468 0.07563019 -0.08166636 0.020234762 0.03971901 -0.012686292 -0.035352148
0.036696114 -0.01451154 0.008929926 0.025105257 0.03537801 0.017904086 -0.005324671 -0.023300251
-0.09366028 0.087629825 -0.048590362 -0.01313568 -0.04032377 -0.019047478 -0.046257302 0.11811046
-0.053041738 -0.002336803 0.0715293 -0.053203464 0.05538508 -0.03219242 0.031857412 -0.06382536
-0.00051127997 -0.18252991 0.031176856 0.040144727 -0.040390145 0.027827958 -0.06397228 0.12976013
-0.12111467 0.061859284 0.0052091186 0.0559266 0.04515169 0.08020659 -0.06698782 0.008392476
-0.010316799 -0.0041106557 -0.097418204 -0.06818365 -0.027048154 0.05284451 0.02140594 -0.076798774
-0.088056825 -0.025568444 -0.022071697 -0.0015153377 0.017513702 -0.002850921 0.04896802 0.07401509
0.022044271 -0.05754417 -0.03537478 -0.056643166 0.17150989 0.052032914 -0.08376553 -0.052370377
0.035995826 0.05000509 -0.020503113 0.019928174 0.02969901 0.06662922 -0.026131777 -0.031095745
0.042486966 -0.0022234684 0.029322617 -0.05339165 -0.0008851084 0.117834136 0.016484361 -0.0021443167
0.062737495 0.06210634 -0.050747413 0.03909271 0.0044590286 -0.04680797 0.00019173988 -0.0315715
0.11076114 0.09090148 -0.09434447 -0.0724181 -0.030841427 -0.012090783 0.015509622 0.03946962
0.06679569 0.050181724 -0.04666597 -0.023212831 0.06598664 0.06552305 -0.07042902 -0.03369147
0.00048762767 -0.015642164 -0.0746241 0.01244326 -0.015960574 0.023933075 -0.0066192765 -0.0019728402
0.04040578 0.041533332 -0.065270916 -0.10551752 -0.0156943 0.10542398 -0.11986454 -0.059695
0.063536555 0.016792182 0.07254583 0.054205492 -0.0011929941 -0.012244074 -0.028531676 -0.1144036
-0.080014415 0.0509751 -0.019007992 0.019796211 -0.0252026 -0.039174665 -0.08241728 -0.04281058
0.030305153 -0.011653233 0.012057423 0.018424002 -0.05855162 0.021349601 -0.012318411 -0.01811208
0.013583307 -0.15832004 -0.063271165 0.042036355 -0.11491152 0.01533955 0.0043530418 -0.011002112
0.026514199 -0.06640728 -0.013791519 0.030041257 -0.014358822 -0.07244526 0.08223562 -0.06976569
0.034841675 -0.028490841 -0.05629907 -0.058264267 -0.041931015 0.08932654 0.050277162 -0.002328592
-0.006926438 -0.08277628 -0.017944919 -0.016730417 -0.0052663223 0.019153798 -0.0787946 -0.06529717
-0.043504816 -0.01711028 -0.12938575 -0.005555745 -0.0071291174 0.060360197 0.04180726 -0.02144968
-0.02390485 -0.041521437 0.00806638 -0.002096002 -0.085347295 -0.00038819743 -0.09974382 -0.08181908
0.057594184 -0.021388367 0.025525672 0.001465945 -0.081480764 0.076035604 0.03855055 0.013521566
0.08993476 0.03975799 -0.021310678 0.008772775 -0.09181474 0.007674793 0.0057806075 -0.01974361
-0.031497423 0.04830646 -0.08636511 0.00213533 -0.022180416 -0.008892349 -0.034268152 0.014422914
-0.028583903 -0.028094051 0.036639776 -0.10781201 0.01294298 0.046820663 -0.016627813 -0.06436701
-0.03681377 0.12133977 -0.1077056 -0.14763553 0.09871681 -0.022852467 -0.041668426 -0.012389147
-0.06722864 0.020148613 -0.019639777 0.03588511 -0.014073031 -0.056649856 -0.03423562 -0.036254305
00000000: 9800 193d c379 853c 1a8e c9bd 6183 c7bd
00000010: 9ec1 b3bd 86bb b1bd 75b5 cc3d 71b1 abbd
00000020: 8554 1c3d 216c de3d 00e4 9a3d b140 a7bd
00000030: 5fc3 a53c 67b0 223d 2ada 4fbc 6acd 10bd
00000040: aa4e 163d cfc1 6dbc d34e 123c 8aa9 cd3c
00000050: 88e8 103d 97ab 923c 947a aebb 2be0 bebc
00000060: f6d0 bfbd 4477 b33d b006 47bd 0937 57bc
00000070: 8a2a 25bd 7509 9cbc 4c78 3dbd e6e3 f13d
00000080: 4b42 59bd 0c25 19bb f47d 923d e0eb 59bd
00000090: 77db 623d 33dc 03bd eb7c 023d dfb6 82bd
000000a0: 6b07 06ba 1fe9 3abe 9b66 ff3c cc6e 243d
000000b0: 2370 25bd 75f7 e33c e603 83bd d7df 043e
000000c0: f80a f8bd 2960 7d3d 41b1 aa3b 4a13 653d
000000d0: faf0 383d 5a43 a43d e930 89bd 9880 093c
000000e0: cb07 29bc aeb2 86bb 3283 c7bd dfa3 8bbd
000000f0: 1794 ddbc 7c73 583d 835b af3c ad48 9dbd
00000100: 2357 b4bd ea74 d1bc b4cf b4bc 4c9e c6ba
00000110: e578 8f3c 84d6 3abb b192 483d 3995 973d
00000120: 3096 b43c 70b3 6bbd 25e5 10bd aa02 68bd
00000130: 4aa0 2f3e 7720 553d 438d abbd 5282 56bd
00000140: 5c70 133d 23d2 4c3d 25f6 a7bc 6940 a33c
00000150: 574b f33c e774 883d 4f12 d6bc 81bc febc
00000160: d006 2e3d 9cb7 11bb fc35 f03c 34b1 5abd
00000170: 9f06 68ba 0653 f13d 360a 873c aa87 0cbb
00000180: 847c 803d 3863 7e3d 85dc 4fbd ad1f 203d
00000190: 0b1d 923b b7b9 3fbd c80d 4939 1e51 01bd
000001a0: bdd6 e23d 8e2a ba3d ac37 c1bd f14f 94bd
000001b0: 29a7 fcbc 6b18 46bc 121c 7e3c e5aa 213d
000001c0: 2ecc 883d 5a8b 4d3d d124 3fbd d628 bebc
000001d0: 0124 873d f330 863d 173d 90bd 1100 0abd
000001e0: 47a8 ff39 ff23 80bc 85d4 98bd d1de 4b3c
000001f0: c0bf 82bc 4c0f c43c 84e6 d8bb c44a 01bb
00000200: 8880 253d db1e 2a3d c2ac 85bd 9219 d8bd
00000210: 5591 80bc 87e8 d73d 8a7b f5bd bf82 74bd
00000220: 741f 823d c28f 893c e892 943d 9406 5e3d
00000230: 3d5e 9cba 5e9b 48bc 43bb e9bc 6f4c eabd
00000240: 99de a3bd 44cb 503d a6b6 9bbc aa2b a23c
00000250: af75 cebc 9d75 20bd 64ca a8bd 265a 2fbd
00000260: 8342 f83c 34ed 3ebc 7f8c 453c efed 963c
00000270: d3d3 6fbd 5ce5 ae3c 29d3 49bc c95f 94bc
00000280: 858c 5e3c a61e 22be 5094 81bd 502e 2c3d
00000290: bb56 ebbd bc52 7b3c f6a3 8e3b 3442 34bc
000002a0: 4e34 d93c 8a00 88bd d3f5 61bc 1519 f63c
000002b0: 4441 6bbc 2e5e 94bd 266b a83d 50e1 8ebd
000002c0: 25b6 0e3d a065 e9bc db99 66bd 83a6 6ebd
000002d0: dbbf 2bbd d5f0 b63d 6def 4d3d 4a9b 18bb
000002e0: 2cf7 e2bb 9c86 a9bd 3901 93bc 3a0e 89bc
000002f0: 1d91 acbb 6de8 9c3c 105f a1bd 86ba 85bd
00000300: 1b32 32bd dc2a 8cbc b37d 04be f80c b6bb
00000310: 5f9b e9bb 413c 773d 173e 2b3d 3db7 afbc
00000320: 1bd4 c3bc 6212 2abd da28 043c 145d 09bb
00000330: 90ca aebd fa86 cbb9 7d46 ccbd c390 a7bd
00000340: e1e7 6b3d a836 afbc 371b d13c f424 c03a
00000350: 63df a6bd 8eb8 9b3d 2ee7 1d3d 8f89 5d3c
00000360: b72f b83d 46d9 223d bb93 aebc afbb 0f3c
00000370: 5e09 bcbd d47c fb3b 406b bd3b 5abd a1bc
00000380: 7103 01bd ffdc 453d 31e0 b0bd e5f0 0b3b
00000390: b4b3 b5bc 37b1 11bc c35c 0cbd 164e 6c3c
000003a0: ca28 eabc 7f25 e6bc 9713 163d 8bcc dcbd
000003b0: cb0e 543c 06c7 3f3d 0d37 88bc dad2 83bd
000003c0: 09ca 16bd fc80 f83d c194 dcbd c52d 17be
000003d0: 0a2c ca3d 1935 bbbc 83ac 2abd d9fb 4abc
000003e0: 2baf 89bd b40e a53c 99e3 a0bc 44fc 123d
000003f0: 9292 66bc ae09 68bd a63a 0cbd 657f 14bd

bias f4 [128]
-0.10131963 -0.046551384 -0.037801333 -0.059352215 0.008345457 -0.09044535 -0.10733226 -0.07007023
-0.045492567 -0.04046772 0.027504047 -0.09913241 -0.046095204 -0.07389033 -0.10397358 -0.07239586
-0.06339705 -0.07559322 -0.055082593 -0.050329607 -0.08731694 -0.064205766 -0.07940416 -0.07243931
-0.02164604 -0.07314737 -0.009814487 -0.025384532 0.0011717743 -0.01896719 -0.0038277204 0.011055723
0.0029037495 0.0041411226 -0.056677062 -0.056616753 -0.06267625 -0.068956256 -0.10786106 -0.120137595
-0.074974105 -0.08918917 -0.08805857 -0.040121406 -0.021291668 -0.049823307 -0.036437187 -0.011950617
-0.020063309 -0.14130294 0.016633898 -0.010739704 -0.03170014 0.054156337 -0.06999184 -0.02104072
0.009791511 -0.06526262 -0.008366517 0.018848892 -0.088300064 0.017518066 -0.08922477 -0.008449706
-0.097517595 -0.02406726 -0.03350566 -0.0217546 -0.038376443 -0.0074238405 -0.07718938 -0.011039094
-0.025018197 -0.039337173 0.05442943 0.006555588 0.013629894 -0.043047052 -0.031556655 -0.118558876
0.012292554 -0.07159824 0.0041640243 0.017888758 -0.100771725 -0.04677682 0.024773085 -0.038732618
-0.0060883295 -0.027419567 -0.09097272 -0.014803701 0.035573825 -0.074358106 -0.026768535 -0.11136051
-0.007764702 -0.0009249983 -0.019680081 -0.06625147 -0.03531916 -0.13565078 0.08458985 0.005975411
-0.017223902 -0.0101655945 0.029064607 -0.057371862 -0.057140097 -0.056236345 -0.028695395 -0.06494593
-0.0028555267 -0.05042773 -0.08902952 -0.04899443 -0.009476051 -0.013512426 -0.044981774 -0.020424912
-0.0059316643 0.03990224 -0.0012883007 -0.04084917 -0.016537001 -0.05170855 -0.07682978 -0.07412078
00000000: ab80 cfbd aaac 3ebd 92d5 1abd 4f1b 73bd
00000010: 62bb 083c 693b b9bd 04d1 dbbd fb80 8fbd
00000020: 6a56 3abd 7bc1 25bd 2b50 e13c ef05 cbbd
00000030: 53ce 3cbd d053 97bd 1af0 d4bd 4844 94bd
00000040: 50d6 81bd 9ed0 9abd 499e 61bd 6b26 4ebd
00000050: 39d3 b2bd 507e 83bd a69e a2bd 105b 94bd
00000060: 0953 b1bc 4ace 95bd f1cc 20bc 39f3 cfbc
00000070: 3996 993a 1561 9bbc 7eda 7abb 1023 353c
00000080: d54c 3e3b 41b2 873b 3526 68bd f8e6 67bd
00000090: 685c 80bd f038 8dbd 42e6 dcbd b30a f6bd
000000a0: 068c 99bd d0a8 b6bd 0d58 b4bd 5856 24bd
000000b0: dd6b aebc 8613 4cbd 293f 15bd 85cc 43bc
000000c0: cf5b a4bc b8b1 10be d043 883c 95f5 2fbc
000000d0: 02d8 01bd 09d3 5d3d e257 8fbd 975d acbc
000000e0: 936c 203c 69a8 85bd b713 09bc fe68 9a3c
000000f0: aad6 b4bd 0c82 8f3c 7abb b6bd a370 0abc
00000100: 4eb7 c7bd b428 c5bc 3b3d 09bd b436 b2bc
00000110: 9e30 1dbd b043 f3bb 7715 9ebd 51dd 34bc
00000120: f6f2 ccbc 0420 21bd 65f1 5e3d 42d0 d63b
00000130: eb4f 5f3c 1b52 30bd 8d41 01bd ffce f2bd
00000140: b566 493c 19a2 92bd 5e72 883b 728b 923c
00000150: 6861 cebd 0d99 3fbd edf0 ca3c 18a6 1ebd
00000160: 9c80 c7bb 009f e0bc e84f babd 398b 72bc
00000170: dcb5 113d 1049 98bd b049 dbbc fb10 e4bd
00000180: 0b6f febb 967b 72ba 1f38 a1bc daae 87bd
00000190: d3aa 10bd 0ae8 0abe 713d ad3d 61cd c33b
000001a0: 2419 8dbc 988d 26bc e618 ee3c c2fe 6abd
000001b0: bc0b 6abd 1558 66bd 9b12 ebbc 5f02 85bd
000001c0: ca23 3bbb 4f8d 4ebd 1c55 b6bd 62ae 48bd
000001d0: 7041 1bbc 3963 5dbc cf3e 38bd 2552 a7bc
000001e0: 685e c2bb 8870 233d 33dc a8ba 7651 27bd
000001f0: 9b78 87bc 58cc 53bd ef58 9dbd a3cc 97bd

weight f4 [12, 128]
0.004711052 0.04358904 0.012009388 0.014024169 0.033062384 0.02357421 -0.034249138 0.017882973
0.03453568 0.04395784 0.02198541 0.006297796 0.043326832 -0.05439428 0.0269169 0.0076745288
-0.039384015 0.09215451 0.03439854 -0.03493425 0.055453446 0.004472694 0.009027292 0.0046366965
0.02507601 0.04908427 0.048965544 -0.025236309 0.07511001 -0.035087395 0.017474618 0.04165333
0.05118593 0.016001677 -0.02758164 -0.053005952 0.028073875 0.037252985 -0.06462619 0.031901922
-0.09650776 0.00576764 -0.0064526745 0.017622495 -0.03427408 0.0035776393 0.012960977 0.05692561
0.002913393 0.019228332 -0.019222526 -0.012008043 0.018157478 0.003227305 0.022844 0.00013584817
-0.05152578 0.030422507 -0.042148992 -0.028185952 0.004659818 0.0020791732 -0.016020412 0.025478642
0.014780305 -0.006991354 0.03704314 -0.020562116 0.032490257 -0.022896975 -0.031005396 0.027469866
0.04217966 -0.0013066031 0.055728987 -0.06945572 -0.033491347 0.019198438 0.022000136 -0.06314025
-0.06314056 -0.07516405 0.04135528 -0.03739908 -0.046159476 -0.024561485 -0.082657084 -0.021423362
0.063350074 -0.06164753 0.020463306 0.016325172 -0.008879601 -0.025910446 -0.028295953 -0.002941498
0.06587033 0.05284952 -0.022505853 0.006846021 0.005430467 0.022492839 -0.06959171 0.0071927663
-0.060676336 0.011116108 -0.08636625 0.036160152 0.02609354 0.014769263 0.022493454 -0.06695167
0.0017328175 -0.08920801 0.029054774 0.030327927 -0.047926426 -0.0022718278 0.039627902 -0.023154536
-0.036181234 -0.03260505 0.017766694 -0.018672775 -0.009402018 0.02135113 -0.008162741 0.004266659
-0.042957436 -0.015587445 0.042351484 -0.045141064 -0.045161027 0.017193198 0.022316733 0.0029287415
-0.023371901 -0.024650212 0.054456964 -0.028049812 0.055436734 0.029737394 -0.08489299 0.0023826968
-0.008472827 -0.0526129 0.009387638 0.045601416 0.012612819 -0.025521196 -0.035650574 0.0037988345
-0.05376402 -0.013897497 -0.023430321 0.008022498 0.027141886 0.014071143 -0.035637256 0.046717778
-0.028731529 -0.07038184 -0.0018951027 -0.009699731 0.018625319 0.01477376 -0.029474076 0.092362866
0.022557313 0.02048684 -0.010150793 -0.055216797 0.028203476 -0.0343893 0.05592253 0.023583287
0.021338886 -0.017070154 0.010960235 0.03707963 0.016439825 0.06306502 0.0031064977 0.036507867
0.005397682 0.03433453 -0.029075641 -0.018921487 -0.013831998 -0.07457639 -0.032342177 -0.017915545
-0.029471345 0.05908382 -0.013285213 0.021664014 -0.010785331 0.053476695 -0.043486126 0.008795563
-0.07636144 -0.01156063 0.033457316 -0.005287852 -0.07338362 0.017751984 0.00974288 -0.03136922
0.017661482 -0.00957619 0.02800234 -0.0581744 0.013382226 -0.05532838 0.030164698 0.050876465
0.058627423 -0.07742014 -0.039799884 0.010405004 -0.044101395 0.051950417 0.048155576 0.0003100675
-0.0053982 -0.053879507 -0.06091097 0.039851785 0.018612439 0.007897124 -0.0035549046 0.020321738
0.04076251 0.058148604 0.054804873 0.009734225 0.0066193547 0.0046325563 -0.024451042 -0.020444173
-0.037191443 0.028270615 0.0062093628 0.026120616 0.003505503 -0.0150189875 -0.072970584 0.0011267149
0.019738916 -0.00070046564 -0.0024391094 -0.078159735 -0.01815166 -0.025627412 0.013950554 0.032946747
00000000: 2b5f 9a3b 6c8a 323d 06c3 443c a1c5 653c
00000010: 6c6c 073d b41e c13c d348 0cbd 507f 923c
00000020: 4975 0d3d 230d 343d bf1a b43c be5d ce3b
00000030: 7a77 313d 89cc 5ebd d580 dc3c 9d7a fb3b
00000040: 2251 21bd 81bb bc3d 7ce5 0c3d 3717 0fbd
00000050: 2723 633d ad8f 923b 35e7 133c 6eef 973b
00000060: 346c cd3c 960c 493d 1890 483d 60bc cebc
00000070: 47d3 993d cdb7 0fbd ee26 8f3c af9c 2a3d
00000080: 56a8 513d f315 833c e4f2 e1bc c51c 59bd
00000090: 2ffb e53c 9696 183d bc5a 84bd 97ab 023d
000000a0: dca5 c5bd 79fe bc3b f570 d3bb 0d5d 903c
000000b0: fa62 0cbd d476 6a3b 475a 543c d42a 693d
000000c0: a0ee 3e3b bc84 9d3c 8f78 9dbc 62bd 44bc
000000d0: febe 943c 3181 533b 5723 bb3c 7772 0e39
000000e0: b20c 53bd 9f38 f93c 6ca4 2cbd 3ae6 e6bc
000000f0: 63b1 983b bd42 083b 3d3d 83bc 96b8 d03c
00000100: 1829 723c ba17 e5bb 8cba 173d e271 a8bc
00000110: 8114 053d 7092 bbbc 07ff fdbc 7c08 e13c
00000120: 94c4 2c3d 5342 abba 1444 643d cd3e 8ebd
00000130: 392e 09bd 0b46 9d3c a139 b43c ad4f 81bd
00000140: d74f 81bd 9cef 99bd 2764 293d c72f 19bd
00000150: b811 3dbd 2b35 c9bc 1e48 a9bd 0c80 afbc
00000160: afbd 813d 1f82 7cbd aaa2 a73c 5ebc 853c
00000170: bf7b 11bc 2542 d4bc eacc e7bc 26c6 40bb
00000180: 06e7 863d bd78 583d 325e b8bc 9654 e03b
00000190: 0ff2 b13b e742 b83c 1986 8ebd 4cb1 eb3b
000001a0: c087 78bd 5620 363c cae0 b0bd ab1c 143d
000001b0: 1fc2 d53c c7fa 713c 3144 b83c f51d 89bd
000001c0: b51f e33a b0b2 b6bd 4704 ee3c 4672 f83c
000001d0: 804e 44bd f2e2 14bb de50 223d 95ae bdbc
000001e0: c632 14bd df8c 05bd 758b 913c a6f7 98bc
000001f0: ec0a 1abc 91e8 ae3c 04bd 05bc 54cf 8b3b
00000200: 23f4 2fbd 7c62 7fbc c078 2d3d d6e5 38bd
00000210: c5fa 38bd c0d8 8c3c 95d1 b63c 21f0 3f3b
00000220: 6e76 bfbc 3eef c9bc 440e 5f3d b8c8 e5bc
00000230: a111 633d d69b f33c 60dc adbd 0527 1c3b
00000240: 9dd1 0abc a080 57bd 9cce 193c 8dc8 3a3d
00000250: ffa5 4e3c d411 d1bc 5606 12bd def5 783b
00000260: a937 5cbd 54b2 63bc f2f0 bfbc cc70 033c
00000270: a958 de3c a78a 663c 5ff8 11bd 245b 3f3d
00000280: 625e ebbc 5b24 90bd 1865 f8ba 9feb 1ebc
00000290: 2094 983c a40d 723c 9e73 f1bc be28 bd3d
000002a0: 1dca b83c 04d4 a73c 834f 26bc 022b 62bd
000002b0: fa0a e73c cbdb 0cbd 060f 653d bd31 c13c
000002c0: e3ce ae3c b5d6 8bbc 8f92 333c cfe0 173d
000002d0: d0ac 863c 3c28 813d 6296 4b3b 4689 153d
000002e0: 0adf b03b 5da2 0c3d 0a30 eebc 3c01 9bbc
000002f0: 9b9f 62bc 82bb 98bd 3b79 04bd 9fc3 92bc
00000300: e46d f1bc e001 723d 39aa 59bc bb78 b13c
00000310: f5b4 30bc 610a 5b3d 821e 32bd 441b 103c
00000320: 6363 9cbd cc68 3dbc 8a0a 093d b845 adbb
00000330: 274a 96bd 9c6c 913c 9aa0 1f3c 037d 00bd
00000340: d0ae 903c 74e5 1cbc 2a65 e53c 4848 6ebd
00000350: 2041 5b3c 03a0 62bd f51b f73c d763 503d
00000360: 4f23 703d 738e 9ebd 3405 23bd c079 2a3c
00000370: aaa3 34bd f6c9 543d c83e 453d 8e90 a239
00000380: 62e3 b0bb c2b0 5cbd c87d 79bd a03b 233d
00000390: 1d79 983c f062 013c 67f9 68bb c679 a63c
000003a0: 97f6 263d 3b2d 6e3d 137b 603d 4d7c 1f3c
000003b0: 2ce7 d83b b3cc 973b 8d4d c8bc 8a7a a7bc
000003c0: 0e56 18bd c797 e73c e977 cb3b e7fa d53c
000003d0: 95bc 653b 3312 76bc 9a71 95bd 47ae 933a
000003e0: 82b3 a13c 749f 37ba 77d9 1fbb 3612 a0bd
000003f0: cab2 94bc 94f0 d1bc dd90 643c 2bf3 063d

bias f4 [12]
0.01736864 -0.018816633 0.03602419 0.12432169 0.10734647 -0.038114425 -0.026344117 0.00876068
0.0012757664 0.10677803 0.07028354 0.05155692
00000000: ae48 8e3c 5725 9abc 1a8e 133d 5f9c fe3d
00000010: 77d8 db3d df1d 1cbd 9ecf d7bc f588 0f3c
00000020: 9e37 a73a 71ae da3d d1f0 8f3d 592d 533d
