policies/sim2real_tutorial/policy_flat_DR/exported/policy.pt (torch, 769376 bytes, 8 tensors)

weight f4 [512, 45]
00000000: 9aef 18be 403a 07be 35f1 1f3e 8859 c83d
00000010: 938d c93c 9fc7 c53d 762c 3fbe 19b1 91be
00000020: daee c3bd d769 5bbe 172b 49be 845a dcbe
00000030: 0d33 28be e619 aebd d831 96be a098 4ebe
00000040: 04c7 52be ab25 9c3e 39fc adbd dcb4 283e
00000050: 4528 8e3e d57c cfbd 8513 193d 1dbd b4bc
00000060: 91b7 203d 404e 1f3b 676a 52bc faf3 5fbd
00000070: 8327 a83d 3443 66bd a98d f1bc 97a3 403d
00000080: ff51 373d 1708 4bbd 1977 29be c523 5bbe
00000090: 8052 f3bd 4a37 4b3e 8db4 393d c783 debd
000000a0: c5fa 38bd cbc6 283e 2659 97bd de7c 0dbe
000000b0: 6ff8 ac3d 8349 133c 3496 0c3d 712f a03c
000000c0: 3fae e2bd 5946 6fbd b32e 903d df8a 34be
000000d0: d427 bfbe f8f6 613e a854 02bf 3cfa bf3c
000000e0: 3b01 9fbe 8c7d 8fbe fd6c 0cbe 6c34 203d
000000f0: abe9 70bd a6c8 c93d 7ccd 7e3d 605e c2bd
00000100: a747 a13d 93dc 0fbe 0ecc 4b3d e830 c0bc
00000110: 2ded 06bd 1fa2 7e3d f567 99bd d6e7 e43d
00000120: 9a37 893d 4bdf a03d 9fa2 8e3d 87d0 a8bc
00000130: 5417 96bd 7e83 013d 348d afbe 72ed 23be
00000140: 6ad3 973a 0729 69bd 85e8 62bd d4f9 383e
00000150: e3b2 b8bd 383d 56be 960d 863d 1f7f b9bd
00000160: 7f52 9b3d 130d 99bd acdd 7bbd dc3c 2abd
00000170: 9b42 e5bb c8ea 02bc 81a0 273e a30a b13d
00000180: af5b 783e ccd7 0e3e e3d0 e5bd d142 f1bd
00000190: 4a73 cabd 0ab1 f43d 31e1 c4bd 8cd9 01be
000001a0: a496 20bd a836 293e fbbe 8abe cb81 87be
000001b0: 1922 553d 9c1b b63d 4ffa 2d3e 1e25 c1bd
000001c0: fdc7 d73d f8b5 403d f207 c2bd e0d1 aebd
000001d0: 07aa 2bbd af92 5eb9 918b c6bd ec34 abbb
000001e0: eda0 86bc 51fd 363d a975 a2bc d71b 9d3c
000001f0: c5b0 20bc b69a fbbd 928c 43be 7389 7c3d
00000200: 24e0 edbd b54d 213e 0686 82bd 2198 37be
00000210: 5630 163e 2a93 f13d a814 06be 948b ea3d
00000220: 3a72 5c3c 8c50 cc3d 098c 823e eb93 903c
00000230: 119e c23d 970b 77be 73d6 e1bd 6128 26be
00000240: ae7b 273e 682c 8ebe 006d 983e eb15 ae3d
00000250: 70c3 f33c bede 39be fe92 82be 1351 b7be
00000260: aeda 063c ce7c 953d 5134 07be 4778 9dbe
00000270: e8b6 83bd 8fc5 673d 6c81 7abd 7238 be3d
00000280: bf35 17bc 0dd4 c0bc c274 863d 3cbc a03d
00000290: d521 82bd 1514 ebbc 785b c03c 2cb6 d23d
000002a0: 8877 1bbc 812c 0fbe d4bf 113e 722b c9bc
000002b0: bddd 0c3c ae1e 0b3d 5eca 59be 27af 35be
000002c0: 0033 363e 1ee8 043e c012 33bd 1404 98bd
000002d0: f754 ca3d 79d1 08be 1566 163e 9c3b 14bf
000002e0: dc23 653e 952a c7bd 0456 15be 9e08 b73e
000002f0: 3f59 893d 8c1f 7e3d bbbc 85be 40ac 0dbe
00000300: e0d0 a8bd 0f81 debc 6cff 0d3e cc82 cc3e
00000310: 4455 b73d 4f94 7abe 53bc 733e 310d c0bd
00000320: d4a5 ffbd bec1 043d df9c 8abd 7dd4 6f3d
00000330: 7a71 d2bd e17c a5bd fc6d 7f3d f07b a3bd
00000340: 06f4 88bd a9b1 aeb9 84ed 8c3d 055c d2bc
00000350: 28ad adbd c393 443e 0d4f 28be 5844 eebd
00000360: ccf3 3a3d 96b1 503e 5de3 bfbc 49eb cd3d
00000370: e7c8 383e 3255 98bd f77e 9f3d 4053 a2bd
00000380: 3abb e2bd e529 c8bd 1afc 1abe 2c86 843c
00000390: f533 ab3e 14a2 ddbe b345 1abd 5576 adbd
000003a0: 71ed c5bc 8a96 96be ca3d c73d 16f7 89bd
000003b0: 2965 8839 396f c23d 7107 163e a7b7 8b3d
000003c0: c69f a6be 67e7 42be 963a fb3d 5888 f3bd
000003d0: 3333 643e 9304 76be 4f9d 173c b64f 0d3d
000003e0: 0b74 1abd f860 b3bd f96c c83d d707 763d
000003f0: 3daa b4ba 7708 df3c 7b4f f73c beac 43bd
-0.1493515 -0.13205814 0.15619357 0.09782702 0.02460364 0.09657215 -0.18669304 -0.28455427
-0.09567042 -0.21427093 -0.19645344 -0.43037808 -0.16425724 -0.085010335 -0.29334903 -0.2017541
-0.20583731 0.30497488 -0.08495373 0.16475242 0.27765098 -0.10131232 0.03737213 -0.022062832
0.039237563 0.0024308115 -0.012842751 -0.054676034 0.08210661 -0.056216434 -0.029486494 0.04703101
0.044755932 -0.049568262 -0.16549338 -0.21400364 -0.1188097 0.1984531 0.045338202 -0.10864978
-0.045161027 0.16482083 -0.073900506 -0.13817164 0.084458224 0.0089896945 0.034322932 0.019553872
-0.11068391 -0.058416698 0.07040157 -0.176311 -0.37335074 0.22066867 -0.50910425 0.02343475
-0.31055626 -0.28025472 -0.1371345 0.039112493 -0.058816593 0.09852724 0.062207684 -0.09490657
0.07874995 -0.14048986 0.04975515 -0.02346082 -0.032941032 0.06216633 -0.07490531 0.11177032
0.06700058 0.0785509 0.06964611 -0.020607246 -0.07328668 0.03161954 -0.34287417 -0.16008547
0.0011583392 -0.056923892 -0.05539753 0.18064052 -0.09018495 -0.2092179 0.0654556 -0.090574495
0.07584094 -0.07473197 -0.0614907 -0.041561946 -0.0069964654 -0.0079905465 0.16369821 0.08644607
0.24253725 0.13949507 -0.112214826 -0.11780322 -0.09885271 0.1194783 -0.09613264 -0.12680644
-0.039206162 0.16524756 -0.27098832 -0.26466212 0.05203447 0.08891985 0.16990016 -0.09430908
0.105361916 0.04704854 -0.09474172 -0.08536124 -0.041910198 -0.00021226214 -0.09694589 -0.0052248146
-0.016434157 0.044675175 -0.019831495 0.019178314 -0.00980777 -0.12285368 -0.19096592 0.06165452
-0.11615017 0.15752299 -0.06373219 -0.17929126 0.14666876 0.117956474 -0.13093817 0.11452404
0.013454968 0.099763006 0.25497463 0.017648658 0.09502805 -0.24125515 -0.11027231 -0.16226341
0.16355774 -0.27768254 0.2977066 0.08500274 0.029756278 -0.18151376 -0.2550277 -0.35804042
0.008230848 0.07299195 -0.13203551 -0.30755827 -0.06431371 0.05658489 -0.061158583 0.0928811
-0.009229123 -0.023538614 0.065652385 0.07848403 -0.06354109 -0.0286961 0.023481116 0.10288653
-0.009488948 -0.1398182 0.14233333 -0.02455685 0.008597788 0.033964805 -0.21268603 -0.17742597
0.17792892 0.1297917 -0.043719053 -0.07422653 0.09879487 -0.13361157 0.14687379 -0.57903457
0.2237696 -0.09724919 -0.14583594 0.35748762 0.067064755 0.062041804 -0.26120552 -0.1383524
-0.08242965 -0.02716115 0.13866967 0.3994354 0.0895181 -0.24470638 0.23802309 -0.09377516
-0.12482801 0.03241133 -0.06768202 0.058552254 -0.1027555 -0.080804594 0.06236075 -0.079826236
-0.06687169 -0.00033320233 0.0688124 -0.025678644 -0.084802926 0.19196992 -0.16436405 -0.11634129
0.04564266 0.20380244 -0.023423845 0.10054643 0.18045388 -0.07438125 0.077878885 -0.07926035
-0.11070867 -0.09773616 -0.15135232 0.01617726 0.33438078 -0.43287718 -0.037664127 -0.08469836
-0.024161072 -0.29411727 0.09728582 -0.06736581 0.00026015312 0.0949387 0.14651276 0.06822138
-0.32543772 -0.19033585 0.12267034 -0.1189124 0.22285156 -0.24025182 0.009253814 0.034499846
-0.037708323 -0.0875873 0.0978641 0.06006607 -0.0013783645 0.027225716 0.030189266 -0.04777216

bias f4 [512]
00000000: de8d 113e 442f 0dbe 004c af3d bd30 8fbd
00000010: 5d59 043e be37 d6bd 1412 643d af26 2ebd
00000020: 93d1 153e 8ff9 843c d418 d2bc 5b9c 17be
00000030: f0f3 37bd a455 08bd efb3 8abc 1a2c 95be
00000040: 05e4 4e3e a267 9a3c 69af 27bd db18 bb3d
00000050: 3602 6dbd 2da4 56bd e6f7 8dbd ccee 243e
00000060: 5883 953d 8649 063d d883 413d d1e5 773d
00000070: 42b7 083e 5ee1 66bd 332a e63d a5e4 11be
00000080: 39fd 16bd 1a95 683d 3233 883d fa94 2cbd
00000090: 9606 3dbe d35c b0bc 7d6e 5dbe fa56 d43d
000000a0: 6d36 e3bd d6c9 0e3d 5195 5abe 3080 3d3e
000000b0: 5399 e53b 7e00 0cbe bab6 40be 6cea 36bd
000000c0: 9b1c 513c d357 9c3b 642f 91bd 11c4 a33d
000000d0: 7812 15be cf7f 993d e07f 6c3d 4613 5fbe
000000e0: ad59 b23d 74c8 b4bc 29cd f03c e005 88bd
000000f0: 528e f13c 035e 13be 7b9f 3ebe 0f60 41be
00000100: 8d86 033e 41b7 773d 772b 30be 8eff b73b
00000110: 5ea3 64bc 7d3f 9dbc 028f 0cbc ee18 153e
00000120: 978c 133d 72eb 82bd 8063 eabd 31c3 d3bd
00000130: d5fa 163c 5ee8 a4bd aca7 22bc 86da 0cbe
00000140: 9e3d be3d 1a7e 193e 7c0b 51be 2213 a23d
00000150: a37a 27bb d204 e6bc bea6 b83d 95fa 623d
00000160: ecb9 ca3d 00d6 823c 26a0 2a3c 3dca 5cbd
00000170: 5f6c ecbd 9bba 363d 46a1 ab3d 66d5 273d
00000180: 3b7b 0cbe 1f54 363e 119d 373b 7377 403e
00000190: 8f3e 153e 993e ed3d 390a fabd 05e8 f63d
000001a0: aa6b 82be 6e3c f0bc 8503 1ebe 39b6 fc3d
000001b0: 3b66 863d cb2c 033d 24cb 97bd 3fb7 f8bd
000001c0: 5f4f ba3d 9d2f eb3d 5a33 fd3c f2cb ccbd
000001d0: 15d2 3fbd ed67 06be ddac 8e3d d3ec d83d
000001e0: 7cd4 d53d ae7a 853d 6332 a8bc af37 193d
000001f0: d217 acbd 747b b33d 9ed6 853d dcda 34be
00000200: bff1 1e3e 5af0 e5bc a126 b93d 875b 37be
00000210: ad00 d7bd 2064 283e 0508 2abe a17d 96bd
00000220: 5e03 673e 2e76 2bbc b89d da3d 8321 7abc
00000230: 04b6 f9bc 7170 38be 0b16 8fbc 1e46 a33c
00000240: 6e98 c23d df01 84bd d303 f63c 401f 8d3d
00000250: eee7 0b3e 429f 2a3c c1e4 2cbe 2178 cfbd
00000260: 75ed a73d ad62 fd3c 635f 70be 51ce 8e3d
00000270: d869 27be ac2f 8bbd 5b44 fe3c 6b78 e8bc
00000280: 4c06 48be f24b 643e 8b1f fe3d d072 65bc
00000290: acc3 17be 93bd 353e 1754 02bc 3ad7 46be
000002a0: afd6 0cbe 348e 04bd 13f0 933d 819c 773d
000002b0: 51fc 5bbc 4d81 783d f0c6 773d 1100 b93d
000002c0: 9ed0 213e 9b57 903d 23c0 62bd e2dc 06be
000002d0: 94c0 303b 5945 ccbd 6d97 0b3d 4784 8ebc
000002e0: 1632 3a3e 342d 35be 2c4d e7bd dda2 a3bd
000002f0: dce0 543d 8262 893c 9b1c 43bd 3ba2 a0bc
00000300: 3483 6abe 85ae 493e b8c7 673e 4188 573c
00000310: a026 1fbe 839e bfbd 5782 05be 2188 533c
00000320: 69ef e7bd 2680 043e f69a 963d 1225 6ebd
00000330: 9b79 31be 6dba c43d 83f2 b83d 8c8b c9bd
00000340: 5ae1 2ebe 97dc 47bd 438f 15be cc6c 10be
00000350: 3480 61be 3f92 283e 8c84 e03d 137f bc3d
00000360: 56e3 853d 4693 3cbe d5ba 1f3e ac05 e83d
00000370: b9ed 193d d726 833a fea5 97bc 20ff 34be
00000380: a265 39be d133 7a3d de08 d3bb befb 45be
00000390: 6642 83bc 047e 843d 81b9 053e 43d3 c6bd
000003a0: 8ccc e3bd 5b0d 0dbe aa9b d3bd 1ea6 4f3d
000003b0: 8578 b53d d9bb 203d e564 80be 44b4 40bd
000003c0: 815d f93d 4289 acbc 7b28 113e 6027 9fbd
000003d0: 05d1 a9bd 5dd3 27be b157 653e b86d 7abd
000003e0: b658 153e 7a2b cabd af0c 523d e81b 793c
000003f0: ec08 80bd 3223 6abd bc1c 3e3e e80d f73b
0.14214274 -0.13787562 0.08559418 -0.06991718 0.12924714 -0.10459851 0.055681303 -0.04251736
0.14630727 0.01623228 -0.025646605 -0.14805739 -0.04491037 -0.0332848 -0.016931502 -0.2913521
0.2020417 0.018848244 -0.04093877 0.091356 -0.057863437 -0.052402664 -0.069320485 0.16106719
0.073004425 0.03278496 0.047244877 0.060521904 0.13351157 -0.05636727 0.112385176 -0.14247377
-0.036862586 0.05678282 0.0665039 -0.042134263 -0.18459544 -0.021528637 -0.21624179 0.10368152
-0.11094365 0.034860454 -0.21346022 0.18505931 0.007006803 -0.13672063 -0.18819705 -0.044657156
0.012763168 0.0047712117 -0.07089117 0.07996381 -0.14557827 0.07495081 0.05773914 -0.21784696
0.087085105 -0.02206824 0.029394703 -0.066417456 0.029486809 -0.14391331 -0.18615524 -0.188843
0.12844296 0.0604775 -0.1720408 0.0056151813 -0.013954965 -0.019195313 -0.008579018 0.14560291
0.03602275 -0.06392564 -0.11444759 -0.10339964 0.009215076 -0.08052133 -0.009927671 -0.13755235
0.09289096 0.1498951 -0.20414537 0.079138055 -0.0025555275 -0.02807847 0.090161785 0.055414755
0.09898743 0.015971184 0.010414159 -0.053903807 -0.11544108 0.044611555 0.0838037 0.040974997
-0.13718884 0.17805527 0.0028017203 0.18795566 0.14574645 0.11584205 -0.12208981 0.12055973
-0.25472766 -0.02932569 -0.1543103 0.12339444 0.06562468 0.03202514 -0.07411793 -0.121443264
0.0909717 0.11483691 0.030908275 -0.09999837 -0.04683121 -0.13125582 0.06966565 0.10592046
0.10440919 0.0651754 -0.020531839 0.03740662 -0.08402981 0.08763781 0.065350756 -0.17661613
0.15521906 -0.02806871 0.09040571 -0.17906009 -0.10498176 0.16444445 -0.16604622 -0.073481806
0.22559878 -0.010465188 0.10674614 -0.015266779 -0.0304823 -0.18011643 -0.017466566 0.019930895
0.0950173 -0.064456694 0.03003112 0.06890726 0.13662693 0.010413947 -0.16884138 -0.10130335
0.08199588 0.030930841 -0.23473887 0.069729455 -0.1634897 -0.06796202 0.031038454 -0.028377732
-0.19533652 0.22294596 0.1240836 -0.014004424 -0.14820737 0.17748098 -0.007954619 -0.1941804
-0.1375377 -0.032362178 0.07223525 0.060451988 -0.013426856 0.060670186 0.060492456 0.09033216
0.15802237 0.070479594 -0.055359017 -0.13170198 0.0026970254 -0.099741645 0.034079958 -0.01739706
0.18183169 -0.17693025 -0.11294016 -0.07990048 0.051972255 0.016770605 -0.047634702 -0.019608608
-0.22901613 0.1969548 0.2263478 0.013155044 -0.15542078 -0.093564056 -0.13038002 0.012910874
-0.11324961 0.1293951 0.07353775 -0.05814082 -0.17331545 0.096058704 0.090306304 -0.098410696
-0.17078152 -0.048794355 -0.14605431 -0.14104003 -0.22021562 0.16462038 0.10962781 0.09203925
0.065375015 -0.18415555 0.15598615 0.11329207 0.037580226 0.0010006082 -0.018511768 -0.17675447
-0.18105176 0.061084572 -0.006440266 -0.19334313 -0.016022872 0.06469348 0.13059045 -0.09708264
-0.111229986 -0.13774626 -0.10332425 0.05069553 0.08860878 0.039241645 -0.25076976 -0.047046915
0.121760376 -0.021061543 0.14175598 -0.07771182 -0.082918204 -0.16389222 0.22396733 -0.061139792
0.14584622 -0.09871574 0.051281627 0.015204407 -0.06251702 -0.05716247 0.18565649 0.0075394996

weight f4 [256, 512]
00000000: c77a b83d 7e01 d03c ea29 0e3d 94b0 8a3c
00000010: 182a d73c 3b46 6dbc cf84 6ebb 3ba7 303c
00000020: 5362 e9bb b58f c2bc ee7b 343d 4d8c 453c
00000030: c4ab 2cba 3c9f 95bd 274b 3fbd a0b3 06be
00000040: 2914 be3c bfd9 0bbc 9043 ab3d 3b2b 3cbb
00000050: 27ec 83bc 98e8 eb3b 4b7b c4bc c95b 2c3d
00000060: 4528 11bd 725c 32bc 8e45 1c3d 277e 8dbd
00000070: 8fc2 053d 310d b1bc 3ba7 84bc b284 3bbd
00000080: 6d9a 7dba ef24 d7bc a04c 69bd 54da 39bd
00000090: b546 40bc 010d 17bc fb6c 62bc b3eb ebbc
000000a0: 88f2 81bd fa59 853c f54a 7d3d 1bce 04bc
000000b0: b686 0cbd fa67 59bd 3576 023d 8b20 f4bd
000000c0: 6115 563d d9d6 67bd 355c c63c 5c0e 803c
000000d0: 97a3 8a3d 07e0 99bc 50e3 81bc 11b6 233d
000000e0: c82b eebc ba57 80bd b140 eabb 0589 263d
000000f0: a9e4 5cbd ea06 30bd a723 053d e077 44bd
00000100: 2feb 48bc 388f dbba 835b 393d db85 4b3d
00000110: 782d 8f3d 2b88 8a3d ea01 dc3b a8df 983b
00000120: f1be a3bc 17e6 d3bd aa50 2f3c ca22 ddbc
00000130: c09b a1bd 60bd 70bc 5ed0 27bd 85e0 6d3c
00000140: 83b3 46bd 04cd 2ebd 5464 203c cce5 0ebd
00000150: cfff 98ba 05a4 4e3c 1cd9 683c 3088 453c
00000160: 667d caba 3e75 2fbd 6bd9 0e3d 379b 193b
00000170: ce34 b4bc aaed 803c 016f b73c bd15 b2bc
00000180: 6e95 13bd 0fa4 27bc 15f8 bd3b cb2e 843d
00000190: 611b 0c3c c6fd 483d c8f4 23bd 1142 71bd
000001a0: d8b1 16bd 31de 1a3c aae0 8cbd 72c5 f8bc
000001b0: 86ef 163c 3e87 b63b dedb 033c 7d6c bebc
000001c0: 8acb 7e3b 8a70 833c 2cbd d23b e29b ff3c
000001d0: beb9 103c aada 1f3d fd03 7939 467d a3bc
000001e0: 2e79 5fbd 8d8b a33c 919a 7a3d 82c5 443c
000001f0: 6160 d5bb 47ba 5dbc 92c4 933d 960b b13c
00000200: 2642 693d 071a 84bd d9a3 9bbc 429d 053d
00000210: 7caf 87bd 0652 c9bb 0050 033d 9828 48bd
00000220: ed5d 58bd 51bd 99bd 4b83 08bb 4136 0b3d
00000230: d5e1 f53c b067 b8bc 8fa3 033d c848 99bc
00000240: ba7e 853c 74f5 b0bc 6b1b 843b af9d 8bbd
00000250: e0e7 4d3d 2842 043d 5c7a 61bd ef13 35bd
00000260: 550b 473c 2c8a ef3c a55e 50bd a0b7 51bb
00000270: 4746 de3c 7505 8e3d e2e1 9dbc e10b 0f3c
00000280: ec24 56bd 3e5b 2fbb 9299 b6bc 937b 31bd
00000290: c2e1 313b 2c30 a93c a6e4 5a3c 7001 053d
000002a0: ff00 ae3c beab 1fbc fb69 31bd 1b17 c5bd
000002b0: 4c09 79bd d1f2 123d e58a 38bd 705b 17bb
000002c0: 5415 a2bd 40cf dcba d631 89bd 5d47 85bc
000002d0: 5633 123d 4b45 6a3b f234 edbb 9e8b 0c3d
000002e0: 05a7 a83d eee5 0c3d 8ef3 fdbc 4e04 933c
000002f0: 3c08 623d b6bc 44bb 6e2c 323d 72cc 64bd
00000300: a57e 74bd 5df5 353d ad66 09bd 5bc6 f9bc
00000310: e3eb 15bd b465 debd d9fa adbc 2e94 29bd
00000320: 8b77 10bc 3b5b 9d39 618d 78bc 705b 53bd
00000330: 72c9 8cbd 2ad7 6cbd b076 c4bc ce9d 373c
00000340: 69d1 e03a a0db 46bd 6fbf 39bd 31de aabc
00000350: 954f 25bd 2f45 143d 0a09 85bd 9b07 303c
00000360: b410 0d3c e300 bb3d f248 45bd 7b78 00bd
00000370: 259b ed3c b11e 38bd 65df f83c 791c ddbc
00000380: 1932 91bc b932 023d 6409 6e3c 621e 40bd
00000390: 1e71 0a3c 1cd3 48bd d457 96bd 77bd bebd
000003a0: 81c6 c53c 908f 76bb a691 4abd eab0 203d
000003b0: 2702 3b3d 9684 0e3d 096a 17bc b774 d43a
000003c0: e124 9fbc fd38 f3bb a14f 033c 7a82 463c
000003d0: 1a91 f3bc f006 b63d 99ed 803d 2946 0abc
000003e0: 740a 593d 819f 88bc d841 1d3d d7fb f43b
000003f0: 2999 29bc fd88 3f3d ea7c 05bd ea9f 363c
0.09007793 0.025391337 0.03470794 0.016929902 0.026265189 -0.014482076 -0.0036395078 0.010782058
-0.007122317 -0.023750165 0.0440635 0.012057376 -0.00065868744 -0.07305762 -0.04670253 -0.13154459
0.023202972 -0.008535801 0.08362496 -0.002871229 -0.016103817 0.007199358 -0.023984572 0.04207972
-0.035438795 -0.0108862985 0.03815227 -0.06908827 0.03265625 -0.021612735 -0.016193023 -0.045780845
-0.00096741953 -0.026262728 -0.05695784 -0.04537423 -0.011735608 -0.009219409 -0.013819928 -0.028798914
-0.06345087 0.016278256 0.061839063 -0.00810578 -0.034308158 -0.053077675 0.031851012 -0.119202696
0.052266482 -0.05660138 0.02421389 0.015631847 0.067694835 -0.018783582 -0.015855461 0.039968554
-0.02907361 -0.062667325 -0.007148825 0.040658016 -0.053929005 -0.042975344 0.032504704 -0.047965884
-0.012263103 -0.0016751057 0.045253288 0.0496882 0.06991094 0.06764253 0.0067140954 0.004665334
-0.019988509 -0.103466205 0.010700384 -0.026994128 -0.07891035 -0.014693588 -0.0409702 0.014518862
-0.04851104 -0.042675987 0.009789545 -0.03488712 -0.0011672917 0.0126123475 0.014211919 0.012056395
-0.0015448749 -0.04283642 0.034875315 0.0023438463 -0.021997835 0.015738327 0.022391798 -0.021738881
-0.03603118 -0.010231986 0.005797396 0.064542376 0.0085514495 0.049070142 -0.040028363 -0.058900896
-0.0367907 0.009452389 -0.06878789 -0.030367587 0.00921238 0.0055703213 0.008048026 -0.02324509
0.0038878643 0.016044874 0.0064312425 0.03120226 0.008833347 0.039026894 0.00023747976 -0.019957196
-0.054558925 0.019964004 0.061182562 0.01200998 -0.0065117334 -0.0135331815 0.07215227 0.02161197
0.05694785 -0.06450277 -0.018999027 0.032620676 -0.06625268 -0.006143811 0.032058716 -0.04886684
-0.05282395 -0.07506812 -0.002083021 0.033987287 0.030014912 -0.02251038 0.032138404 -0.018711463
0.01629578 -0.021601416 0.004031589 -0.06817185 0.05026996 0.032289654 -0.05504833 -0.044208463
0.012148698 0.02924069 -0.05087151 -0.0032000318 0.02713312 0.069346346 -0.019272748 0.0087308595
-0.052281305 -0.0026757265 -0.022290025 -0.04333074 0.0027142619 0.020652853 0.013360178 0.032472074
0.02124071 -0.009745536 -0.04331396 -0.09623548 -0.06079988 0.0358761 -0.045054335 -0.0023095272
-0.07914224 -0.0016846433 -0.066989586 -0.01626938 0.03569349 0.0035746868 -0.0072389776 0.034312837
0.082349814 0.034398966 -0.030999925 0.017946389 0.055183634 -0.0030019707 0.043499403 -0.055859037
-0.05969109 0.04442345 -0.033545185 -0.030490091 -0.036601912 -0.10859242 -0.021237778 -0.04140108
-0.008817564 0.00030013346 -0.015170426 -0.051600873 -0.0687436 -0.057822384 -0.023982376 0.011207057
0.0017152253 -0.048549294 -0.04534858 -0.020857902 -0.0403591 0.03619879 -0.06495865 0.010744001
0.008609939 0.091310285 -0.04816527 -0.0313649 0.029004643 -0.044951145 0.03037996 -0.026991116
-0.017724084 0.031786654 0.014528606 -0.046903975 0.008449821 -0.049029455 -0.07340971 -0.09313481
0.024142506 -0.003762219 -0.049455307 0.03923122 0.04565635 0.034794413 -0.009241589 0.00162091
-0.019426765 -0.007422565 0.0080145905 0.012116069 -0.029732276 0.08888042 0.06295318 -0.008439579
0.052988485 -0.01667762 0.03839287 0.0074763107 -0.010351458 0.0467615 -0.03258983 0.011146525

bias f4 [256]
00000000: 7322 273d 9d6b 93bd f40d 9abd 3d23 bbbd
00000010: 332b 4fbd 4359 03be d876 c4bc 475a cdbc
00000020: 4174 043d 3878 b0bd e314 55bd e199 fdbd
00000030: a503 aabd 417b d3bc ab43 cbbd 931e e1bd
00000040: b631 423c 2b60 35bd 859f 25bc 9e3a 0e3d
00000050: 6776 31bb 357e d7bd 7215 23bd eb0b 90bd
00000060: 28d4 e7bd 9ea7 b2bc 83cb f6bd 2f4e 8ebc
00000070: 212e 56bd 59d1 70bc d578 98bd 55a0 73bc
00000080: 0598 afbc 3e90 8bbd f83f 00bd 14f2 2fbd
00000090: 5e4c 9fbd ad68 59bd d906 b9bd 97c3 41bd
000000a0: 76e3 f1bd 9c25 e6bd 4659 d43c 1478 96bd
000000b0: 1e96 87bd fe2e 05bd 01b8 44bd dfca 063c
000000c0: 5a70 a7bd e7bd 82bd 3420 0fbe 59c5 80bd
000000d0: 7131 203d b6ee cabd fe0a 37bd e17e a53b
000000e0: 7983 853c 1a70 d0bc 5a85 cbbd 72cf ebbd
000000f0: 46ba 5cbd 5616 e3bc 3460 65bd e7b7 8dbd
00000100: 6979 0dbe 420f 7cbd a012 fdbd fb1a 0cbd
00000110: 795d 5bbd 8d76 363d 1f55 e8bb 4b84 23bd
00000120: 57aa b5bd 0fdd 96bd 8b82 9bbd 7f07 4bbd
00000130: 039b 9bbd e4d5 a1bd 5e7d ccbd 309f a9bd
00000140: 2c10 b1bc 76a0 9cbd 0b22 bcbc 775a 38bc
00000150: 21d1 f2ba b347 1fbc dfda 5bbb 4f10 e03b
00000160: 39e9 0ebe 08c2 053b 1e05 cfbd 8290 76bd
00000170: 7a33 3abc b26e 40bd 8b54 cebb c3b1 9ebc
00000180: f4d5 8d3b e44e 92bd 6758 37bc 1071 50bc
00000190: 34d2 143d 0b37 27bc 0947 75bd 065d 9cbd
000001a0: 6e12 2cbd 7904 bf3c 2259 74bd cd0f a0bc
000001b0: 2f29 5bbd 4da4 f0bd 86ce 52bb 634a 25bd
000001c0: e3c2 2cbd de91 02be d116 8fbd b64e f7bd
000001d0: 3018 0fbe 4bb1 22bd 93d8 153d 0705 09bd
000001e0: 5cab 1b3d 6332 8cbd 9c49 72bd 2645 f0bd
000001f0: 7f59 fabc d847 6fbd 2d67 873c a46a e6bd
00000200: eb97 863d 1f55 e7bc 01ec ccbc 75de 5abb
00000210: a2b9 99bd d062 32bd d1ca a6bd 03c2 f9bd
00000220: f57b d8bc 7a74 b6bd 276d fdbd 3cfd 4cbd
00000230: f0e7 9abd 651a d7bd 1157 0cbe d3a4 debd
00000240: 705c dbbd e261 94bd 2fdd 98bd c14f debd
00000250: 417b 64bb c42a 6fbd 3da6 9fbd 4318 8cbd
00000260: f100 34bc a222 87bd bdaf 62bd 4a41 9bbc
00000270: 4306 b63c db19 31bd 6350 dcbc 5d80 87bd
00000280: 1c38 eabd 42e5 2cbd 5305 5fbd 90fe c6bc
00000290: e1d5 cebd 9048 8cbd b13b 7d3c 9ffe 4fbd
000002a0: 048d 12bd fdee 8bbd 95ad 1bbd f410 89bd
000002b0: b2f4 f3bd 0e5b 2cbd cad7 13bd a8e0 25bd
000002c0: 1a70 08be 39eb 87bd 0a1e 6ebd 34f5 bbbd
000002d0: eb4e bebd 7d8e 47bd 0113 b3bc b8fd 36bd
000002e0: 146f 2e3c da59 69bd fcfa 1d3c 7a29 493c
000002f0: dd96 5fbd f831 54bd 9e74 8bbd 93a4 90bd
00000300: 1890 04be 8b46 bb3c f53f 3fbd c58f 43bc
00000310: 14a9 aebd 3698 71bd acc6 13bc a85d 943b
00000320: c685 9fbd 62b7 e9bd 9611 23bd a4dd 1fbd
00000330: 1bfe b8bd dedc c0b9 791b 7cbd 231e 66bd
00000340: 696c 7fbd 9e2a 8bbd 3691 90bd 46dd 69bd
00000350: bfde 4fbd b416 81bd d5da b1bd 692a 843c
00000360: fb08 8dbd f201 a2bd fdf8 83bc 720f c7bd
00000370: 9435 fdbc 6558 2dbc d355 06bd dd61 9cbd
00000380: 9eae 0ebd 904f b3bd fe12 8bbd 523a e83b
00000390: 4672 103d 08fb e6bd fab0 c4bd 9870 48bd
000003a0: 68a0 9fbd 8b0c 26be f1b9 c7bd 9172 85bc
000003b0: 3515 f7bc 3e28 9ebd 604e 1fbc b6b5 f5bd
000003c0: f5b7 f5bd ac18 debc 6c25 fbbd 5c91 f7bd
000003d0: 266f 0bbe c9c7 abbd 0f03 c0bd f741 05bd
000003e0: de7a dfbc 470d a83c a0d5 0fba b382 22bc
000003f0: ac58 d3bd d25b ce3c f920 98bd e5b0 71bd
0.040804338 -0.0719826 -0.075221926 -0.091375805 -0.050578307 -0.1282702 -0.02398245 -0.025067462
0.03233743 -0.0861668 -0.052021872 -0.12382866 -0.083014764 -0.025815608 -0.09925016 -0.1099216
0.011852672 -0.044281166 -0.010108833 0.03472387 -0.002707863 -0.10522119 -0.039815374 -0.07033523
-0.113197625 -0.021808442 -0.120505355 -0.017371265 -0.052290086 -0.01469835 -0.07444922 -0.014869769
-0.021434793 -0.068146214 -0.031311005 -0.042955473 -0.07778238 -0.053078342 -0.09034509 -0.04730567
-0.11810963 -0.11237642 0.025921475 -0.07347122 -0.066204295 -0.03251552 -0.048027042 0.008227079
-0.08175726 -0.06383877 -0.13977128 -0.06287641 0.03910965 -0.09908812 -0.044688217 0.0050505255
0.016298043 -0.02544408 -0.09937544 -0.115141764 -0.05388858 -0.027720612 -0.05599995 -0.06919842
-0.13815846 -0.06153799 -0.12357068 -0.034205418 -0.05355594 0.044546653 -0.0070902254 -0.039921086
-0.0887038 -0.07366382 -0.075932585 -0.049567696 -0.075979255 -0.079021245 -0.099848494 -0.08282316
-0.021614157 -0.07647793 -0.022965452 -0.011252037 -0.001852546 -0.009721684 -0.0033547205 0.0068378816
-0.13956155 0.002040984 -0.10108398 -0.060196407 -0.011364812 -0.046980567 -0.0062966994 -0.019371873
0.0043284837 -0.071439534 -0.01119051 -0.012722269 0.036333278 -0.010205994 -0.059882198 -0.0763493
-0.042009763 0.023317562 -0.059655316 -0.019538784 -0.053506073 -0.11750088 -0.0032166555 -0.040354144
-0.042178046 -0.12750956 -0.06986774 -0.1207556 -0.1397407 -0.03971986 0.036583494 -0.03345206
0.038005218 -0.06845548 -0.05915223 -0.11731939 -0.030560253 -0.058418125 0.01652869 -0.11250809
0.06571945 -0.028238831 -0.02501488 -0.0033396755 -0.0750611 -0.043551266 -0.08144153 -0.12195208
-0.026426295 -0.08908935 -0.12374335 -0.05004619 -0.0756377 -0.10503081 -0.13705088 -0.108712815
-0.107109904 -0.07245232 -0.074640624 -0.108550556 -0.0034863504 -0.058390394 -0.07795379 -0.06840565
-0.010986553 -0.065984026 -0.05534338 -0.01895203 0.022219783 -0.04323755 -0.0268938 -0.0661628
-0.11436483 -0.042210825 -0.054448437 -0.024291307 -0.10099388 -0.06849778 0.015456126 -0.050779935
-0.035779014 -0.06832693 -0.038007338 -0.06692687 -0.11911906 -0.042079024 -0.036094464 -0.040497452
-0.13324013 -0.06636662 -0.058134116 -0.09177628 -0.09292396 -0.04871987 -0.021859648 -0.04467556
0.0106466 -0.056970455 0.009642359 0.012277955 -0.054587234 -0.051805466 -0.06809352 -0.0706264
-0.12945592 0.022860786 -0.046691854 -0.011936133 -0.08528343 -0.05898305 -0.009019535 0.0045277663
-0.07789187 -0.114119306 -0.039811693 -0.039029732 -0.09032842 -0.00036785653 -0.061549637 -0.056181084
-0.062359247 -0.06795238 -0.07058947 -0.05709579 -0.050749537 -0.063031584 -0.08684317 0.016133504
-0.068864785 -0.07910527 -0.016109938 -0.09719743 -0.030909337 -0.010580157 -0.032796692 -0.076358534
-0.034834497 -0.0875541 -0.06790732 0.0070870304 0.03526523 -0.11278349 -0.09604068 -0.048935503
-0.07794267 -0.16215722 -0.097522624 -0.016289981 -0.03016148 -0.07722519 -0.009723276 -0.11997549
-0.11997978 -0.027111374 -0.12262997 -0.12088272 -0.13616619 -0.08387715 -0.093755834 -0.032533612
-0.027280267 0.020514144 -0.00054868497 -0.009918856 -0.10319647 0.025190268 -0.07428164 -0.05900659

weight f4 [128, 256]
00000000: aa8b 04bd 0c8d c13b 5b1e 88bd efa0 a23c
00000010: ed51 5dbd 3726 a8bc dd0b 383d 5e60 843d
00000020: 46f7 94bd 0ce6 b33d ada1 6339 6f35 2738
00000030: 405d 9cbb 1949 293d 8d75 8cbc f620 c03c
00000040: d3c9 dbb9 c8a3 8abc b59f d6bc 8b3d dfbd
00000050: ca7b 6ebd d74c 98bc cb5e 893c e0d6 9b3d
00000060: 1ea5 1cbd a135 c13a d00c b73c 8465 803d
00000070: 50fa 903c e531 c1bd adab 483c 059c 243d
00000080: b039 2b3b 31a9 c3bd 8069 d1bd 3ac2 a7bd
00000090: af6b 04bd 7b40 9e3c cf6f 96bd 0b65 b23b
000000a0: 0420 2dbd c48e 89bc e2d2 97bd e669 963d
000000b0: 5526 02bc 719a 133c db3f 74bc e793 5abd
000000c0: 20eb bdbd 4056 7d3c f7ed 85bb a230 00bd
000000d0: 0502 5bbc efdb 2a3d 7310 55bd 9ad9 fe3c
000000e0: 69d2 333a 28d6 0ebd e27d aebd dfbf 723c
000000f0: 3387 933d d4bc 99bd c106 47bd 03a5 423c
00000100: f1dd 653d 5cfe b63c 03b2 663d 51cc ad3a
00000110: 79df 923d fc70 57bc c631 033d cfc0 6fbc
00000120: 47a7 933c 1363 e2bc 96e2 14bd 356b b8bd
00000130: 3edf a3bc 16f9 323d b18d 073d 587e 133c
00000140: cc19 eabd 424e debd 7144 c5bd 4dff a7bb
00000150: c6ea 053d 692d 49bd c7a0 cf3c ab69 65bd
00000160: 05d8 18bc f59c 85bc bfeb c93c 3cdc 343d
00000170: 47ee 8bbd f6a9 a1bd ca9f 8fbc d63b 5a3c
00000180: 13ba 033d 2818 85bd 8dcd cfbd 9a7e 86bd
00000190: 5f37 75bd dcf1 373d f23b b53d e70e d0bc
000001a0: a133 6cbb 1dbb 6cbc c3f7 933c 58f9 b0bb
000001b0: d2c2 dbba 7dbb 8bbd b081 bfbd a7ef c33c
000001c0: 0a2c cbbc 1911 823d c203 d1bc 9f9b 863d
000001d0: 4f1c 963d 1df6 0fbd a64e 45bd fe72 cbbd
000001e0: 80bd 59bd 6e68 8c3d 69ad 72bc 3e7e 003d
000001f0: fcf0 a7bd ecd3 d13c 565a e93c 31e1 263c
00000200: cfaa f03c fed0 e13d e0f0 a7bc fedb 3dbd
00000210: 5e97 19bd 8ffe d13b 175e 9ebc 1649 523d
00000220: a506 92bd 2471 87bd e29a de3c 3d2f 813d
00000230: 05e7 c13b 19ce ef3c abdf 54bc 220e 5bbd
00000240: e34c 853c 34b6 60bd aa26 1dbd 6b1f 48bd
00000250: 7146 4abd c48d 5bbc 78e6 123d 7138 0f3d
00000260: 4e93 0a3d a187 963d ec75 1f3d f973 7d3d
00000270: b5d4 923d 433e 393c 1bc7 31bc 20be 803c
00000280: 3d4b 82bd ef75 c93b c47f 93bd 68d1 b1bc
00000290: 2d06 adbc 1195 a4bd dc67 b5bc fdc0 173d
000002a0: f777 fd3c 2bf3 3f3d 55ab 9c3d aeef 183d
000002b0: 8608 8ebd 8183 b7bc ae0d 49bd 0626 3b3d
000002c0: 5da1 d5bc b0ed 853d 6a2a 5fbc 8478 403d
000002d0: 6c43 52bd b720 1e3d 4336 50bd 233b 8dbd
000002e0: e767 6d3b a35c 183d c6c2 e53c 2bde 8cbb
000002f0: 4c84 d03c d705 623c 3565 0dbd dacf 01bd
00000300: be9f 3a3d 5901 273d acf9 723d 19bb 7cbd
00000310: 1a83 c23c cf4b 1cbd fd27 af3c dbd7 c43b
00000320: 319f 4bbc e797 2a3d ebb7 abbd 319e 74bd
00000330: 7f1e 6f3d 2cf8 50bd 5b50 07be ff93 7dbd
00000340: ce80 153c 913a 94bd 5a41 c63c 6b9c 2a3d
00000350: a65e 513d 784b 8dbc 3246 5e3d 3716 523d
00000360: 9742 83bd 31b8 fcbc bf9e f63d d1b3 1cbd
00000370: c6c7 ca3b c8c7 75bd 4840 ee3b 795e e23b
00000380: 5b3d 57bd d1b5 8bbd cf38 7b3c 0ab0 7d3c
00000390: 1a09 8ebc 4385 353d cdb7 6d3d c566 03be
000003a0: c2ba 19be 6fef 38bd a541 7f3d 8461 15bc
000003b0: eb75 20be c45c 07bd 40db 783d 0999 cdbb
000003c0: abaa 94bd 08f9 89bc 53b5 16bd 6ee5 f63b
000003d0: fe9b 17bd 17f3 823c ae9c d6bd b4bd fdbd
000003e0: 228c 71bd af76 4e3d a51c 783c 5e10 013d
000003f0: 97c9 acbc a452 893d 3f4f cd3b 4261 813d
-0.032359757 0.0059067067 -0.06646415 0.01985213 -0.05403321 -0.020526035 0.04493319 0.06463693
-0.07273726 0.08784112 0.00021708636 3.9865667e-05 -0.0047718585 0.041329477 -0.017145896 0.023453217
-0.00041921306 -0.0169238 -0.026199201 -0.1090041 -0.058223523 -0.018591328 0.016768834 0.076093435
-0.038243406 0.0014740714 0.022344977 0.062693626 0.017697483 -0.09433345 0.012247962 0.040187854
0.0026126914 -0.09553755 -0.10225201 -0.08191343 -0.032329258 0.019317856 -0.073455445 0.005444174
-0.04226686 -0.016791709 -0.074132696 0.07344417 -0.007943709 0.00900899 -0.014907802 -0.053363707
-0.09273362 0.015462458 -0.0040872055 -0.03129638 -0.013367181 0.04171365 -0.05201764 0.03110962
0.00068596617 -0.034872204 -0.08520104 0.014816253 0.072035216 -0.07506719 -0.048590425 0.011880162
0.056119863 0.022338085 0.05632211 0.0013259744 0.0717153 -0.013149496 0.03202989 -0.0146333715
0.0180241 -0.027635133 -0.0363489 -0.09004823 -0.020003911 0.043694578 0.03309411 0.009002291
-0.114307016 -0.1085477 -0.09632195 -0.00512687 0.0326946 -0.049115572 0.02534522 -0.056008976
-0.009328847 -0.016310195 0.024648545 0.044155344 -0.06832557 -0.078937456 -0.017532248 0.01331993
0.032159876 -0.06498748 -0.101466276 -0.06567116 -0.05986726 0.04490839 0.08849324 -0.025397731
-0.0036041515 -0.014448908 0.018062478 -0.005400818 -0.0016766435 -0.0682287 -0.09350908 0.023917986
-0.024801273 0.06350917 -0.025514487 0.06572651 0.07329618 -0.03514682 -0.048170708 -0.099340424
-0.053159237 0.06855856 -0.014811852 0.031370394 -0.08200261 0.025613748 0.028485458 0.010185526
0.029378323 0.1102619 -0.0205006 -0.04635238 -0.03749787 0.0064085196 -0.019331975 0.05133923
-0.071301736 -0.06613377 0.027173463 0.06307838 0.0059174323 0.02927308 -0.01299278 -0.053480275
0.016272014 -0.054861262 -0.03836695 -0.048858088 -0.049383584 -0.013400499 0.035864323 0.034965936
0.033831887 0.07350088 0.03893082 0.06187818 0.07169477 0.011306348 -0.010850693 0.015715659
-0.06362007 0.006148092 -0.07202104 -0.021706298 -0.021121109 -0.08036245 -0.02214425 0.037049282
0.030940993 0.046862762 0.076498665 0.03733795 -0.069352195 -0.022401573 -0.04908531 0.04569056
-0.02607792 0.06539476 -0.013620952 0.046989933 -0.05133383 0.038605418 -0.050832998 -0.06896045
0.003622526 0.03719772 0.028046977 -0.0042989454 0.025453709 0.013795338 -0.034520347 -0.031692363
0.0455625 0.04077277 0.059320137 -0.061701868 0.023744155 -0.038158234 0.021381373 0.0060071773
-0.012428091 0.04164877 -0.08384689 -0.059721176 0.058378693 -0.051017925 -0.13214247 -0.06190872
0.009124948 -0.07237733 0.024201084 0.041653078 0.051115654 -0.0172479 0.054266162 0.051290717
-0.064091854 -0.030849548 0.12041997 -0.038257424 0.0061883656 -0.06000498 0.0072708465 0.0069082347
-0.052548748 -0.06821788 0.015333368 0.0154838655 -0.017338324 0.04431654 0.058036614 -0.12832172
-0.15012649 -0.045150217 0.062318463 -0.009117488 -0.15669982 -0.033047453 0.060755968 -0.0062743467
-0.07259115 -0.01684238 -0.036794018 0.0075346744 -0.037014 0.015985055 -0.10479103 -0.123896986
-0.05897153 0.050406154 0.015143548 0.03150975 -0.02109222 0.067052156 0.0062655504 0.063173786

bias f4 [128]
00000000: dd10 b73a 4347 2bbc c65a 10bc ad08 8ebd
00000010: a234 4abd befb 40bc 4583 cabd 8d72 c9bd
00000020: 4ee4 10bd eaf3 87bd fd2f b3bd 32cd 953a
00000030: ad1f 353c 0680 cbbd 7c37 463c 3238 59bd
00000040: 5d1f 7bbd 0e18 cebc d25d 9ebc 4618 c03b
00000050: 3684 90bd 4414 bebd ad2f bb3c 3b86 62bd
00000060: ec0d 913c 3029 c9bd 248a 20bd 2b52 263c
00000070: fda6 6abd 899c d6bd c4d5 cbbc 3dd5 c8bc
00000080: 4917 97bd 9c15 703a bfaa a0bc f15e 8f3b
00000090: cca2 abbc 32af 06bd a0fc adbc 3eff e23c
000000a0: 1520 d4bc 17f2 a1bd 0fbb 94bb bed6 c5ba
000000b0: 388a 9fbd 6995 e6bc 0c3e 77bb 3bfe 07bd
000000c0: cd5c 24bd 5722 92bd fe54 acbd a5c8 523c
000000d0: dfb5 ce3c 6f67 c9bc 8e0c d1bd fe7c afbd
000000e0: f880 08bd ac69 8fbd 55b4 8cbb 74d3 363c
000000f0: f67a d5bc ec93 6ebc 82a2 26bb 3ca0 1fbd
00000100: 6c1a 9ebd 25fc 5b3d 7f15 cfbd 9052 cbbb
00000110: ca62 1abc 5ccf 243d e128 9b3b d4a9 c1bd
00000120: 7398 fe3a e3f4 3439 8a92 d63c 5d50 adbc
00000130: 871e c23a 74bb a93c a5d9 3fbd 0397 1a3d
00000140: ae66 ddbd da5b d7bc a37e 92bd 5be6 cc3c
00000150: 8d86 f2bd f121 92bd 9243 0b3b 8646 5abc
00000160: 3ba1 853c dd04 5bbd 8894 aabd 52f3 ddbc
00000170: 02a9 cebd d0b2 b5bd 68b4 aebb f28e 80bd
00000180: 7316 fb3b 0946 9abd 5334 33bd a9b6 d4ba
00000190: aacf d4bd 329c 72bd 0886 b5bd 14fb 5fbd
000001a0: 0f15 873d 7943 b93c 90e7 d23c c62d 7d3b
000001b0: dc64 b8bd aed2 da3b 8e0b 14bc c4e8 433d
000001c0: 0a6d 863a 0dbd 27bd f1fd 25bd 802f 91bd
000001d0: 96b7 80bd 12eb 8cbd 747c 44bb f788 f0bc
000001e0: c066 dfbd 52de ddbc f9ea b2ba d5e2 febd
000001f0: d0dc bcbd 43ce 99bb a79c 9dbd 3b73 fcbb
0.0013966818 -0.010454002 -0.008810705 -0.069352485 -0.0493666 -0.01177877 -0.09888319 -0.09836302
-0.03537398 -0.0663832 -0.087493874 0.0011428951 0.011054915 -0.09936528 0.012098189 -0.053032108
-0.061309207 -0.025157955 -0.019331846 0.0058622686 -0.07056467 -0.09281209 0.022849882 -0.055303793
0.017706834 -0.09822309 -0.03919424 0.010151426 -0.05728816 -0.104790755 -0.024882205 -0.024515742
-0.07377488 0.00091584935 -0.019612668 0.0043753316 -0.020951651 -0.032881923 -0.021238625 0.0277096
-0.025894204 -0.07907503 -0.0045389007 -0.0015093905 -0.07790035 -0.028147416 -0.0037726192 -0.033201437
-0.040127564 -0.07135456 -0.084146485 0.01286522 0.025233207 -0.024585454 -0.10207473 -0.08568762
-0.03332612 -0.07002577 -0.004293958 0.011158813 -0.026059609 -0.0145616345 -0.0025426452 -0.03897117
-0.07719883 0.05370726 -0.10111522 -0.0062049106 -0.009422967 0.040236816 0.0047350978 -0.0945622
0.0019424096 0.00017257365 0.026192922 -0.021156484 0.0014810123 0.020719267 -0.04683842 0.037741672
-0.108106 -0.026288915 -0.0715306 0.025012186 -0.1184207 -0.0713538 0.0021249992 -0.013322478
0.016312232 -0.053471435 -0.08329111 -0.027093563 -0.100908294 -0.088719964 -0.0053315647 -0.06277265
0.0076625883 -0.075328894 -0.043751072 -0.0016228753 -0.10391171 -0.05923099 -0.08863455 -0.054682806
0.065958135 0.022615181 0.025745183 0.003863202 -0.090036124 0.006677947 -0.009035958 0.047829404
0.0010255885 -0.040951777 -0.04052538 -0.07089138 -0.06285016 -0.068807736 -0.0029981406 -0.029362185
-0.1090827 -0.02708355 -0.001365035 -0.124456085 -0.09221804 -0.0046937778 -0.07695895 -0.007704166

weight f4 [12, 128]
00000000: a45c 083d 0cfb 09ba 20ad 323c 3bdf 2b3b
00000010: 7a46 4abd cfdb 783c eb2d bcbb 04dc 633d
00000020: 0cde 803c 2d3d 7c3c 1ed9 1dbd 1302 05bd
00000030: 11aa 723c 1713 aa3c 3cb8 c83c 7c40 9abc
00000040: 53c6 3a3c b81f 203c 2c89 95ba e9f4 37bd
00000050: 8c06 473c b3e2 b53c 8ca6 6bbb eb03 bd3b
00000060: 8b93 cdbb 5dce a9bc 3df3 b3bc 3d84 f13c
00000070: c7fa 10bc cd43 273d 897c 1a3d 8b07 8cbc
00000080: dedf ec3b dc73 6d3d 597f 5b3d f012 833d
00000090: 67a4 b4bc b8ee d03c b1ee 323d e293 bfbc
000000a0: 8754 81bc 878e 713d 8cf9 6a3d 2f61 cc3c
000000b0: b654 14bd 604c c3bc 8ecc 133c 7eb1 25bd
000000c0: ea3a 3abd 9f95 afbb 645b 473d 36c5 753c
000000d0: ab95 5ebd a155 b23c 5c8f f6bc 6d0a a63c
000000e0: a555 1dbd 5fd4 0abb f7d5 4fbd ee3f 883c
000000f0: b9e9 5b3d ebe4 abbc 5c8a a9bc 8889 233d
00000100: e6df e5bc de90 163b 7b92 0739 71b2 eabc
00000110: 57a6 83bc c7fa 1ebc 8f35 afbc c999 963c
00000120: 4be9 123d 37fa f4ba 8dcf e83b 8e76 033d
00000130: cfc4 19bb 0d3c 12bd 61c8 253a 2b37 0abd
00000140: a0b9 e8bc 70d9 fe3b 5cce 063c 8433 6e3c
00000150: b2de 0f3d e239 17bc 5f0b 51bd 6dbd 063d
00000160: bf07 193d 8b9a a03c 24f3 50bc 836d c0bb
00000170: 0577 01bc 5fc5 6fbd 3c11 a0bc c59c 163d
00000180: bc61 ef3b e0ca 7cbd 6a2a 3ebd 9be2 94bc
00000190: 0a45 fd3b 37a9 51bd d169 753b 0fac 583b
000001a0: 8012 133c a5d2 f5bc bf5c 013c 3472 973d
000001b0: 3f03 2c3c 319f a2bc efec de3b a718 8abd
000001c0: 939c 5bbd 951b 9bbc 4a65 9d3a c8ee 2a3d
000001d0: 1024 ef3b a10f 8a3d 1bbd fe3c 8660 4b3c
000001e0: c65c 6fbd c81b 25bd 3c6b bf3c 0c72 1bbc
000001f0: 2291 f6bc 086c debc b4b6 b6bc 103e a13c
00000200: abb2 98bc 114f 2cbc 9bfc 88bc f98f 9dbc
00000210: 3a25 763c 2e09 8b3d 352a 32bd c426 853c
00000220: 808f 8abc b0ad 8c3c c1aa 423c a896 acbc
00000230: 1b71 873b 7cb1 a4bc 87ce 083d c309 02bd
00000240: 4f3c c83c 84d2 3d3d 18a4 1d3d e24a d5bc
00000250: 3fd6 47bc 3d66 d4bc 5bbe 89bc 4ec0 9abd
00000260: ea0a 363b 8563 c33a 0c13 14bd a198 1f3d
00000270: 417d cd3c 9b1d 0a3d 18f7 8b3a 5b08 14bd
00000280: 19c8 d9bc 014f 323d 11f0 73bc a855 eb3b
00000290: 4ce3 07bd d6f0 8ebd 43ef 8e3c 7be2 33bd
000002a0: 17fe 92bc 408b 4ebd 93f4 ebbc 3b91 873c
000002b0: 6bb4 473d fcf5 b53c 55cc f3b8 317d c5ba
000002c0: 9413 a63c 5c1a 593d acc3 393b ed51 e83c
000002d0: 33ed 8dbc 4651 093d c6b6 883d f0e6 ec3a
000002e0: d70a 133c 6a9c 0cbd 2848 533c f174 103b
000002f0: 841f 17bc fe6e aa3b 73e5 8db9 cad1 f83c
00000300: f99e 3e3c 9038 953c d9be c6bc 1726 233d
00000310: 1032 183c d62e 623c 84ce 2dbc ca2b 7cbd
00000320: d892 673d b7e6 36bc 7f6d ce3c c727 143c
00000330: 3088 b2bd 147b 123d c83f 613c 5ccf a93c
00000340: 5677 05bc c74f c13b ea83 3fbc c4e5 a8bb
00000350: bb77 213c f6f7 d83c 80b0 e8bc 2be9 12bd
00000360: 869e 26bc f1ef 3f3c 21c4 81bc 8604 e73b
00000370: bcd2 45bd 9bec c93c edac c73c df5d 10bd
00000380: e0cc 55bc e0a2 dd3c b095 bbbc 3c8f 9b3c
00000390: b8cf 9a3d 1b93 1bbd 78c6 c33c 8de1 ddbc
000003a0: 8a56 183d 21fb 933c 5f68 a93d a3b1 2c3c
000003b0: cc78 42bd cfd2 5f3c ad9f 1dbc 6e05 893d
000003c0: 360d cf3b e147 3ebd 4021 02bd 2b67 7ebd
000003d0: 4dd2 d3bb 3d47 82bc 17b4 14bd 986b 143b
000003e0: e600 2cbd 8964 ed3b d348 aebc 531b 32bd
000003f0: 90f1 883c 1057 1d3d bd01 e43c 386e c2bc
0.033291474 -0.0005263544 0.010905534 0.0026225585 -0.049383618 0.015189125 -0.0057427785 0.055629745
0.01573088 0.015395445 -0.038537137 -0.03247268 0.014811055 0.020761056 0.024501912 -0.018829577
0.011399823 0.009773187 -0.0011408678 -0.0449113 0.012147557 0.022202825 -0.0035957424 0.0057682893
-0.006273692 -0.020728284 -0.021966571 0.029482001 -0.0088488525 0.040836144 0.037716422 -0.01709344
0.0072288355 0.05797182 0.053588245 0.064000964 -0.02205105 0.025504455 0.043684665 -0.023385946
-0.015787376 0.058973815 0.057366893 0.024948684 -0.0362136 -0.02384013 0.009020938 -0.040452473
-0.04546634 -0.0053584124 0.04867114 0.015000632 -0.054341953 0.021769347 -0.030097656 0.020268643
-0.038411755 -0.0021183712 -0.050741162 0.016632047 0.053689692 -0.02098318 -0.020695858 0.039926082
-0.028060865 0.0022974531 0.00012929171 -0.02864954 -0.016070528 -0.009703345 -0.021387843 0.018383877
0.035867017 -0.0018690292 0.00710482 0.032095484 -0.0023463254 -0.0357018 0.0006324109 -0.03374402
-0.028408825 0.0077773854 0.008227911 0.0145386495 0.03512449 -0.009230109 -0.051036235 0.032895494
0.037360903 0.019604942 -0.012753282 -0.00587243 -0.007901912 -0.058537837 -0.019539468 0.0367706
0.007305352 -0.061716914 -0.046427168 -0.01817446 0.0077291774 -0.051186766 0.0037447105 0.003306154
0.008976579 -0.03000767 0.007895648 0.073948294 0.010498821 -0.019851299 0.006803147 -0.06742983
-0.053616118 -0.01893405 0.0012008336 0.041731626 0.007298 0.06741262 0.031096032 0.01241315
-0.058438085 -0.040309697 0.023366563 -0.00948764 -0.030098502 -0.027151123 -0.022303917 0.019682914
-0.018639883 -0.010516898 -0.016722014 -0.01923369 0.015023524 0.0678886 -0.043497283 0.016253836
-0.01691413 0.017172664 0.011881531 -0.021067932 0.0041333563 -0.020104162 0.033400085 -0.03174759
0.02444282 0.04634334 0.03848657 -0.026036683 -0.012197076 -0.025927657 -0.016814401 -0.075562105
0.0027777501 0.0014906978 -0.036150977 0.038963918 0.02508414 0.03371964 0.0010678498 -0.03614078
-0.026584672 0.043532375 -0.014888779 0.007181842 -0.03317575 -0.069795296 0.017448073 -0.04391716
-0.017943425 -0.050425768 -0.028803146 0.016548743 0.048756044 0.022212021 -0.00011625203 -0.0015067217
0.020273007 0.053003654 0.002834539 0.028359378 -0.01732502 0.033524774 0.06675486 0.0018074196
0.008974752 -0.034328856 0.012895621 0.0022042359 -0.0092238225 0.0052012196 -0.0002706457 0.030373473
0.011634582 0.018215448 -0.024260925 0.039831247 0.00928928 0.013805112 -0.010608319 -0.061565198
0.056536525 -0.011163405 0.025198696 0.009042687 -0.08717382 0.035761908 0.013748117 0.02072876
-0.008146128 0.005899403 -0.011689166 -0.0051543433 0.009855206 0.026485424 -0.028404474 -0.035866898
-0.010169631 0.011714921 -0.015840592 0.0070501 -0.048296675 0.024648955 0.02437445 -0.035245772
-0.013049334 0.027055204 -0.022898525 0.018989198 0.075591505 -0.037982088 0.023898348 -0.02708509
0.037191905 0.018064084 0.0827186 0.010540399 -0.047478482 0.0136611005 -0.009620589 0.06690489
0.0063187135 -0.046455268 -0.03176999 -0.062110107 -0.006464279 -0.01590311 -0.03630456 0.0022647139
-0.041993044 0.0072446507 -0.02127496 -0.04348309 0.016716748 0.038413107 0.02783286 -0.023734197

bias f4 [12]
00000000: c2a2 6c3d c545 a93d afad fabd 262e 1b3d
00000010: a351 593c 20fb 253d 09de aabc 76dc 07bc
00000020: 27ec 69bd d365 78bd 870f e43c f6a9 e1ba
0.057772405 0.082652606 -0.12240159 0.037885807 0.013264093 0.040522695 -0.020857828 -0.008292308
-0.057109978 -0.060643982 0.027839435 -0.001721679
