policies/sim2real_tutorial/policy_flat_no_DR/exported/policy.pt (torch, 769376 bytes, 8 tensors)

weight f4 [512, 45]
0	0xbe39d737	-0.18148504
1	0xbb774771	-0.0037731791
2	0x3d264463	0.040592562
3	0x3da2930f	0.079382055
4	0x3d920bf6	0.071311876
5	0x3cc0afa9	0.023521261
6	0xbe74d9c2	-0.23911193
7	0xbe8111dd	-0.2520894
8	0xbdb94166	-0.09045677
9	0xbe1ebac4	-0.15500933
10	0xbe8830ce	-0.26599735
11	0xbebcd00d	-0.3687748
12	0xbebc315e	-0.36756414
13	0x3cd134dc	0.0255379
14	0xbe538f38	-0.20660102
15	0xbe63b741	-0.22237875
16	0xbdd803ad	-0.10547576
17	0x3ebf4273	0.37355384
18	0x3d0088ee	0.031380586
19	0x3e1d1403	0.15339665
20	0x3e709022	0.23492482
21	0xbd56af75	-0.052413423
22	0x3ca008cb	0.019535443
23	0xbd983a5f	-0.074330084
24	0x3ccbdae0	0.024884641
25	0xbcb45ae0	-0.022015989
26	0xbd204701	-0.039130215
27	0xbdb51d34	-0.08843461
28	0x3d74c15d	0.059754718
29	0xbd78101f	-0.06056225
30	0xbce75127	-0.028236939
31	0x3dae7f5e	0.08520387
32	0x3d3aa393	0.045566153
33	0xbe26e250	-0.16297269
34	0xbdf5282e	-0.11970554
35	0xbe16abe8	-0.14714015
36	0xbdc6ca12	-0.097065106
37	0x3e1c5330	0.15266109
38	0x3ca52592	0.020159516
39	0xbd9dab0d	-0.07698641
40	0xbcd0f2ef	-0.025506465
41	0x3df14f4b	0.11782702
42	0xbde86cff	-0.11348914
43	0xbe0b22fa	-0.13587561
44	0x3d90e4ba	0.07074876
45	0xbd807441	-0.06272174
46	0x3da14898	0.07875174
47	0x3d54e72b	0.05197827
48	0x3e182271	0.14856888
49	0x3de7ac43	0.11312153
50	0x3db5ef50	0.08883536
51	0x3dc13ac9	0.094350405
52	0xbe6cd03e	-0.23126313
53	0x3df9d241	0.12198306
54	0xbe76bb6c	-0.24094933
55	0xbdb8dc58	-0.09026402
56	0xbe92ed4d	-0.2869667
57	0xbe7b98d2	-0.24570015
58	0x3ee4f37e	0.4471702
59	0x3d41a88e	0.047279887
60	0x3db40193	0.08789363
61	0xbdc325ad	-0.095286705
62	0x3e3bdc4e	0.18345758
63	0xbcbec542	-0.02328742
64	0x3d836847	0.06416374
65	0xbe14a884	-0.14517409
66	0x3d9a56d0	0.075360894
67	0xb988ecec	-0.00026116462
68	0xbb3554d4	-0.002766897
69	0x3d0e2344	0.0347016
70	0x3ca0621f	0.019578038
71	0x3d83c3be	0.06433819
72	0x3d8e7962	0.06956746
73	0x3dc6eec1	0.097135074
74	0x3d755d88	0.05990365
75	0xbcc971c7	-0.024590386
76	0xbdb8491a	-0.08998318
77	0x3d8b514a	0.06802614
78	0xbe85b501	-0.26114658
79	0xbdce8e13	-0.10085692
80	0xbd83ef52	-0.06442131
81	0xbe1fcf73	-0.1560648
82	0x3d5b6b0a	0.053568877
83	0xbccfef99	-0.025382804
84	0xbe139901	-0.14413835
85	0xbe2d75a1	-0.16939403
86	0x3b341ac5	0.0027481776
87	0xbd87af4d	-0.06625233
88	0x3e4b02f1	0.19825341
89	0xbe4b5aef	-0.19858907
90	0xbdc7c493	-0.097542904
91	0x3cc86fbd	0.024467343
92	0xbd01e9ee	-0.031717233
93	0x3e3b31ac	0.18280667
94	0x3c75343f	0.01496607
95	0x3d8a02e3	0.06738832
96	0x3e43c9c0	0.1911993
97	0x3e0f1cb3	0.13975792
98	0xbe156e54	-0.14592868
99	0x3d3412c7	0.04396322
100	0x3da5d7d2	0.08097805
101	0xbdbc3788	-0.09190279
102	0xbe4c292b	-0.1993758
103	0xbc5cef44	-0.01348478
104	0x3cd09f85	0.02546669
105	0x3e299f18	0.16564596
106	0xbe64a9cb	-0.22330396
107	0xbdbd32fc	-0.0923824
108	0x3da89e7f	0.08233356
109	0x3d992704	0.07478145
110	0x3e1d614f	0.15369152
111	0xbddb9a0b	-0.10722741
112	0x3dbcd971	0.09221161
113	0x3ddbd75c	0.10734436
114	0xbd9e9236	-0.07742731
115	0xbca38c4f	-0.019964365
116	0xbe07e7f7	-0.13272081
117	0x3c9f8630	0.019473165
118	0xbd93df6c	-0.07220349
119	0xbdd2ce2a	-0.10293229
120	0x3d46592c	0.048424885
121	0x3cb1ec19	0.021719025
122	0xbdb29a92	-0.08720888
123	0xbccaa998	-0.024739072
124	0xbd60d11a	-0.054886915
125	0xbda7124a	-0.08157785
126	0xbe19c432	-0.15016249
127	0x3db2d0df	0.08731245
128	0xbda2bb62	-0.07945897
129	0x3cf93b2a	0.03042372
130	0xbde1c5fb	-0.1102409
131	0xbe2e511f	-0.17023133
132	0x3e4a9503	0.19783406
133	0xbc100c58	-0.0087920055
134	0xbe597af5	-0.2123831
135	0x3de15efb	0.11004444
136	0x3cef9945	0.02924789
137	0xbd8c4d41	-0.068506725
138	0x3e8696d0	0.26286936
139	0xbd238a4e	-0.03992682
140	0x3ddf155a	0.10892744
141	0xbe01d589	-0.12679113
142	0x3ca30e8c	0.019904397
143	0xbc43a85a	-0.011941994
144	0x3e293e91	0.16527773
145	0xbd5e61f2	-0.054292627
146	0x3ed1e7a6	0.40997046
147	0x3d94deff	0.07269096
148	0x3d984e68	0.0743683
149	0x3e7954ad	0.24348707
150	0xbf19897b	-0.59975404
151	0xbf189937	-0.5960879
152	0x3d5cb517	0.05388364
153	0x3dd2dbed	0.10295854
154	0xbe0bb40c	-0.13642901
155	0xbe6fc1b8	-0.23413742
156	0xbd063fb4	-0.032775596
157	0x3d4497e8	0.04799643
158	0xbd02a798	-0.03189811
159	0x3de84c49	0.11342675
160	0x3cffeaec	0.03123995
161	0xbc7fd14b	-0.015613864
162	0x3d2f49d6	0.042795025
163	0x3d183fdc	0.037170276
164	0xbd83b9eb	-0.064319454
165	0x3a9d2f64	0.0011992273
166	0x3cc0f2e1	0.023553314
167	0x3dbcf342	0.09226085
168	0x3d867962	0.06566121
169	0xbdaff16b	-0.08590969
170	0x3e160d40	0.14653492
171	0xbd088ef0	-0.03333944
172	0xbd92c48f	-0.07166397
173	0x3cbc529d	0.022988612
174	0xbe88e46c	-0.26736772
175	0xbe45d0ec	-0.19317979
176	0x3dee8235	0.11645929
177	0x3be7f1d8	0.0070783906
178	0xbc0381e2	-0.008026572
179	0xbd479f37	-0.048735823
180	0x3d4f70f8	0.050644845
181	0xbd8cb43a	-0.06870313
182	0x3deebf22	0.116575494
183	0xbe89fbcd	-0.2694992
184	0xbb4e52a7	-0.003148237
185	0xbcd4c56d	-0.025973046
186	0xbe4eb7fd	-0.20187373
187	0x3edd7c6c	0.4325899
188	0xbca80a80	-0.02051282
189	0x3d879bda	0.06621523
190	0xbe1616e9	-0.14657177
191	0xbe457061	-0.1928115
192	0x3c8ed8e7	0.017437411
193	0x3e2f1553	0.17097978
194	0x3e4f8b59	0.20268
195	0x3ea17565	0.31534877
196	0x3e347534	0.17622834
197	0xbde5d324	-0.112219125
198	0x3e4b3ddd	0.19847818
199	0xbd4b41b7	-0.049623217
200	0xbe106e3a	-0.14104548
201	0x3a8aaed4	0.0010580667
202	0xbd058b1a	-0.03260336
203	0x3caed714	0.021342792
204	0xbd637743	-0.05553366
205	0xbd5c1fed	-0.053741384
206	0x3d9cfb62	0.07665135
207	0xbd92e93c	-0.07173392
208	0xbd86de7e	-0.06585406
209	0xbd035af7	-0.032069173
210	0x3bf9040c	0.0075993594
211	0xbd0f4751	-0.034980122
212	0xbd988da4	-0.07448891
213	0x3e0dd560	0.13850927
214	0x3cee4e56	0.029090088
215	0xbdcf378c	-0.101180166
216	0x3d96543a	0.07340284
217	0x3dd6a83c	0.10481307
218	0x3d3819c1	0.044946436
219	0x3d73c604	0.059515014
220	0x3e1869d8	0.14884126
221	0x3c8f0f27	0.01746328
222	0x3cdbfd50	0.026854187
223	0xbd783945	-0.06060149
224	0xbe0e83a8	-0.1391741
225	0xbddc7dac	-0.107661575
226	0xbd6b9a23	-0.057520043
227	0x3d4704ff	0.04858875
228	0x3e996bc6	0.29965037
229	0xbe0db073	-0.13836841
230	0xbdc2274f	-0.09480154
231	0xbe116e07	-0.14202128
232	0xbe062e8a	-0.1310369
233	0xbe4668da	-0.19375935
234	0x3e0efdee	0.13964054
235	0xbe1cd43e	-0.15315339
236	0xbc4d99f6	-0.012548914
237	0x3ce112af	0.02747473
238	0xbe855866	-0.26044005
239	0xbe6c581e	-0.23080489
240	0xbe66318b	-0.22479837
241	0xbe7f6864	-0.24942166
242	0x3e10f494	0.14155799
243	0xbe6b573d	-0.22982498
244	0x3e1c5440	0.15266514
245	0xbd678165	-0.056519885
246	0xbbded5ca	-0.006800388
247	0x3c88bee4	0.016692586
248	0xbca40a21	-0.020024361
249	0xbd5eacc7	-0.054363992
250	0x3cf3389d	0.029690081
251	0x3d42e465	0.047581095
252	0x3c0d30d1	0.008617596
253	0x3d62acf9	0.05534074
254	0x3d988abf	0.07448339
255	0x3bc10ab4	0.0058911685

bias f4 [512]
0	0x3e2dd2b9	0.16974916
1	0xbde3701f	-0.1110537
2	0x3e029200	0.12751007
3	0xbd93c75f	-0.072157614
4	0x3d9e4cc4	0.07729486
5	0xbd64e20d	-0.05587964
6	0x3d5e25dd	0.054235328
7	0xbd71dc1a	-0.059047796
8	0x3dea178c	0.114302725
9	0x3d1adf73	0.037810754
10	0xbda37229	-0.07980759
11	0xbe0b9462	-0.13630822
12	0xbc075556	-0.008260092
13	0xbd2a6032	-0.041595645
14	0xbca0a565	-0.019610116
15	0xbe5f4b03	-0.21805958
16	0x3e390e3b	0.18071835
17	0xbd0895e0	-0.033346057
18	0xbd8978ae	-0.06712471
19	0x3db18655	0.086682
20	0xbdb69a5f	-0.08916163
21	0xbd68bc83	-0.056820404
22	0xbddc7abc	-0.10765597
23	0x3e4564f2	0.19276789
24	0x3d2cbde9	0.0421733
25	0x3d8d6849	0.069046564
26	0x3d8084a9	0.06275303
27	0x3db51956	0.08842723
28	0x3e01f10e	0.12689611
29	0xbd0b75e2	-0.03404797
30	0x3da6d4b2	0.08146037
31	0xbe2bfcbd	-0.16795631
32	0x3c01ad11	0.007914797
33	0x3db3b14d	0.08774052
34	0x3c894a7e	0.016759153
35	0xb9d8f52d	-0.000413814
36	0xbe3a7c87	-0.18211566
37	0xbc6982e3	-0.014252397
38	0xbe62cbb6	-0.22148022
39	0x3d94d5b2	0.07267322
40	0xbdbc74e0	-0.0920198
41	0x3cef6347	0.029222144
42	0xbe3b098a	-0.18265358
43	0x3e2c0fa7	0.16802846
44	0x3d8a49ca	0.067523554
45	0xbe48cc4d	-0.19609185
46	0xbe18411e	-0.1486859
47	0xbc0032c8	-0.007824607
48	0x3d4d0ef8	0.050063103
49	0xbbf439aa	-0.007453163
50	0xbda76d0b	-0.08175095
51	0x3d6b3801	0.057426456
52	0xbd9f8b3b	-0.07790228
53	0x3df558f9	0.11979861
54	0x3d85e645	0.06538061
55	0xbe215a5d	-0.15757127
56	0x3e367c4c	0.17820853
57	0xbc939dc4	-0.018019564
58	0x3d695aa7	0.05697122
59	0xbd169843	-0.0367663
60	0x3d8b88c9	0.06813199
61	0xbcba0886	-0.022709142
62	0xbe26ddf2	-0.16295603
63	0xbe269856	-0.16269049
64	0x3de59652	0.11210312
65	0x3d8735a6	0.066020295
66	0xbdbc5ff8	-0.09197992
67	0x3bbfbee6	0.0058516143
68	0xbd010235	-0.031496245
69	0x3c974ca7	0.018469168
70	0x3d296866	0.041359328
71	0x3e1c0fe4	0.15240437
72	0x3c3f817e	0.011688588
73	0xbd88318e	-0.06650077
74	0xbde96aae	-0.11397301
75	0xbdf0ec35	-0.11763803
76	0x3cfb95e6	0.030711126
77	0xbdbf78f2	-0.0934924
78	0xbcdf166f	-0.027232377
79	0xbdb18006	-0.08666997
80	0x3d866cac	0.06563696
81	0x3df1cd1c	0.118067
82	0xbe27d1ed	-0.16388674
83	0x3d93f2d9	0.07224054
84	0x3ce04075	0.027374486
85	0xbc0525b7	-0.008126668
86	0x3da02eac	0.07821402
87	0x3d1bf157	0.038071956
88	0x3d8c4796	0.068495914
89	0x3da6ecce	0.08150636
90	0xbc2d50b4	-0.010578323
91	0xbd672e2e	-0.056440525
92	0xbdb800a3	-0.089844964
93	0x3db30947	0.08742004
94	0x3de0c335	0.10974733
95	0x3dacdd0c	0.08440599
96	0xbe242993	-0.16031484
97	0x3e16f330	0.14741206
98	0xbc4fb089	-0.012676367
99	0x3dfb5ff7	0.12274163
100	0x3e2641e6	0.16236076
101	0x3d8b342c	0.0679706
102	0xbdcac676	-0.09901135
103	0x3dd7be24	0.10534313
104	0xbe58ea03	-0.21183018
105	0xbdbd974e	-0.09257375
106	0xbe1f8a17	-0.15580021
107	0x3d654a77	0.05597922
108	0x3d0ea6e7	0.03482714
109	0x3b87e987	0.0041477117
110	0xbd17e7d8	-0.037086338
111	0xbdc0ca28	-0.09413558
112	0x3d98ebd7	0.07466858
113	0x3df75769	0.12077219
114	0xbb9993de	-0.0046868166
115	0xbd921a8f	-0.07133972
116	0xbd5364c0	-0.051609755
117	0xbe0cdc7e	-0.13755986
118	0x3dba5f24	0.09100178
119	0x3e13e7da	0.14443913
120	0x3e2bc03a	0.16772547
121	0x3cee8dad	0.02912029
122	0xbc02ff5f	-0.0079954555
123	0x3cd2241e	0.025651988
124	0xbd2648b6	-0.040596686
125	0x3dba135c	0.09085724
126	0x3d938a96	0.072041675
127	0xbe47964e	-0.1949093
128	0x3e25375d	0.161344
129	0xbd813af1	-0.0631007
130	0x3d870d13	0.065942906
131	0xbe3b3b13	-0.18284254
132	0xbda92760	-0.08259463
133	0x3e1a550e	0.15071508
134	0xbe1ed822	-0.15512136
135	0xbd55a39f	-0.052157994
136	0x3e0b78de	0.13620326
137	0xbb9f8d8a	-0.0048691677
138	0x3da57031	0.080780394
139	0x3cce9caa	0.025221188
140	0xbd496fbd	-0.049178828
141	0xbe39c009	-0.18139662
142	0xbdb770c3	-0.089570545
143	0x3d23fdf5	0.040037114
144	0x3dff51f6	0.12466805
145	0xbda48d7d	-0.08034799
146	0xbbfa8b3b	-0.007645992
147	0x3d3918d9	0.045189712
148	0x3e09a6ee	0.13442585
149	0xbcdd05cc	-0.026980303
150	0xbe136e68	-0.14397585
151	0xbdea2c55	-0.11434237
152	0x3dd70b58	0.105002105
153	0x3d3b1294	0.045672014
154	0xbe2c307b	-0.16815369
155	0x3d6847d0	0.05670911
156	0xbe029695	-0.12752755
157	0xbd6d8645	-0.057989378
158	0x3ccd64f7	0.025072558
159	0x3c1ff433	0.0097628115
160	0xbe56f446	-0.2099162
161	0x3e55feb9	0.2089795
162	0x3e120d2a	0.14262834
163	0x3bdaaf11	0.0066737016
164	0xbe0acb91	-0.13554217
165	0x3e44d241	0.1922083
166	0x3d828ebc	0.06374881
167	0xbe2b8fce	-0.16754076
168	0xbe0deb5e	-0.13859317
169	0x3cb83053	0.02248398
170	0x3d44ec4b	0.04807691
171	0x3d27fc75	0.041012246
172	0x3dab6cd2	0.08370365
173	0x3c5d255c	0.013497677
174	0x3db63f82	0.08898832
175	0x3ddf7b63	0.10912206
176	0x3df513f5	0.11966697
177	0x3dbdd4b7	0.09269088
178	0xbda671e1	-0.081271894
179	0xbe052bd9	-0.13005008
180	0x3caa8701	0.020816328
181	0xbdd7f318	-0.10544413
182	0x3d48e2f8	0.04904458
183	0x3c49d8d4	0.012319762
184	0x3e0e33be	0.13886926
185	0xbe2db492	-0.16963413
186	0xbdf7edf4	-0.12105933
187	0xbd5119af	-0.051049884
188	0x3db9f8f0	0.09080684
189	0xbbd091e7	-0.006365049
190	0xbd17be7f	-0.037046906
191	0xbc931ecc	-0.017959021
192	0xbe004ef1	-0.12530114
193	0x3e3b3bc1	0.18284513
194	0x3e621a21	0.2208028
195	0x3dbb0473	0.09131708
196	0xbd0d6db5	-0.034528453
197	0xbd8d77dd	-0.06907628
198	0xbe022ec5	-0.12713154
199	0x3c176c65	0.009242152
200	0xbd96f17c	-0.07370278
201	0x3df6d373	0.120520495
202	0x3df75e65	0.12078551
203	0xbd179952	-0.037011452
204	0xbdfbb93c	-0.1229119
205	0x3e003704	0.12520987
206	0xbc282d0d	-0.010264647
207	0xbdf4fbea	-0.11962111
208	0xbe0701a0	-0.13184214
209	0xbdc9225d	-0.098210074
210	0xbe28358e	-0.1642668
211	0xbd9441aa	-0.07239087
212	0xbe4f12fb	-0.20222084
213	0x3e2172d9	0.15766467
214	0x3de0d422	0.10977961
215	0x3d9b99f4	0.075977236
216	0x3d998b94	0.074973255
217	0xbe340600	-0.17580414
218	0x3de81c3f	0.113335125
219	0x3dd1a360	0.102362394
220	0x3d2134cc	0.03935699
221	0x3c074030	0.00825505
222	0xbc4987ee	-0.012300475
223	0xbe38ba98	-0.1803993
224	0xbe108498	-0.1411308
225	0x3cfbd8f4	0.0307431
226	0xbb826996	-0.003979872
227	0xbe3c2f87	-0.18377505
228	0xbd23de11	-0.0400067
229	0x3d4d42cb	0.050112527
230	0x3e13f5b7	0.14449202
231	0xbde82544	-0.11335233
232	0xbe06f31b	-0.13178675
233	0xbe077bec	-0.13230866
234	0xbd001827	-0.031273033
235	0x3d127767	0.035758402
236	0x3e15931a	0.14606896
237	0x3d2614cd	0.04054718
238	0xbe352e65	-0.1769348
239	0xbd4df561	-0.05028284
240	0x3e1bd400	0.1521759
241	0x3cdfc49d	0.027315432
242	0x3dd1ce52	0.102444306
243	0xbdd816f0	-0.1055125
244	0xbcc73de1	-0.024321498
245	0xbe247c6a	-0.16063085
246	0x3e54df93	0.20788412
247	0xbdb3d94e	-0.08781682
248	0x3dc5547e	0.09635256
249	0xbd8cc517	-0.068735294
250	0x3c5270a3	0.0128442375
251	0xbbefe1b9	-0.0073206094
252	0xbc54cd83	-0.012988451
253	0xbd5eff3c	-0.05444263
254	0x3e3d426b	0.18482368
255	0xbc5413a6	-0.012944138

weight f4 [256, 512]
0	0x3d88cd9e	0.06679843
1	0xba445c46	-0.00074905565
2	0x3cd34db7	0.025793893
3	0xbc7cef7b	-0.015437956
4	0xbc24bc35	-0.010054638
5	0x3d5f1062	0.054458983
6	0x3d681bc7	0.056667116
7	0xbd08db4f	-0.033412274
8	0x3c889d2b	0.016676506
9	0xbcba7b6b	-0.022763928
10	0x3af93ac7	0.0019014709
11	0x3da95f2a	0.08270104
12	0x3cade85b	0.02122896
13	0xbd0b98fb	-0.03408144
14	0xbc4407d7	-0.01196476
15	0x3cc45f58	0.023971245
16	0x3c6fe1eb	0.014641265
17	0x3bc98c3c	0.0061507504
18	0x3bc619c1	0.0060455506
19	0xbc8cfc85	-0.017210254
20	0x3d293738	0.041312426
21	0xbcc0a741	-0.023517253
22	0xbd066c7b	-0.0328183
23	0x3d303699	0.04302082
24	0x3c9afb6b	0.018918714
25	0x3c10cfb6	0.008838585
26	0x3d5b6fa9	0.053573284
27	0xbcdc97a0	-0.02692777
28	0x3d5639e5	0.052301306
29	0xbc955f4e	-0.018233921
30	0x3d3a1d20	0.045437932
31	0xbd4dd4ef	-0.050251897
32	0x3cec43df	0.028840957
33	0xbd223954	-0.039605454
34	0xbd1040d9	-0.035218094
35	0xbcabc5d7	-0.02096836
36	0xbce1ed13	-0.027578866
37	0x3d287220	0.041124463
38	0xbafd23b4	-0.0019313009
39	0x3d143a25	0.036188263
40	0xbc88b27b	-0.016686669
41	0x3c81cae2	0.015843812
42	0xbdb361b0	-0.08758867
43	0x3d6af7ed	0.057365347
44	0x3d24afcc	0.040206715
45	0xbdc4970b	-0.09599122
46	0x3c7a3c72	0.0152732
47	0x39aee771	0.00033360303
48	0xbb0b005d	-0.0021209933
49	0xbdc9fa1b	-0.09862157
50	0xbd475a4b	-0.048670094
51	0x3d010add	0.0315045
52	0xb9b46b24	-0.000344121
53	0x3d2debf3	0.042461347
54	0x3cf3edd1	0.029776486
55	0x3d484e7d	0.048902977
56	0x3d019806	0.03163912
57	0x3b072f46	0.0020627542
58	0x3c350dd4	0.01105066
59	0x3ca7a2ac	0.02046331
60	0xba973997	-0.0011537549
61	0xbc9ffcc5	-0.01952971
62	0x3c5d6b32	0.013514327
63	0x3c2acbac	0.010424536
64	0xbcd6b814	-0.026210822
65	0x3b8ab64e	0.004233158
66	0x37d4c541	2.5364223e-05
67	0x3d321a7b	0.043482285
68	0x3c882304	0.01661826
69	0xbb85c2e0	-0.004082069
70	0xbcf56dc8	-0.029959574
71	0xbcc07e00	-0.023497581
72	0xbda6c9ef	-0.081439845
73	0xbda230e4	-0.079194814
74	0xbd529a67	-0.05141678
75	0xbc29b613	-0.010358351
76	0xbd51b625	-0.051199097
77	0x3d650ce6	0.055920504
78	0x3c3fb6f3	0.011701333
79	0x3d552803	0.05204011
80	0xbcd544dd	-0.026033813
81	0xbd45cd49	-0.04829148
82	0x3d758c56	0.059948288
83	0x3c7851ff	0.015156268
84	0xbd8311c5	-0.06399874
85	0xbcb6b625	-0.02230365
86	0x3d6a99c7	0.05727556
87	0x3d70faee	0.058833055
88	0xbc09f4bb	-0.008420165
89	0xbd2e14dc	-0.04250036
90	0x3d05484f	0.032539662
91	0xbc651185	-0.013981228
92	0x3d675b2c	0.056483433
93	0xbbb560bd	-0.0055352137
94	0x3d4f4815	0.050605852
95	0xbd6babb9	-0.057536814
96	0xbda21c46	-0.07915549
97	0x3d8764e4	0.0661104
98	0x3c17c21a	0.009262586
99	0x3d798138	0.06091425
100	0x3ce68854	0.028141178
101	0x3bae6eb5	0.005323256
102	0xbd02bfde	-0.03192126
103	0xbd7bb04c	-0.061447427
104	0xbd41f20c	-0.047349975
105	0xbd4b687e	-0.0496602
106	0xbae58d48	-0.0017513419
107	0x3cc85b1a	0.024457503
108	0xbdb14d48	-0.08657318
109	0x3bc24fbc	0.0059299152
110	0x3b313c91	0.0027044157
111	0xbc871412	-0.016489062
112	0xbcb3174f	-0.0218617
113	0x397e8621	0.00024273295
114	0xbcdf03d0	-0.027223498
115	0x3d800f16	0.062528774
116	0x3cae842a	0.021303255
117	0x3d07ef21	0.033187035
118	0x3d4d5105	0.050126094
119	0x3c4f2fd5	0.012645681
120	0x3cce8728	0.025210932
121	0xbb2f99e1	-0.00267946
122	0xbcb829de	-0.022480901
123	0x3ba186e0	0.0049294084
124	0x3d15c092	0.036560602
125	0xbc6bb1d5	-0.01438566
126	0xbb8ac121	-0.0042344485
127	0xbd68f10c	-0.056870505
128	0x3ce9533a	0.028482068
129	0x3bf961ed	0.0076105506
130	0xbd879f73	-0.066222094
131	0xbc83bf26	-0.016082358
132	0xbda4f733	-0.08054962
133	0xbc80be9b	-0.015715888
134	0xbd1beccc	-0.038067624
135	0xbabbce41	-0.0014328436
136	0xbd207efd	-0.039183605
137	0xbcb96c77	-0.022634728
138	0x3c6044ae	0.0136882495
139	0xb8db0201	-0.00010443107
140	0xbcd8936e	-0.026437487
141	0x3cd5feab	0.026122412
142	0xbd7d38d0	-0.06182176
143	0xbd361629	-0.044454727
144	0x3859381e	5.1789095e-05
145	0xbc936d5b	-0.01799648
146	0xbc317af7	-0.01083254
147	0x3b33f6c7	0.0027460323
148	0x3d76ad1f	0.060223695
149	0xbd24bb48	-0.040217668
150	0xbd65328c	-0.05595641
151	0xbd772822	-0.060341008
152	0x3cd998fe	0.02656221
153	0x3d490738	0.04907915
154	0xbd83f6ea	-0.064435795
155	0x3ca6c4ad	0.020357454
156	0x38bcae29	8.9969784e-05
157	0x3c92e1e7	0.017929984
158	0xbc402512	-0.011727588
159	0x3c354add	0.011065212
160	0xbd9ae424	-0.075630456
161	0x3ce9093e	0.02844679
162	0x3d454d26	0.048169278
163	0x3c927d81	0.01788211
164	0x3d741b3a	0.059596278
165	0x3d51a94a	0.051186837
166	0x3d032eae	0.03202694
167	0x3c840201	0.016114237
168	0x3b356f80	0.0027684867
169	0x3c869509	0.016428487
170	0xbd8506f5	-0.064954676
171	0xbd406671	-0.046972696
172	0x3c953acc	0.018216513
173	0xbc9448bc	-0.018101089
174	0xbd479028	-0.048721462
175	0xba0bbb54	-0.0005330343
176	0x3c324c87	0.010882503
177	0xb8bedee3	-9.101422e-05
178	0xbd4f3430	-0.05058688
179	0xbd44b4bf	-0.048023935
180	0xbcb68f08	-0.022285
181	0xbc7ee69b	-0.01555791
182	0x3c110093	0.008850235
183	0x3d602f65	0.0547327
184	0x3d816394	0.06317821
185	0x3b0ca03f	0.0021457819
186	0x3d364efb	0.044508915
187	0xbcaadab5	-0.02085624
188	0x3b17c38f	0.0023157333
189	0xba546c03	-0.0008103253
190	0xbd499f25	-0.049224038
191	0xbd8a831f	-0.067632906
192	0xbd37b32d	-0.04484861
193	0x3d6a0aff	0.057139393
194	0xbcc42bf2	-0.023946736
195	0x3d2ff99c	0.042962655
196	0xbc5469e5	-0.0129647
197	0xbb98f531	-0.004667901
198	0xbbf1d680	-0.0073803067
199	0xbd374ba9	-0.04474989
200	0x3c3bcbe1	0.011462183
201	0xbce29d82	-0.027662996
202	0x3cbfb747	0.023402823
203	0xbc990848	-0.018680707
204	0x3c86180b	0.016368886
205	0x3c2ad73a	0.010427291
206	0xbdadf666	-0.084942624
207	0x3d7fd67b	0.062460404
208	0x3c6a592b	0.014303486
209	0x3c90083d	0.017582053
210	0xbd090e45	-0.033460874
211	0xbbfe9948	-0.0077697374
212	0xbc28bcd8	-0.01029893
213	0x3da20a44	0.07912114
214	0xbd12aabd	-0.03580736
215	0xbbb9d004	-0.0056705493
216	0x3c383518	0.011243127
217	0x3cb3b64f	0.021937517
218	0xbd173f2b	-0.036925476
219	0xbc86b9ec	-0.016446076
220	0x3b798723	0.0038074933
221	0xbd113d9b	-0.035459142
222	0xbcbf5880	-0.02335763
223	0xbcd8835f	-0.02642983
224	0x3c0e4ad7	0.008684835
225	0x3d47e1f8	0.048799485
226	0xbca72b2e	-0.020406332
227	0xbd038a78	-0.032114476
228	0x3c9c7ad4	0.019101538
229	0xbd459322	-0.04823602
230	0xbba448e1	-0.0050135707
231	0xbd092ba4	-0.033488885
232	0xbc721c08	-0.014777191
233	0x3cb44679	0.02200626
234	0xbc1da82d	-0.009622616
235	0x3d647a93	0.05578096
236	0x3d3a09ef	0.04541963
237	0xbcda725a	-0.026665855
238	0x3d2e5207	0.042558696
239	0x3cba3d1d	0.02273422
240	0xbd372ce5	-0.04472055
241	0x3d579831	0.052635375
242	0x3bf1c935	0.007378722
243	0xbd1d9b9d	-0.038478483
244	0x3d53cdb0	0.05170983
245	0x3d2b0bee	0.041759424
246	0x3d3234b5	0.043507297
247	0x3d351933	0.044213485
248	0x3da16e0f	0.0788232
249	0xbc46bfe8	-0.012130715
250	0x3d752033	0.05984516
251	0xbd433c62	-0.047665007
252	0xbd3c70a5	-0.046005864
253	0x3d65633f	0.05600285
254	0xbcd498ac	-0.025951706
255	0xbd93f978	-0.07225317

bias f4 [256]
0	0xbaea53e5	-0.0017877786
1	0xbd09c275	-0.033632714
2	0xbd13fbba	-0.036128737
3	0xbd47541f	-0.04866421
4	0xbcbabca2	-0.022795025
5	0xbd9cab6f	-0.07649886
6	0xbc966921	-0.018360676
7	0xbd356268	-0.0442833
8	0x3ae34078	0.0017337939
9	0xbdbb2cf1	-0.09139431
10	0xbd35ab11	-0.044352595
11	0xbe09f57e	-0.13472554
12	0xbd41f7e2	-0.04735554
13	0xbc445755	-0.011983712
14	0xbdba4dbc	-0.09096858
15	0xbd31a86a	-0.043373503
16	0x3ac8b60c	0.0015313043
17	0xbc645105	-0.013935332
18	0x3b605214	0.003422861
19	0x3d62086d	0.055183817
20	0xb95fd9e3	-0.00021348106
21	0xbd4df6fc	-0.05028437
22	0xbd234142	-0.039857157
23	0xbd931d0f	-0.07183277
24	0xbdd11a34	-0.10210076
25	0x3c07dee6	0.008292889
26	0xbda45f67	-0.08026009
27	0xbd287667	-0.041128542
28	0xbd6c90fa	-0.057755448
29	0xbcff83d3	-0.031190788
30	0xbd2f7f2e	-0.042845897
31	0xbd4481c4	-0.047975317
32	0x3cc4e220	0.024033606
33	0xbce36202	-0.027756695
34	0xbca8c8d0	-0.020603567
35	0xbcba1eaf	-0.02271971
36	0xbd3af921	-0.045647744
37	0x3bd2674f	0.0064210068
38	0xbd754818	-0.059883207
39	0xbcf45161	-0.02982396
40	0xbdab7598	-0.083720386
41	0xbd5eeba4	-0.054423943
42	0x3cd454b5	0.025919298
43	0xbd788a52	-0.060678788
44	0xbd65a035	-0.05606099
45	0xbd257538	-0.04039499
46	0xbd7c9cb6	-0.06167289
47	0xbc1a7509	-0.009427317
48	0xbd5215cd	-0.051290322
49	0xbb6b22af	-0.0035878827
50	0xbdb7d750	-0.089766145
51	0xbd6a3ad4	-0.05718501
52	0x3cbdbec5	0.023162255
53	0xbe043943	-0.12912469
54	0xbc21e4ef	-0.009881242
55	0xbceb6c24	-0.028738089
56	0xbc870fb1	-0.016486974
57	0xbd302759	-0.043006275
58	0xbd831cd5	-0.06401984
59	0xbe02c514	-0.12770492
60	0xbd8344cd	-0.06409607
61	0x3d00d30f	0.03145128
62	0xbc18ca26	-0.00932554
63	0xbd8b5ea3	-0.0680516
64	0xbde54cb5	-0.11196271
65	0xbdc7e6e5	-0.097608365
66	0xbdce8953	-0.10084786
67	0xbd5354bc	-0.05159448
68	0xbc78ef4f	-0.015193774
69	0xbb988956	-0.0046550436
70	0xbbb96776	-0.0056580855
71	0xbcbd7b7e	-0.023130175
72	0xbd767fd9	-0.06018052
73	0xbda3ef54	-0.080046326
74	0xbdb8f5a6	-0.09031229
75	0xbcdca160	-0.026932418
76	0xbd71525e	-0.058916442
77	0xbcae99e4	-0.021313615
78	0xbdba5339	-0.09097905
79	0xbddf1e9c	-0.1089451
80	0x3cbbf221	0.022942604
81	0xbd408b10	-0.04700762
82	0xbd2deb91	-0.04246098
83	0xbc689080	-0.014194608
84	0x3d1116eb	0.035422247
85	0xbd47aca5	-0.04874863
86	0xbcab4c1b	-0.020910313
87	0x3d3aafa7	0.04557767
88	0xbd99e586	-0.07514481
89	0xbbd4923c	-0.006487159
90	0xbd625730	-0.05525893
91	0xbd65cc19	-0.056102846
92	0xbb70bd60	-0.003673397
93	0xbd2645a7	-0.04059377
94	0x3c3c71ab	0.01150171
95	0xbc640ace	-0.013918592
96	0xbc7c095d	-0.015383092
97	0xbc184857	-0.009294591
98	0xbc52a270	-0.012856111
99	0x3b27378e	0.002551529
100	0x3d52db4f	0.05147868
101	0x3c7a418e	0.0152744185
102	0xbb5bfe2d	-0.0033568249
103	0xbdc4e2a4	-0.09613541
104	0xbcc72966	-0.024311733
105	0x3c770c98	0.015078686
106	0xbd402e5d	-0.046919215
107	0xbd55c5da	-0.05219064
108	0xbce5941e	-0.02802473
109	0xbdd54458	-0.10413426
110	0xbb907b0f	-0.004409201
111	0xbc0a74c8	-0.008450694
112	0xbcf64563	-0.030062383
113	0xbd9ef1b2	-0.077609435
114	0xbdb852f0	-0.09000194
115	0xbe0144ab	-0.12623851
116	0xbde3e4f1	-0.111276515
117	0xbcb8bc7c	-0.022550814
118	0x3cc39af9	0.023877608
119	0xbcdd0436	-0.026979547
120	0xbac0a5cc	-0.0014697849
121	0xbd2036c9	-0.039114747
122	0xbcd1ad9a	-0.025595475
123	0xbe0093d6	-0.12556395
124	0x3cc39240	0.023873448
125	0x3b6ffaec	0.0036618067
126	0x3c2bdf1f	0.010490208
127	0xbd933dc0	-0.07189512
128	0x3d2e208b	0.042511504
129	0x3bf2da37	0.007411267
130	0xbd2b971f	-0.041892167
131	0x3c94d3ea	0.018167455
132	0xbd795bd9	-0.06087861
133	0xbd6afde5	-0.05737104
134	0xbca3327c	-0.019921534
135	0xbd9d6699	-0.076855846
136	0xbc305968	-0.010763504
137	0xbcf456c3	-0.029826527
138	0xbde1d599	-0.11027069
139	0xbd303e1b	-0.04302798
140	0xbd8bb7d8	-0.06822175
141	0xbd308be5	-0.043102164
142	0xbe0d3f59	-0.13793696
143	0xbe00a320	-0.12562227
144	0xbda0e59e	-0.07856296
145	0xbd506c98	-0.050884813
146	0xbda2c027	-0.079468064
147	0xbd868d18	-0.0656988
148	0x3b8b1d8a	0.0042454647
149	0xbd32dd6b	-0.043668192
150	0xbd847467	-0.064675145
151	0xbd802d72	-0.06258668
152	0xbc4e6cbc	-0.0125991665
153	0xbceec339	-0.029145824
154	0xbd6fdf77	-0.058562722
155	0x3cf679ed	0.030087436
156	0x3abbf344	0.0014339467
157	0xbc2a18d8	-0.0103819
158	0xbb911309	-0.004427318
159	0xbd1d1a16	-0.038354956
160	0xbddf00ac	-0.108888
161	0xbc4791e1	-0.012180776
162	0xbdd55e6f	-0.104184024
163	0xbd4b2afc	-0.04960154
164	0xbd83f2f2	-0.064428225
165	0x3b80345d	0.003912492
166	0x3b4d222d	0.0031300888
167	0xbd446e24	-0.0479566
168	0xbce2d7ea	-0.027690846
169	0xbd670161	-0.0563978
170	0xbc353752	-0.011060553
171	0xbc95197d	-0.01820063
172	0xbc1d5039	-0.009601646
173	0xbcf4978d	-0.029857421
174	0xbd742ffb	-0.05961607
175	0xbd448c6e	-0.047985487
176	0xbe0ab2f7	-0.13544832
177	0xbdb971f0	-0.09054935
178	0x3c271780	0.010198474
179	0xbd9ab12a	-0.075533226
180	0xbd41a901	-0.047280315
181	0xbcaa7bb6	-0.020810943
182	0xbd26411e	-0.040589444
183	0xbd3180e8	-0.043335825
184	0x3baad890	0.0052138045
185	0xbcb86e7a	-0.022513617
186	0xbd8acc08	-0.06777197
187	0x3b58c620	0.0033077076
188	0xbd313cd9	-0.04327092
189	0xbd35b6df	-0.044363853
190	0xbd02f029	-0.031967316
191	0xbd9188b2	-0.07106151
192	0xbda07838	-0.0783543
193	0xbc79f2d1	-0.015255646
194	0x3b149096	0.0022669188
195	0xbcd64449	-0.026155608
196	0xbd17ccf0	-0.037060678
197	0xbd5fed36	-0.05466958
198	0xbc9d3984	-0.019192465
199	0xbccd07a0	-0.02502805
200	0xbc99e01d	-0.018783623
201	0xbdaf05b6	-0.08546011
202	0xbdebca4c	-0.115131944
203	0xbd82a0db	-0.06378337
204	0xbdadc409	-0.08484656
205	0x3c6b889e	0.014375834
206	0xbd425714	-0.047446325
207	0xbd6b5813	-0.05745704
208	0xbc526ea4	-0.012843762
209	0xbcfcfebc	-0.030883186
210	0xbd4d7694	-0.050161913
211	0xbd1b1195	-0.037858564
212	0xbd9a9617	-0.075481586
213	0xbc69f562	-0.014279695
214	0xbd02de8b	-0.031950515
215	0x3c355351	0.011067227
216	0xbdb363c6	-0.08759265
217	0xbd664e69	-0.05622712
218	0xbc0fb212	-0.008770483
219	0xbda6d20c	-0.08145532
220	0xbce63787	-0.02810265
221	0x3c4cf8ef	0.012510522
222	0xbcb06a94	-0.021535195
223	0xbdca3ddb	-0.09875079
224	0xbcb5fc08	-0.022214904
225	0xbd67878a	-0.056525744
226	0xbd891057	-0.0669257
227	0xbcfacd1e	-0.030615386
228	0x3d4d5d4f	0.050137814
229	0xbd393287	-0.045214202
230	0xbd47652f	-0.04868048
231	0xbd707ad6	-0.058710895
232	0xbd899c0b	-0.06719216
233	0xbe03f196	-0.12885126
234	0xbd52f3d9	-0.051502082
235	0xbd180fdc	-0.0371245
236	0xbc6e5445	-0.014546459
237	0xbd879e6c	-0.066220134
238	0xbc18012d	-0.009277624
239	0xbdcac0e6	-0.09900074
240	0xbdef8885	-0.11695961
241	0x3c052db1	0.008128569
242	0xbdb0ce83	-0.08633139
243	0xbdd9db8f	-0.106375806
244	0xbdfe2074	-0.12408534
245	0xbd04822c	-0.032350704
246	0xbd426cc3	-0.047467005
247	0xbcd030fc	-0.025413983
248	0xbd5df817	-0.054191675
249	0x3c2f5eb5	0.010703732
250	0x3c823e7c	0.015898935
251	0xbdaef80e	-0.085434064
252	0xbd85c07b	-0.06530853
253	0x3c65dc23	0.014029535
254	0xbd43d6f7	-0.04781243
255	0xbdbe7039	-0.092987485

weight f4 [128, 256]
0	0x3a9d381a	0.0011994869
1	0xbd1ebb2a	-0.038752712
2	0xbd7cc0df	-0.061707374
3	0xbcd4262a	-0.025897104
4	0xbcf46a05	-0.02983571
5	0x3b83524f	0.0040076147
6	0x3d8c442f	0.068489425
7	0x3d9a922e	0.07547413
8	0xbcc20291	-0.023682864
9	0x3da2eb05	0.07954983
10	0xbc004f51	-0.0078314105
11	0xbcca04db	-0.024660518
12	0x3d971f13	0.07378974
13	0x3d19fc34	0.037594035
14	0xbc4b7583	-0.012418154
15	0x3cb10fa2	0.0216139
16	0xb9cd8039	-0.0003919618
17	0xbd25f7c9	-0.04051951
18	0xbd4d71d2	-0.050157376
19	0xbbe514f0	-0.0069910213
20	0xbd223652	-0.039602585
21	0xbd0b3077	-0.033981767
22	0x3d48217b	0.048860054
23	0x39ad430c	0.00033047085
24	0x3ca8bb34	0.020597078
25	0x3d292b33	0.041300964
26	0x3d20a0a1	0.039215688
27	0x3d885953	0.06657662
28	0x3d4f8f57	0.05067381
29	0xbd7000c1	-0.05859447
30	0x3b3017f8	0.0026869755
31	0xbbf94bf3	-0.007607931
32	0x3ce04768	0.0273778
33	0xbce99d5c	-0.028517418
34	0xbd658234	-0.056032375
35	0x3dad2830	0.08454931
36	0xbddbe6da	-0.10737391
37	0x3d9ed1e8	0.0775488
38	0xbd925d16	-0.07146661
39	0x3d2151f4	0.039384797
40	0xbda3d119	-0.079988666
41	0x3d7382e8	0.059451014
42	0xbe1c477f	-0.15261649
43	0x3d0825b6	0.03323909
44	0xbba03d1d	-0.004890098
45	0x3d8260ed	0.063661434
46	0x3c6aad91	0.014323608
47	0xbde04204	-0.109500915
48	0xbdb7472c	-0.08949122
49	0x3c445caa	0.011984983
50	0xbd55897e	-0.052133076
51	0x3ba3fbf8	0.0050044023
52	0xbd57ef4f	-0.052718457
53	0x3d1bf59f	0.03807604
54	0xbd50b54e	-0.050954156
55	0x3cd9d9fd	0.026593203
56	0x3b872f9d	0.004125549
57	0x3ce9b81d	0.028530175
58	0x3bb8c0d1	0.00563822
59	0xbc6005cb	-0.013673256
60	0x3d7578b1	0.059929553
61	0xbd809be3	-0.06279733
62	0xbd9d5033	-0.076813124
63	0x3d8d3e4d	0.068966486
64	0xb944a538	-0.00018753565
65	0x3d1d1a21	0.038354997
66	0x3d4c2f1e	0.049849622
67	0x3ca283d2	0.019838247
68	0xbd4ad656	-0.049520813
69	0x3d09536d	0.033526827
70	0x3d438be0	0.047740817
71	0xbd52dfeb	-0.051483076
72	0xbc1cc4c3	-0.009568396
73	0x3cbf9086	0.023384344
74	0xbd46234d	-0.04837351
75	0xbcb1d69b	-0.021708777
76	0x3d3644b5	0.044499118
77	0x3d0b875d	0.03406464
78	0xbd06d7a2	-0.032920487
79	0xbafae569	-0.0019141856
80	0xbd61f898	-0.055168718
81	0xbc3d4ecf	-0.011554434
82	0xb7a24b3e	-1.9346942e-05
83	0xbd248a31	-0.040170852
84	0xbca58a94	-0.02020768
85	0xbd9e4548	-0.07728058
86	0x3da61c3e	0.081108555
87	0xbc847be5	-0.016172359
88	0x3daaf5c7	0.083476596
89	0xbc70b998	-0.0146926865
90	0x3c32e01e	0.0109176915
91	0x3cedc2fd	0.029023642
92	0xbc3aa6d3	-0.011392313
93	0xbcaf1387	-0.021371616
94	0xbc1ee887	-0.0096989935
95	0x3d84fd47	0.06493621
96	0x3c9c4ad2	0.019078646
97	0xbdc75364	-0.097327024
98	0xbda0b17c	-0.078463525
99	0xbd004161	-0.03131235
100	0x39996f13	0.0002926519
101	0xbd553783	-0.052054893
102	0x3d55b80f	0.052177485
103	0x3df192fe	0.11795615
104	0xbd587ac6	-0.05285146
105	0xbd4d5f92	-0.05013997
106	0xbd8cd152	-0.06875862
107	0x3dab8592	0.08375086
108	0x3dc6ba0e	0.09703456
109	0xbd8fe9f1	-0.07027043
110	0xbd38d47f	-0.045124527
111	0x3d9475e3	0.072490476
112	0xbd9762db	-0.07391902
113	0x3c02ef15	0.007991572
114	0xbd1d070f	-0.03833681
115	0x3db658e7	0.089036755
116	0x3d8d86ed	0.06910501
117	0x3d357ad7	0.044306602
118	0xbcba7a23	-0.022763317
119	0xbd0d0a8b	-0.034433883
120	0xbd8f2b0f	-0.06990635
121	0x3d4f42a9	0.05060068
122	0xbc9ae598	-0.018908307
123	0x3d4ca585	0.04996254
124	0xbb54fe6c	-0.003250028
125	0xbd571016	-0.052505575
126	0x3cb7ea8e	0.022450712
127	0x3ca55c62	0.020185653
128	0x3d190393	0.037356924
129	0x3cac5fd5	0.02104179
130	0x3dad3c0c	0.08458719
131	0xbd8505c7	-0.064952426
132	0xbd3e7aa7	-0.04650369
133	0xbc1a853d	-0.009431181
134	0x3d395649	0.045248304
135	0x3cd4672b	0.0259281
136	0xbd00a44f	-0.031406697
137	0xbd342702	-0.043982513
138	0x3ba98d44	0.005174311
139	0x3d916e07	0.07101064
140	0x3cc494a4	0.023996659
141	0x3d7892bd	0.060686816
142	0x3ca11dd3	0.019667542
143	0xbdb3efdb	-0.08785983
144	0x3d1267da	0.03574357
145	0xbd0d363a	-0.034475543
146	0x3c833540	0.016016603
147	0x3d81b1c5	0.06332735
148	0xbc29a174	-0.010353435
149	0x3cf1a450	0.029497296
150	0x3d6cdc1d	0.057827104
151	0x3aa2ce9f	0.0012421197
152	0x3c5b86ef	0.01339887
153	0x3c80d81e	0.015728053
154	0xbada14d2	-0.0016638285
155	0x3d5042ef	0.050845083
156	0x3c4e3c14	0.012587566
157	0x3c6adbc1	0.01433462
158	0x3cd753dc	0.026285104
159	0x3da2f8f8	0.07957643
160	0x3d2ac48d	0.04169135
161	0x3db2f7e0	0.08738685
162	0xbd04b6a5	-0.032400746
163	0x3c786618	0.01516106
164	0xbccd2134	-0.025040247
165	0xbc0cd39c	-0.0085953735
166	0xbd1237e9	-0.03569785
167	0x3d171c06	0.03689196
168	0xbc872faa	-0.01650222
169	0x3d916cc3	0.07100823
170	0x3c978324	0.01849515
171	0x3d848ed2	0.06472553
172	0xbd4de8cc	-0.05027084
173	0xbdc95cec	-0.098321766
174	0x3d36dfa5	0.044646878
175	0x3de4d48b	0.11173352
176	0xbd53938e	-0.05165439
177	0x3cde3684	0.027125604
178	0xbd39fe45	-0.045408506
179	0x3c9de5e4	0.01927466
180	0x3c857b5e	0.016294178
181	0x3d4055a6	0.04695668
182	0xbd176acf	-0.036967095
183	0xbd0e7f2e	-0.034789257
184	0xbc482206	-0.012215143
185	0x3d61d2b1	0.05513257
186	0xbb2f12f5	-0.002671418
187	0x3c9cb125	0.019127438
188	0xbc1328d3	-0.008981901
189	0xbc7e14d8	-0.015507899
190	0xbda2c717	-0.079481296
191	0xbd2ceebd	-0.042219866
192	0xbc8178e4	-0.015804715
193	0xbcbe3312	-0.023217712
194	0x3c976657	0.018481417
195	0xbcf8136c	-0.030282699
196	0x3cb8211a	0.022476722
197	0x3ccdaebe	0.025107738
198	0x3c9daefc	0.019248478
199	0x3c7e75ae	0.015530987
200	0xbcfa1329	-0.030526714
201	0xbcb92aca	-0.022603411
202	0xbd373b2a	-0.044734158
203	0xbd9d6035	-0.07684366
204	0x3d196399	0.0374485
205	0x3d50321c	0.050829038
206	0xbd83c4a5	-0.06433991
207	0xbcc56998	-0.024098203
208	0x3d1a33a1	0.037646893
209	0xbd85c935	-0.06532518
210	0x3cabb760	0.020961463
211	0x3db0ddd3	0.086360596
212	0xbd81e942	-0.063433185
213	0xbd9eadb8	-0.07747978
214	0x3d331922	0.04372514
215	0x3c4677aa	0.012113491
216	0xbd1b8940	-0.03797269
217	0x3cbc9469	0.023019986
218	0x3d28d48e	0.041218333
219	0x3d6663a6	0.056247376
220	0xbbb38f7b	-0.0054797507
221	0xbccd4297	-0.025056167
222	0x3b5b92c6	0.0033504232
223	0x3d0f34b2	0.034962364
224	0xbd937d0e	-0.07201587
225	0xbd635905	-0.055504818
226	0xbd34ec09	-0.044170413
227	0xbc9a6974	-0.018849112
228	0x3d087c1d	0.03332149
229	0x3c08d30e	0.008351101
230	0x3c7af1e6	0.015316462
231	0xbd823c74	-0.06359187
232	0x3c1f3879	0.009718054
233	0x3d18c24d	0.037294675
234	0x3a8c8ca3	0.0010723065
235	0x3d61f4b3	0.055165004
236	0xbdb932f3	-0.09042921
237	0x3d362272	0.044466443
238	0x3d13afe3	0.03605641
239	0xbcee6341	-0.029100062
240	0xbdbb911f	-0.09158539
241	0x3c9e3d4d	0.01931634
242	0xbd0b234d	-0.033969212
243	0xbd21a69e	-0.03946554
244	0x3c9eca7f	0.019383667
245	0xbabd6407	-0.0014449366
246	0xbcefd1d9	-0.029274868
247	0xbd151f20	-0.036406636
248	0xbceeee2c	-0.029166304
249	0x3cf4765d	0.029841596
250	0xbd1bf0b0	-0.038071334
251	0x3d18b1a2	0.03727878
252	0xbd4bfa21	-0.04979909
253	0x3e0caf54	0.13738757
254	0xbe2746ce	-0.16335604
255	0x3d611c42	0.05495859

bias f4 [128]
0	0x3ca1d778	0.019756064
1	0xbb63f05c	-0.0034780717
2	0xb91b6b65	-0.0001482196
3	0xbd146674	-0.03623052
4	0xbd55c93d	-0.05219387
5	0x3c2d4d9d	0.0105775865
6	0xbd55ae73	-0.05216832
7	0xbda0f2a0	-0.07858777
8	0xbcb679d5	-0.02227489
9	0xbd2f6b6c	-0.042827055
10	0xbdadd379	-0.08487601
11	0xbcbb8b76	-0.022893649
12	0x3d51a104	0.051178947
13	0xbdb9028b	-0.09033688
14	0xbc9b4bd8	-0.018957064
15	0xbcf2e998	-0.029652402
16	0xbcacf07b	-0.021110764
17	0xbc3bb9e5	-0.011457895
18	0x3bf5922d	0.007494232
19	0x3c60d57f	0.013722776
20	0xbd6c9277	-0.057756867
21	0xbdb7a74a	-0.08967455
22	0x3c35c70f	0.011094823
23	0xbd3e7dec	-0.046506807
24	0x3ceb0adb	0.0286917
25	0xbd8525f2	-0.06501378
26	0x3b5a7dca	0.0033339136
27	0x3c86a2e8	0.016435102
28	0xbd673c5c	-0.056454048
29	0xbde7773c	-0.11302039
30	0xbcb6c17a	-0.022309054
31	0xbce0d0e5	-0.027443359
32	0xbd384dd2	-0.04499609
33	0x3c91d2a4	0.017800637
34	0x3d0f2a58	0.03495249
35	0xbd1139eb	-0.035455626
36	0xbcda9f0f	-0.026687173
37	0xbc4836d7	-0.012220106
38	0xbd1bdbb3	-0.03805132
39	0x3d0a420a	0.033754386
40	0xbce81883	-0.028332
41	0xbdb06b7b	-0.0861425
42	0x3c88c897	0.016697211
43	0x3c12dcd5	0.008963783
44	0xbd3e7740	-0.046500444
45	0x3c373d1d	0.011184004
46	0x3d39ad7f	0.045331474
47	0xbcb55d32	-0.022139166
48	0xbd0a9546	-0.033833764
49	0xbd289dce	-0.04116612
50	0xbd8eb324	-0.06967762
51	0x3d2b1a67	0.041773226
52	0x3cdf8b78	0.027288184
53	0xbc2bdaeb	-0.010489206
54	0xbdbe9120	-0.09305024
55	0xbd9c9de0	-0.076473
56	0xbcf8e93c	-0.030384652
57	0xbdb3977e	-0.08769129
58	0x3d24d7c9	0.04024485
59	0x3adbfd3f	0.0016783847
60	0xbcc42b6c	-0.023946486
61	0x3b598c9c	0.0033195382
62	0x3bb6d1b9	0.0055792
63	0xbc3560de	-0.011070458
64	0xbdb418e3	-0.08793809
65	0x3cf78f75	0.030219773
66	0xbdc7aa48	-0.097492754
67	0xbcb2da38	-0.02183257
68	0x3a81c360	0.0009900145
69	0x3cf85ad2	0.030316744
70	0x3cad80eb	0.021179637
71	0xbdae5942	-0.08513118
72	0xbc35f97b	-0.011106844
73	0x3c823c22	0.015897814
74	0x3cf2d0a7	0.029640509
75	0x3c7674d1	0.0150425
76	0x3cfd881c	0.030948691
77	0x3a53e949	0.00080837734
78	0xbd17799b	-0.036981206
79	0x3b80a0da	0.003925425
80	0xbdb9731b	-0.09055158
81	0xbb9083b9	-0.004410234
82	0xbd40faf1	-0.047114316
83	0x3cc44d6d	0.0239627
84	0xbda778b4	-0.08177319
85	0xbd714ebf	-0.05891299
86	0x3c689cce	0.014197541
87	0x3c8a70b0	0.016899437
88	0xbab22614	-0.001359167
89	0xbdceed6c	-0.101038784
90	0xbd82779e	-0.063704714
91	0xbd2863cc	-0.0411108
92	0xbdd964dd	-0.10614941
93	0xbd92d51d	-0.071695544
94	0xbb8eb044	-0.0043545086
95	0xbd29e8f1	-0.041481916
96	0xbcc001cf	-0.023438362
97	0xbdc80a42	-0.097675815
98	0xbd120484	-0.035648838
99	0xbc04a260	-0.008095354
100	0xbd8c21ef	-0.0684241
101	0xbd0e90f4	-0.034806207
102	0xbd9f0eb0	-0.07766473
103	0xbd5bf774	-0.053702787
104	0x3cdde7d6	0.027088087
105	0x3ccf2ee5	0.025290916
106	0x3d32cd0d	0.043652583
107	0xbc0fac60	-0.008769125
108	0xbd87e3eb	-0.06635269
109	0x3cd4994b	0.025952002
110	0xbccf1c7d	-0.025282139
111	0x3c1d88da	0.0096151475
112	0x3ce19300	0.027535915
113	0xbd05ebc0	-0.03269553
114	0xbce00861	-0.027347745
115	0xbd2a3f12	-0.041564055
116	0xbd83ec63	-0.064415716
117	0xbd1d128b	-0.038347762
118	0xbc2d8759	-0.010591351
119	0xbcd32f6c	-0.025779448
120	0xbdde85be	-0.10865353
121	0xbd331ca0	-0.04372847
122	0x3d21c1e5	0.039491553
123	0xbdcba6af	-0.09943902
124	0xbd28c331	-0.041201774
125	0x3c6a301f	0.0142936995
126	0xbd616e7c	-0.055037007
127	0x3b93a12c	0.004505297

weight f4 [12, 128]
0	0x3c970b9a	0.01843815
1	0x3cd0ec66	0.025503349
2	0x3cd6fee5	0.02624459
3	0x3d1f63e4	0.038913622
4	0xbd7e628a	-0.062105693
5	0x3cb1d5b3	0.021708345
6	0xbd191422	-0.037372716
7	0x3c760bc0	0.01501745
8	0x3d0a860f	0.033819254
9	0xbd0b3a4e	-0.03399115
10	0x3c1d8a1b	0.009615446
11	0x3c4bbd57	0.012435279
12	0x3d59d82b	0.05318467
13	0x3d832c53	0.064049385
14	0x3d0cc804	0.034370437
15	0x3c78e142	0.015190424
16	0x3d0ba729	0.034094963
17	0xbb6be811	-0.0035996477
18	0x3bc5dd01	0.0060383086
19	0xbd6f915e	-0.058488242
20	0x3d5a1baa	0.05324904
21	0xbd091736	-0.0334694
22	0x3c751c38	0.014960341
23	0x3c2b3fa0	0.010452181
24	0xbcc025b7	-0.023455484
25	0xbc80aac3	-0.015706426
26	0xbc2b8ee9	-0.010471084
27	0x3d34fac8	0.044184476
28	0xbc82a2fe	-0.015946861
29	0x3da7fb74	0.08202258
30	0x3d4ef1cf	0.050523575
31	0xbd1e2552	-0.03860981
32	0xbccce10c	-0.025009654
33	0x3bb63089	0.005559985
34	0x3c809dd9	0.015700268
35	0x3c15029a	0.009094859
36	0xbc4778eb	-0.012174825
37	0x3d6e938b	0.058246177
38	0xbbf35c63	-0.007426785
39	0xbd05306c	-0.03251688
40	0xbcd02825	-0.025409767
41	0x3ce65f44	0.028121598
42	0x3d007ee9	0.03137103
43	0x3c692c42	0.014231743
44	0xbc442ad3	-0.011973101
45	0x3d321f26	0.043486737
46	0xbc311d94	-0.010810275
47	0x3a74b5dc	0.00093349605
48	0xbd4fc659	-0.05072627
49	0xbc28909f	-0.010288387
50	0x3c8c0430	0.01709184
51	0xbb41265d	-0.002947233
52	0xbd01a396	-0.03165015
53	0x3c432355	0.011910279
54	0x3da63d2e	0.08117138
55	0x3c8632da	0.01638167
56	0x3cd1156c	0.02552291
57	0xba81208b	-0.0009851618
58	0xbd11ce5d	-0.035597194
59	0xbaa2f54f	-0.0012432727
60	0x3d237c5e	0.039913528
61	0x3c44acec	0.012004118
62	0xbd89c742	-0.067274585
63	0x3bc9f62f	0.0061633806
64	0xbd137c31	-0.03600711
65	0xbb7aef15	-0.0038289477
66	0x3bbf66cc	0.0058411118
67	0xbcc1400e	-0.023590114
68	0xbd17118b	-0.036881965
69	0x3ca3d40f	0.019998578
70	0xbc28977d	-0.010290024
71	0xba5a0f17	-0.00083182886
72	0xbca5dc4e	-0.020246651
73	0x3ce9313d	0.028465861
74	0x3cf365d0	0.029711634
75	0x3b9a042f	0.0047002058
76	0x3d031853	0.03200562
77	0x3c0e8f8f	0.008701219
78	0xbd420ae7	-0.04737368
79	0x3c46a0d1	0.012123303
80	0x3d175373	0.036944818
81	0x3d51b83b	0.051201086
82	0xba4051be	-0.0007336399
83	0xbc1ae372	-0.009453641
84	0x3d40f726	0.0471107
85	0xbc265164	-0.010151241
86	0xbc113828	-0.008863486
87	0xbc8a13b6	-0.016855102
88	0xbbc7e5a8	-0.006100375
89	0x3d4155b0	0.04720086
90	0x3c6b8efa	0.01437735
91	0x3d0bd454	0.03413804
92	0x3c063241	0.008190692
93	0xbd82ebc9	-0.06392629
94	0xbd47013d	-0.048585165
95	0x3d0ebc28	0.03484741
96	0xbc86ee5f	-0.016471086
97	0xbd6ff026	-0.058578633
98	0xbcdea354	-0.02717749
99	0xbc94013e	-0.018066999
100	0x3cca33a3	0.024682825
101	0xbd061f03	-0.03274442
102	0xbb75c734	-0.0037502768
103	0xbcc351d6	-0.023842733
104	0x3c4f7016	0.012661001
105	0xbd1351e2	-0.03596676
106	0xbc9223bf	-0.01783931
107	0x3d6aef5c	0.057357177
108	0x3b942f85	0.0045222663
109	0x3bfce8c3	0.007718177
110	0x3d22110b	0.039567035
111	0xbd3f5042	-0.0467074
112	0xbcd1522d	-0.02555188
113	0xbd25aad3	-0.040446114
114	0xbd1bb7d4	-0.03801711
115	0x3d655831	0.05599231
116	0xbd198df0	-0.037488878
117	0x3c86931a	0.016427565
118	0x3d49a5ab	0.04923026
119	0xbcbb4674	-0.022860743
120	0xbdc7013d	-0.09717033
121	0xbc798590	-0.015229598
122	0x3d183cfb	0.03716753
123	0x3ba298e0	0.004962072
124	0xbbfe063d	-0.0077522085
125	0xbc220f16	-0.009891292
126	0xbb5ae2dc	-0.003339938
127	0x3c4b0e6b	0.012393574
128	0x3cb1dd50	0.021711975
129	0xbc32c677	-0.0109115755
130	0x3c4abdee	0.012374384
131	0xbc3b0ed5	-0.01141711
132	0x3c5d854f	0.013520553
133	0x3cac2d1d	0.021017605
134	0xbd762932	-0.06009788
135	0xbd2c1582	-0.0420127
136	0xbb8d177f	-0.0043057795
137	0x3ccdb0f0	0.025108784
138	0x3dae18ad	0.085008
139	0xbcbf6af8	-0.023366436
140	0xbbf0466f	-0.007332615
141	0xbda8b34c	-0.08237323
142	0x3cf4982e	0.029857721
143	0xbdb92754	-0.09040704
144	0xbc707042	-0.014675202
145	0xbb3b760c	-0.0028604297
146	0xbcb341fa	-0.021882046
147	0x3c558dfd	0.013034341
148	0xbcfbe1ad	-0.030747259
149	0x3cef09b2	0.029179428
150	0xbc727b8f	-0.0147999665
151	0xbcb4f1f3	-0.022088027
152	0xbb1a85a8	-0.00235782
153	0xbcea48a9	-0.0285991
154	0xbc9cb5f1	-0.019129725
155	0x3b1079d4	0.0022045271
156	0x3d254ac6	0.040354513
157	0x3bea1f64	0.0071448553
158	0x3badefd9	0.005308133
159	0xbc778ed0	-0.015109733
160	0xbcfb1576	-0.030649882
161	0x3d20a738	0.039221972
162	0x3b9fd073	0.004877144
163	0x3c7014de	0.014653413
164	0xbcbc4a3d	-0.022984618
165	0x3c54fa3f	0.012999116
166	0x3cbdb11b	0.02315574
167	0xbdaa2b2c	-0.08309016
168	0x3b254568	0.0025218371
169	0x3c56f7d1	0.0131206075
170	0xbcd728cf	-0.026264576
171	0x3d47be55	0.0487655
172	0x3d0754d5	0.033039887
173	0xbcd3a56c	-0.025835715
174	0xbcd064a3	-0.025438612
175	0xba88a1a2	-0.0010424147
176	0xbca00742	-0.01953471
177	0x3cb03352	0.021508846
178	0xbce0f85c	-0.027462177
179	0x3d4283da	0.047489025
180	0xbc7ddaaf	-0.015494033
181	0x3c901400	0.017587662
182	0x3d2f91bd	0.042863596
183	0xbc7fec17	-0.015620253
184	0x3c3eb696	0.011640212
185	0x3c31a587	0.010842687
186	0x3c39244e	0.01130016
187	0xbd1cbfd2	-0.03826887
188	0x3d2e3a3d	0.04253601
189	0x3cd5c711	0.026095899
190	0x3c80c2c6	0.015717875
191	0x3d12b0a4	0.03581299
192	0xbd69c1ae	-0.057069473
193	0x3d17112e	0.03688162
194	0xbd8a67fb	-0.06758114
195	0x3c1a9aa0	0.00943628
196	0x3c1fb5d4	0.009747941
197	0xba8a8a7f	-0.001056984
198	0x3cc7e7f5	0.024402598
199	0xbd56f8ab	-0.052483242
200	0x3d9c3b23	0.07628467
201	0xbc7945c9	-0.015214392
202	0x3d87e8fa	0.06636234
203	0x3baf4bfa	0.0053496333
204	0xbd52b60b	-0.05144314
205	0xbbd3993b	-0.0064574755
206	0x3c961261	0.01831931
207	0x3be1b91d	0.0068885223
208	0xbca98b89	-0.020696418
209	0x3c412e34	0.011790801
210	0xbd1bfe12	-0.038084097
211	0x3abeec96	0.0014566358
212	0x3bf77e37	0.007552888
213	0xbb4ce3f0	-0.003126379
214	0x3c836940	0.016041398
215	0xbd0e3b06	-0.034724258
216	0x3c614574	0.013749469
217	0xbc714a25	-0.01472715
218	0xbc911b16	-0.01771311
219	0xbc0ca2ab	-0.008583705
220	0xbc2e8a23	-0.010653052
221	0x3d68ce90	0.05683762
222	0x3d145f37	0.036223616
223	0xbd3b162d	-0.045675445
224	0xbcd7ba85	-0.026334057
225	0xba910ebf	-0.0011067017
226	0x3c192801	0.009347917
227	0x3cb05b8a	0.021528024
228	0x3d0ab430	0.033863246
229	0xbcd99ae8	-0.026563123
230	0x3c9bf917	0.019039674
231	0xbc2b7580	-0.010465026
232	0x3ce21058	0.027595684
233	0x3d363f9a	0.04449425
234	0x3d2f2ab3	0.04276533
235	0x3cf80508	0.030275837
236	0xba4c4461	-0.00077921717
237	0xbc98b542	-0.018641118
238	0xbc85eb75	-0.016347626
239	0x3d969503	0.073526405
240	0x3c7c4e34	0.015399504
241	0x3baaca91	0.005212136
242	0xbcfddb6a	-0.030988414
243	0xbd80f988	-0.06297594
244	0x3c698ae2	0.014254304
245	0xbbab0581	-0.005219162
246	0x3ccc3770	0.024928778
247	0x3d8981c4	0.06714204
248	0xbc018d48	-0.007907219
249	0xbd9accde	-0.075586066
250	0x3c0e2a29	0.008677044
251	0xbd3376a9	-0.043814335
252	0xbcad63e8	-0.021165803
253	0x3d48da47	0.04903629
254	0x3c4cc50c	0.0124981515
255	0xbcfd4d72	-0.030920718

bias f4 [12]
0	0x3d95b7ff	0.07310485
1	0x3d66177a	0.056174733
2	0xbdbee311	-0.09320653
3	0x3d311d7b	0.043241005
4	0x3d2c73cc	0.04210262
5	0x3bdb5501	0.006693483
6	0xbc0a520d	-0.008442414
7	0xbc534572	-0.012894975
8	0xbda7d8cf	-0.0819565
9	0xbdc6c8ac	-0.09706244
10	0x3d1d5e8f	0.038420256
11	0xbc800fec	-0.015632592
