policies/policy_mohamad.pt (torch, 769312 bytes, 8 tensors)

weight f4 [512, 45]
000000 eb 8f 09 bd 96 3a 08 3c b6 08 ea 3c d7 ae e5 bd
       -0.033584516 0.008314749 0.028568607 -0.11214989
000010 68 98 05 be dc cc 08 3e 86 2a 3a bd cb d6 83 bc
       -0.1304642 0.13359398 -0.04545071 -0.016093632
000020 93 94 33 be 13 cd 34 3e 72 48 5d 3e d5 2b 8f 3e
       -0.17537145 0.17656355 0.21609667 0.2796313
000030 a7 22 be 3d fd 12 7c 3e 99 e8 79 bd 55 54 07 be
       0.09283953 0.24616618 -0.061012838 -0.13215764
000040 39 e0 1e 3c 02 59 08 bd 44 f2 f7 be 54 62 19 be
       0.009697014 -0.03328801 -0.48427022 -0.14978915
000050 e2 ae 34 bd 49 fe 25 bd 36 2d 11 3d 7b e7 c9 bc
       -0.044112094 -0.04052571 0.035443507 -0.024646511
000060 dd 82 fc 3c c8 c2 35 bd 25 32 d0 3c 28 a1 32 3d
       0.03082412 -0.04437521 0.025414536 0.04361072
000070 7c 89 76 3b 00 c6 8a 3c 00 d1 e3 3b 0f cb fc bc
       0.0037618568 0.016940117 0.006952405 -0.030858545
000080 41 64 fb 3c 98 90 3a 3e 0b b6 ae bc 46 a1 a9 3d
       0.030687453 0.1821922 -0.02132704 0.082827136
000090 fa b2 35 3e 43 41 a3 3c 5a 5e 5a 3d 03 fe 3a bd
       0.17744055 0.01992858 0.053312637 -0.0456524
0000a0 21 54 ff 3c 5b 75 54 bd f3 1e 38 3e 70 9b db 3c
       0.031168045 -0.05186973 0.17980556 0.026807517
0000b0 39 0c 97 3d e1 54 e3 3c 61 9c 07 3c 17 d3 64 be
       0.07375378 0.027750434 0.00827703 -0.2234615
0000c0 fc 3b 0b be c7 92 19 bd 88 8e 1f be 17 e9 b8 bd
       -0.13597101 -0.037493493 -0.15581715 -0.09028833
0000d0 9e 8f 2a 3e 7f fd b4 3d de c0 06 be d1 99 a2 3e
       0.16656348 0.08837413 -0.1315951 0.31757978
0000e0 c8 97 c5 bc d4 1c 5b be 07 cd 22 be 99 1e 8f be
       -0.024120227 -0.21397716 -0.15898524 -0.27953032
0000f0 f5 67 f1 be f3 c0 3f 3e 90 6e d3 3d 7d 09 14 bd
       -0.47149625 0.18725948 0.103238225 -0.03614186
000100 3f 02 06 be d1 ea 47 3e e0 01 a2 bd c6 be 98 3d
       -0.13086794 0.19523169 -0.07910514 0.07458262
000110 d6 50 3e 3c c8 62 02 bc 0a 90 be bb d4 91 40 3d
       0.0116159525 -0.007958122 -0.0058155106 0.047014073
000120 ca 39 a5 bd 7f d9 00 3d eb cf 1a bc b5 4c 32 bd
       -0.08067663 0.03145742 -0.009448986 -0.043530185
000130 d5 93 f4 3b a9 fe 59 bc 34 7c 4f 3e 75 e2 7c bc
       0.007463912 -0.013305345 0.20262223 -0.015434851
000140 35 88 be bc 21 5f ef bd 43 66 f6 bd ff f4 e6 3d
       -0.023258308 -0.11688066 -0.120312236 0.11277198
000150 cc ed 09 be 5d b9 f7 3d 13 62 f7 3d 69 a4 b6 bd
       -0.13469619 0.12095902 0.12079253 -0.089180775
000160 a6 ff 24 be 1e 81 1f 3e 62 2b 5c 3c b8 48 36 3c
       -0.16113147 0.15576598 0.013438078 0.011125736
000170 68 1f 85 be 7b 17 1d bf 3f 02 68 be 67 e8 d9 3d
       -0.26000524 -0.61363953 -0.22657107 0.1064003
000180 58 19 06 3c d8 79 81 be 28 37 d4 3e ef c8 db be
       0.008184753 -0.25288272 0.4144833 -0.42926738
000190 65 55 27 be fd 82 27 3d 36 6f 8d bc cd 05 22 bd
       -0.16341169 0.040896405 -0.017264944 -0.039556313
0001a0 04 8e ff 3d 40 fd f4 bd 66 d3 99 3e c2 9f 6e bd
       0.12478259 -0.11962366 0.30044097 -0.058257826
0001b0 7d a5 58 3e ce b0 41 3e 52 29 33 3d 41 35 03 3d
       0.21156879 0.18915102 0.043740578 0.03203321
0001c0 65 17 9d bc a2 53 9c 3d 43 b1 0e be 07 b3 3e bd
       -0.019176194 0.07633139 -0.13934807 -0.046557453
0001d0 c5 89 59 3d 7f 7a e6 3a 3f ab c4 bd 8e e6 9d 3c
       0.053109903 0.0017584114 -0.09602975 0.019274976
0001e0 f4 8e 5c 3d 93 3d 82 bb 45 4d 74 bd 3d 43 f5 bd
       0.05384727 -0.0039746254 -0.059644002 -0.11975715
0001f0 ec 04 83 3c 4b 60 8d ba 0f 37 30 be 94 f5 46 3e
       0.015993558 -0.0010786144 -0.17208503 0.19429618
000200 7d 64 ed bd fb 26 fd 3d 8d 20 f1 3d ef 80 ab 3d
       -0.11591432 0.123609506 0.11773787 0.083742015
000210 85 fa d5 bb f9 84 ee 3d bd 46 68 3d 25 f9 da bd
       -0.0065301084 0.11646456 0.056708086 -0.10692052
000220 e7 74 0e be 24 cd 57 be bd 38 e8 bd 6a b1 81 be
       -0.13911782 -0.21074349 -0.11338947 -0.2533067
000230 9e 8c 0c be b9 f7 51 3e d7 17 e8 3e df 43 5f 3e
       -0.13725516 0.20504655 0.45330688 0.21803235
000240 2d 1f fe bd f5 03 ee 3d e0 80 0c 3d 01 9c 83 3d
       -0.1240829 0.116218485 0.034302592 0.0642624
000250 9d 04 86 3d d5 82 a6 3e 46 52 34 3e 02 13 42 3e
       0.06543849 0.32521692 0.1760951 0.18952563
000260 29 ac 7f be ea b4 7c 3c d4 ac 04 3e a3 08 c0 3d
       -0.24968018 0.015423993 0.12956554 0.09376647
000270 bf 02 06 3d 3d 5b 1b bd 83 b4 cc 3c 0a 48 db ba
       0.032717463 -0.03792881 0.024988418 -0.0016729843
000280 36 90 7d bd 16 27 e3 3d b9 70 8e 3d 70 f9 7a 3b
       -0.06190511 0.110914394 0.06955094 0.003829565
000290 54 4c 14 bd 25 ad 25 3d ce ca 80 3d c5 7d a5 3d
       -0.036205605 0.040448327 0.06288682 0.08080629
0002a0 4a 50 cb 3d 62 7e f7 3c 48 66 31 be fc d0 70 3d
       0.09927423 0.030211631 -0.17324173 0.058793053
0002b0 c8 f4 55 bc 54 ae 2d 3e a5 13 92 3c 71 f2 02 3e
       -0.013058849 0.16961032 0.017831633 0.12787797
0002c0 59 ec 24 bc 09 c8 59 bd b3 59 a6 bd d1 f2 a9 3d
       -0.010066115 -0.053169284 -0.081225775 0.08298267
0002d0 6e 89 f9 3b 94 c4 b1 3d 2e 7e 34 bc 57 72 1b 3e
       0.00761526 0.086800724 -0.011016412 0.15180336
0002e0 17 7a 44 be a7 53 9c 3d c1 17 4b 3e db 03 f1 3e
       -0.19187199 0.07633143 0.1983328 0.47073254
0002f0 3c 65 45 3d f2 84 32 3e cc 2a 19 3e 00 e7 38 bd
       0.048192248 0.17433527 0.14957732 -0.045142174
000300 20 64 2e 3e c8 c9 45 3d 3a 31 b1 be a5 b7 da be
       0.17030382 0.048288137 -0.3460787 -0.42718235
000310 4d f8 1c 3e 97 5a 48 3e 01 a8 75 3e de 2f 01 bd
       0.15329094 0.19565807 0.2398987 -0.03153979
000320 68 42 26 3d ef be 86 3c 06 0b 08 3d 81 76 74 3d
       0.040590674 0.016448466 0.033213638 0.059683327
000330 25 e0 c1 bd 6f 79 80 bc 44 8f 76 bd a7 72 2a bd
       -0.0946658 -0.015682904 -0.060195222 -0.041613247
000340 7e 09 0e 3c 42 d1 e3 bc 37 da a2 bd aa a0 a6 bd
       0.008669255 -0.027809743 -0.079517774 -0.08136113
000350 f9 ca 19 3d 99 c6 3d bd e8 f9 43 3d b7 fb 4f bd
       0.037547085 -0.046331976 0.04784575 -0.050777163
000360 98 6f a3 3d 21 a0 8e bd ad ed f8 3c 3b a1 19 be
       0.07980269 -0.06964136 0.03038677 -0.15002911
000370 59 9b bf 3d cb 29 bc bd ab bc 94 3d 5f 3f 0f be
       0.09355802 -0.09187659 0.07262548 -0.13989018
000380 19 cf 1e 3d 70 4d 03 3e 55 10 aa 3d 40 c5 22 bd
       0.038771722 0.12822509 0.08303896 -0.039738894
000390 b6 d4 08 bd 2b 5c b1 3e 25 eb 11 3e 96 2b 03 3e
       -0.033405982 0.3464063 0.14249857 0.12809595
0003a0 49 d6 6e 3e 4d be 1b 3e 02 82 16 be 89 55 9a 3d
       0.23323931 0.15209313 -0.14698032 0.07535846
0003b0 27 91 50 3e 5b 30 9d be 47 5e f0 3e 69 9f a4 3d
       0.20367871 -0.30700955 0.46946928 0.080382176
0003c0 ae 26 91 be d6 3c b6 bb 7a fd d6 bd b3 1d 67 bd
       -0.28349823 -0.0055614514 -0.104975656 -0.056424808
0003d0 00 d6 53 3d 38 52 82 be ee 61 07 bb a1 1c 7d 3d
       0.05171776 -0.25453353 -0.0020657736 0.06179488
0003e0 f6 43 4a 3d 0d 32 6a bd 67 82 3b 3d 0a 65 a1 3d
       0.04938122 -0.05717664 0.04577866 0.078806
0003f0 1c 50 8a 3b df ce b3 bb 1d 59 5c bc d4 f4 75 3d
       0.0042209756 -0.0054873074 -0.013448981 0.06004794

bias f4 [512]
000000 19 c2 18 be e1 fe 83 3d 19 97 ff 3d 44 e3 a3 3c
       -0.14917792 0.06445099 0.124799915 0.02000583
000010 a0 91 85 be 90 45 4b be e8 59 81 3d 2a da 1d 3e
       -0.26087666 -0.19850755 0.063159764 0.15415254
000020 0e 6a 2d be b3 6c c4 bd 37 09 1f 3e 4b 64 21 be
       -0.16934988 -0.09591045 0.15530859 -0.15760915
000030 46 43 25 be 69 e2 63 be 37 9d 45 bd 76 d5 4a 3d
       -0.16138944 -0.22254337 -0.048245635 0.04951998
000040 31 7c c7 bd cf 7d 1b be 9a 8f f5 3d ce 23 59 3d
       -0.097404845 -0.15184711 0.119902804 0.05301266
000050 de c0 93 bc 5b 2d 41 be 8a 62 0f bd b6 82 12 3e
       -0.018036302 -0.18864958 -0.035006084 0.14307675
000060 ae e3 00 be 88 f9 43 bd cf 36 60 bd 92 83 19 be
       -0.12586853 -0.047845393 -0.05473977 -0.14991596
000070 7f 66 58 be 24 91 a8 3c c4 be 8e bc 1c 88 f1 bd
       -0.21132849 0.020577021 -0.017424949 -0.11793539
000080 ea 9e 7d ba b1 94 39 3d 92 c6 09 3e f7 1b 13 be
       -0.0009674864 0.04530782 0.13454655 -0.14366136
000090 32 e4 3b 3e cb 9b d6 bd d5 4b 38 3d cc 2f da 3d
       0.18348768 -0.10478934 0.044994194 0.10653648
0000a0 25 50 17 bd 68 7b c9 bd e7 78 1f be 07 77 e2 bd
       -0.036941666 -0.09837991 -0.15573464 -0.11057859
0000b0 6d f0 0e 3e fa 3c 8a 3d 69 f4 4d be 4f 76 3d be
       0.13958903 0.067499116 -0.20112766 -0.18502162
0000c0 8b 70 f5 3d d2 89 f2 3d 1b c4 23 be 5f 50 a7 bc
       0.119843565 0.118426934 -0.15992777 -0.020424066
0000d0 58 c4 01 be 11 b7 d2 3c 64 7a 64 bd 8c fb 05 3e
       -0.12672555 0.025722058 -0.055780783 0.13084239
0000e0 92 42 56 3d 1d b9 7a 3d 80 87 eb bc 85 89 33 be
       0.05230958 0.061211694 -0.028751135 -0.17532928
0000f0 19 9c 0a 3e 2a 28 ee bd 99 3c 1e be b5 b9 b1 bd
       0.13536109 -0.116287544 -0.15452804 -0.08677999
000100 b3 e8 52 3e a3 73 4f be cc d5 ff bc 4b 74 b7 bd
       0.2059658 -0.20258956 -0.031229876 -0.08957728
000110 31 b6 3c be 82 d3 85 3d 1f fe ee 3d ce 77 29 3c
       -0.18428876 0.065344825 0.116695635 0.010343505
000120 b8 57 7a be 86 f7 fe bd 8e 70 de bc 39 dc b6 3d
       -0.24447525 -0.12449555 -0.02715328 0.08928723
000130 18 31 3d be 45 59 e4 bb b1 2a ac 3d 1f 22 d5 3b
       -0.18475759 -0.0069686496 0.0840658 0.0065043117
000140 21 2f f6 3c 5b 8f 7d be 90 87 00 3e ed 95 0b be
       0.03005177 -0.24761717 0.12551713 -0.13631411
000150 2e ab 8d bd 9a 41 32 bc a3 89 d9 bb f1 ef bb bd
       -0.069174156 -0.010879898 -0.006638722 -0.091766246
000160 13 37 07 be f5 8b b8 bd fd ed 36 3d 60 eb 9a bd
       -0.13204603 -0.0901107 0.044660557 -0.075644255
000170 a1 10 a4 bd d2 bd 25 be d8 c1 53 bc ea 88 1f 3d
       -0.08010984 -0.16185692 -0.012924634 0.03894893
000180 5a 01 20 bd fd e8 78 bd 84 bd 35 be a8 36 ce bd
       -0.03906379 -0.06076907 -0.17748076 -0.100690186
000190 b9 01 3e ba 9f 24 bf 3d a2 6b a8 bd 69 fb 05 be
       -0.00072481815 0.09333157 -0.08223654 -0.13084187
0001a0 45 ba 40 bd a4 0b 4c bd 6a 92 13 3d 11 40 0b 3d
       -0.04705264 -0.04981579 0.036028303 0.033996645
0001b0 d2 0e 21 3e b7 0f 51 be fb 07 8b bd 17 ee c7 bd
       0.1572831 -0.20416151 -0.067886315 -0.09762209
0001c0 61 fe 06 be ba a1 0d be b1 fa 57 bd 64 13 49 bd
       -0.13182975 -0.13831225 -0.052729312 -0.049090758
0001d0 bd 95 c5 bd 4b 86 85 3d 05 7e 50 bd 13 29 a5 3d
       -0.09647701 0.06519755 -0.05090143 0.08064475
0001e0 ef 0d f7 bd 50 4e b1 bd 1a 98 c3 bc 1d 07 37 3d
       -0.120632045 -0.08657515 -0.023876239 0.044684518
0001f0 69 f5 2d 3e c9 0f 31 be 70 ad 3a 3e c5 55 ba bd
       0.16988148 -0.17291178 0.18230224 -0.090983905
000200 28 04 83 bc 4e b9 18 be 26 38 04 bd 88 f5 01 3e
       -0.015993193 -0.14914438 -0.03228011 0.12691319
000210 ff 46 c7 bd 4e dd 59 be e0 ec f4 3c 47 b0 03 be
       -0.09730338 -0.21275827 0.029898107 -0.12860213
000220 21 18 46 be dc bc 05 bd 6d 54 7a be 39 af 05 bd
       -0.19345142 -0.032650813 -0.24446268 -0.03263781
000230 d1 ec 0b 3e 50 42 40 be 37 31 f9 bc be ae cc bd
       0.13664557 -0.18775296 -0.030418975 -0.09994267
000240 4a 2d d4 3d 4a 82 73 3d 9c 47 ef bc 89 2a dc 3d
       0.10360201 0.059450425 -0.02920895 0.107503004
000250 3f b0 5c 3d 42 65 f8 bd c1 c2 24 be 7c 2a 46 bd
       0.05387902 -0.121286884 -0.16089918 -0.04838036
000260 60 88 e7 bd 52 99 4b be 87 8e 02 be 1f 86 10 be
       -0.11305308 -0.19882706 -0.12749682 -0.14113663
000270 b6 bf c9 3c ab fb 83 bd 00 56 fc 3c 39 3f 08 3e
       0.024627548 -0.06444486 0.030802727 0.13305368
000280 68 c5 31 be 2f b8 69 bd 49 e7 f4 bd f7 81 40 be
       -0.17360461 -0.057060417 -0.11958177 -0.18799578
000290 2f 56 af 3d 3e a6 97 3d c1 75 19 be c7 db ad bc
       0.0856136 0.07404755 -0.14986326 -0.021222962
0002a0 f9 8e 98 3d ae 02 c7 3c 7c 87 bb bc cd d0 4b be
       0.07449145 0.02429327 -0.022891752 -0.1990387
0002b0 14 3c 87 bd 30 29 5a be 72 26 74 be 46 0d 44 bd
       -0.06603256 -0.21304774 -0.2384279 -0.04786422
0002c0 af f5 1e 3e e7 bd 33 3d 2f 3a 3f be 1c b9 84 bc
       0.15523408 0.043882277 -0.18674539 -0.016201548
0002d0 92 ff de 3d ce 76 60 bc f9 2b e6 bd e0 8d 59 bd
       0.1088859 -0.0137002 -0.11238856 -0.05311382
0002e0 b9 47 6a 3d 7b 3a fd bc 58 d5 4d bd 79 b8 ca bd
       0.057197306 -0.030911675 -0.05025229 -0.098984666
0002f0 16 2e d9 3d a8 ec df bc f4 48 80 3c c4 a5 c6 bd
       0.10604493 -0.027334526 0.015659787 -0.09699586
000300 e9 66 30 be 25 6b 2c bd e6 64 3c be ac 14 f8 3d
       -0.17226757 -0.04209437 -0.18397865 0.12113318
000310 40 f1 db 3d 08 0e 74 be 55 8f 8f 3c 5b b2 82 3c
       0.10739374 -0.23833477 0.0175244 0.015954187
000320 af f3 c4 bd cc 0f 05 3d 4a 7c 94 bd 6b 1c 23 3e
       -0.096167915 0.03248577 -0.07250269 0.1592881
000330 44 a3 83 3d f8 1c 0e 3d 2c 31 d7 bd ab 1e d3 3d
       0.06427625 0.034695596 -0.10507426 0.10308584
000340 d7 a0 75 be 33 ca 16 3d 9c 7c 41 bc 63 d6 fa bd
       -0.23987137 0.036813926 -0.011809494 -0.12247922
000350 d7 e5 8e bd 03 41 5f 3d 8f 23 f4 3c e8 0e 8a be
       -0.06977432 0.05450536 0.029802112 -0.26964498
000360 c5 58 35 3e a2 6f 6a 3d de b6 be bd 2a 9f 1f bd
       0.17709644 0.057235368 -0.09312223 -0.03897015
000370 12 cf 67 3d 43 8b de 3b a8 f0 4f 3e 3b 8c 69 3d
       0.056593962 0.0067915036 0.20306647 0.0570185
000380 13 60 98 3d 46 db 35 3e 77 fe 57 3d 65 f3 3b be
       0.074402 0.17759427 0.05273291 -0.18354566
000390 79 9d 48 be 2e 5c d7 bd 9c d6 08 be fe 41 21 3e
       -0.19591321 -0.10515629 -0.13363117 0.1574783
0003a0 3d 88 01 be c4 9e f1 3d c5 5f e4 3d c4 e4 2e be
       -0.12649627 0.1179786 0.11151079 -0.17079455
0003b0 f7 f0 de bd 10 8e 46 3d e3 dd 80 bd e7 c0 0e 3e
       -0.10885804 0.048475325 -0.062923215 0.13940774
0003c0 98 38 ac bd ae 20 91 3c 7a 6d ff 3d 17 af 7b 3e
       -0.08409232 0.017715778 0.12472053 0.2457851
0003d0 b6 d7 11 be 71 01 5e be f2 19 de bd ec 32 9c bd
       -0.14242443 -0.21680237 -0.108447924 -0.076269
0003e0 32 34 e3 bd 98 b5 66 bd 6a 7f da bd 96 90 9d bc
       -0.1109394 -0.056325525 -0.106688336 -0.019233983
0003f0 84 49 97 bb ea 33 fd bd 48 cc cd 3d 66 47 c5 bd
       -0.004616918 -0.123634174 0.10048729 -0.09632759

weight f4 [256, 512]
000000 44 04 64 3d 4b d4 a5 bd b2 47 8a 3d c3 0c 33 bd
       0.05566813 -0.08097132 0.06751956 -0.043713342
000010 27 25 b4 3d b9 82 17 bd 86 3c c7 3c 0b 3d b7 bd
       0.08796149 -0.0369899 0.024320852 -0.0894719
000020 b6 f3 43 3d 13 6f 87 3d d3 2f df bc b0 8c af bb
       0.047839843 0.066129826 -0.027244484 -0.0053573474
000030 ef a4 c4 3c 0f ea a6 3b ed d9 1f bd 6d 45 88 bc
       0.024004428 0.00509382 -0.03902619 -0.016634667
000040 60 82 b6 3c 7f e2 0f 3e b2 81 e0 3b a9 93 08 3d
       0.022278965 0.14051245 0.0068513984 0.033343945
000050 2b 87 1d 3d 74 c6 5a bc 35 f1 ae 3b 19 a6 dd 3c
       0.038458984 -0.013352979 0.0053388127 0.02705674
000060 0a cc a1 3d 0b b7 03 3a 2a e6 5e 3c 74 1b f1 3d
       0.079002455 0.0005024529 0.01360468 0.117728144
000070 aa c4 34 3d 18 b9 11 bc d9 e3 87 3b 4e af 4b bd
       0.044132866 -0.008894227 0.0041470346 -0.04972773
000080 95 3a c6 3d c3 69 c1 3c 95 8f e1 bc c8 be 5c bd
       0.096791424 0.023610001 -0.027534286 -0.05389288
000090 51 91 08 bb c3 55 de 3d fa d5 8e 3d 99 62 c4 3c
       -0.0020838568 0.108562015 0.069744065 0.023972796
0000a0 57 3f a7 3c 1d 3f 59 3c f2 63 0e 3d e6 55 d2 3d
       0.020415945 0.013259676 0.034763284 0.1027029
0000b0 ee 0a a9 bb 1f eb 1d 3e 62 a3 34 bd c6 89 38 3d
       -0.0051587736 0.15421723 -0.044101126 0.045053266
0000c0 84 90 a5 3d 28 af 4f 3d bc 41 6d bc c0 53 cd 3c
       0.08084205 0.05070415 -0.014481004 0.02506435
0000d0 14 48 a0 3d d7 ec 0b bd ed 37 ee 3d 24 75 f7 3d
       0.07826248 -0.034161415 0.11631761 0.1208289
0000e0 50 0a ae 3a 68 86 44 bc af aa 4a bb 89 1e bf 3d
       0.001327822 -0.011994936 -0.003092449 0.09331996
0000f0 bf 22 85 bd 86 82 b6 3c c4 f8 9a 3c a8 b5 0c bc
       -0.06500768 0.022279035 0.018917449 -0.008588232
000100 6f 59 05 be be ff 30 3d cb 87 83 bd 9d 4d 95 bd
       -0.13022397 0.043212645 -0.06422385 -0.07290194
000110 57 2e 2b bc 95 fa b5 3c bd d6 17 bd 9f e2 28 bd
       -0.01044806 0.022214213 -0.037070025 -0.041231748
000120 bd 76 f1 3c bb 71 c1 3d 5a ce 14 bd 17 9e 2f 3c
       0.029475564 0.094455205 -0.036329605 0.010718844
000130 a1 d9 aa 3d a8 6d 85 bc dd c9 32 3a af 1c c0 3c
       0.08342291 -0.01628764 0.0006820241 0.023451177
000140 65 3b 36 bd 08 3c b3 bc 33 f4 61 3c c3 20 27 bd
       -0.044490237 -0.021879211 0.013791132 -0.04080273
000150 9c f8 d8 3b 7b 1c f7 3c 4a 57 12 bd 62 29 dc 3b
       0.0066214334 0.030164948 -0.035727777 0.0067188004
000160 0c 84 46 3d f1 bb 53 3b da bb c8 3c 32 c4 09 3c
       0.048465773 0.0032308067 0.024503637 0.008408593
000170 e2 ce 03 3d 67 1b 30 3e c5 30 03 3e a8 64 8b 3d
       0.03217972 0.17197953 0.12811573 0.06806308
000180 df 8d 08 be 41 e5 7c ba f2 a8 d6 bc 09 ca 5c 3d
       -0.1333537 -0.00096471986 -0.026203606 0.053903613
000190 c0 fc 6b bd 40 31 ac 3c fa 6f 89 3d 22 18 51 bd
       -0.057614088 0.021019578 0.06710811 -0.051048405
0001a0 25 86 58 3d 93 28 32 3c 38 5b 18 3d 4b fe 06 bd
       0.052862305 0.010873931 0.037196368 -0.032957356
0001b0 e7 95 bd bd 3b f5 d0 bb 5c 47 8f 3c 37 ad 96 bd
       -0.09257107 -0.00637689 0.017490081 -0.07357257
0001c0 c1 1a b7 3c 0c 4e 13 3c 4d 84 52 bd f6 7b 88 3d
       0.022351624 0.008990776 -0.051395703 0.06664269
0001d0 15 ac 8c 3c 5e d1 5b 3d 96 57 0d 3d a2 f0 ba 3d
       0.017171899 0.053666465 0.034507357 0.09127928
0001e0 b4 b7 90 3d fe 5b d3 bc d3 66 f6 bd ef 40 7f 3d
       0.070662886 -0.025800701 -0.12031331 0.062317785
0001f0 0f 04 86 bd a1 db 51 bd 35 26 c0 bc 35 a8 55 bd
       -0.06543743 -0.051234845 -0.023455719 -0.052162368
000200 58 28 fa 3c 34 e2 be 3c 1e 72 d6 3d a8 d6 a0 3b
       0.030536816 0.023301221 0.10470985 0.0049084015
000210 82 a1 07 3e 5d 4d 79 3d 5f 5b 0b bd ca 4f b1 3b
       0.13245204 0.060864795 -0.034022685 0.005411123
000220 77 72 1c 3c 42 70 ae bd 61 19 89 3c 96 4e af 3d
       0.009548775 -0.08517505 0.016735734 0.08559911
000230 41 14 f2 3c 56 a3 27 bd 27 27 b4 3d 44 dd e7 3c
       0.029550673 -0.040927254 0.0879653 0.02830375
000240 9e d6 4f 3d 03 7c 04 bd 4b 4b 4c bd 2d bc f3 3d
       0.050741784 -0.03234483 -0.049876492 0.11901126
000250 fe b7 29 bd c3 3f 8f 3d 9c af 56 3d ee 33 0f 3d
       -0.041435234 0.069945835 0.052413568 0.034961633
000260 6d f5 b2 3d 1c d9 d9 3d c3 11 e4 3c f8 ba 92 3b
       0.087382175 0.106371135 0.0278405 0.004477855
000270 56 2d 78 bd c1 88 59 3d 1e 16 d4 bc b2 7c ff bd
       -0.06059011 0.053108934 -0.025889453 -0.124749556
000280 83 1e cc 3d 76 f9 61 bc 32 e1 04 3c 54 2a 1f 3d
       0.09966757 -0.013792386 0.008110331 0.038858727
000290 4e 77 2f bd 90 a0 92 3d 7e 78 13 bb d9 6d 06 3d
       -0.042838387 0.07159531 -0.002250224 0.032819603
0002a0 4b 68 ae bc 1b 8c 31 bc 18 66 38 3c 0a 36 52 3d
       -0.021289965 -0.010836626 0.01125481 0.051321067
0002b0 be be 8c bd e5 8a 0e 3d 40 48 86 3d 38 74 d2 bc
       -0.06872319 0.03480043 0.06556749 -0.025690183
0002c0 29 9b 62 3c 9f 57 0f bd f6 5d 1e 3c 5b 23 86 3b
       0.013830938 -0.03499567 0.009665957 0.00409357
0002d0 64 37 9c bd 19 f5 33 3d 3d 6a 9c 3c 01 18 ff bc
       -0.076277524 0.043934915 0.019093627 -0.031139376
0002e0 38 da af bb ef 56 af 3c 5c 67 d7 bc 45 8e 00 be
       -0.00536659 0.021403758 -0.026294403 -0.12554272
0002f0 e5 98 c6 bc 0c fd 06 3d a4 46 a9 3d 89 1f cf 3c
       -0.024242828 0.032956168 0.08265427 0.025283592
000300 8d 89 56 3d 4a 54 3b bd 6e db 46 3e 78 33 65 bb
       0.052377272 -0.04573468 0.19419643 -0.0034973305
000310 07 ab d3 bd f5 bb 81 3d 8b 86 56 3d 2b 5d 39 3d
       -0.10335355 0.06334678 0.052374404 0.045254868
000320 16 a9 bf 3d b9 05 9b 3d b8 07 94 ba 50 14 07 bb
       0.093584225 0.07569451 -0.0011293804 -0.0020611472
000330 36 1a 71 bd d0 67 cd 3c a4 68 1d 3d 74 50 77 bc
       -0.058862887 0.025073916 0.03842987 -0.015094865
000340 ce c4 80 3c 69 6b ce 3c d8 54 af 3d 9f 68 81 bd
       0.015718844 0.025197702 0.085611045 -0.06318783
000350 95 25 a1 3b e9 bc 36 bd 16 83 b1 bc 02 b3 2e bd
       0.00491781 -0.044613753 -0.021668952 -0.042651184
000360 4e 0a ea bd 6f b7 4d 3c da 7e 9d 3d 3a 27 0c 3d
       -0.11427747 0.012555941 0.07690211 0.034217097
000370 65 75 d5 bd e2 97 49 3c 60 91 d8 3c c2 aa 1e 3d
       -0.10422782 0.012304278 0.026436508 0.038737066
000380 a0 15 d9 bd 5e a6 82 bd d7 4b d2 bb 83 e2 ad bc
       -0.10599828 -0.06379388 -0.006417732 -0.021226173
000390 0f 03 23 bd d4 a1 1c 3d 48 0d 87 3c de c1 c3 bc
       -0.03979784 0.03824027 0.016485825 -0.023896154
0003a0 98 f3 45 bc 64 e4 da bd fb c5 9f bd df 02 4c bc
       -0.012082003 -0.10688093 -0.07801434 -0.012451856
0003b0 34 6f f7 3d 0f c5 a6 bc 50 a2 75 3c da cd e3 bc
       0.12081757 -0.020357637 0.014992312 -0.027808119
0003c0 f4 c6 bb 3b c2 5e d8 bb 58 7a d0 3c b3 86 cc bb
       0.005730504 -0.006603093 0.025448963 -0.0062416433
0003d0 d9 ff 64 bd 6d 66 b2 bc 84 c0 b3 3d e8 33 99 bc
       -0.055908058 -0.021777356 0.08776954 -0.018701509
0003e0 f6 fa 8b bc b6 6c 76 bb 8d c1 c4 bd 29 f2 be 3d
       -0.017087441 -0.0037601418 -0.096072294 0.09323532
0003f0 db c6 1c bd 18 da 79 3d 59 4c d1 3b de df e8 3d
       -0.03827558 0.060999006 0.006387275 0.11370824

bias f4 [256]
000000 22 6d de bc d4 3d 57 bd 61 9a a6 bd 26 f8 8e bd
       -0.027151648 -0.0525492 -0.08134914 -0.06980924
000010 15 b1 8a bd c2 ae 08 bd 39 c8 84 bd 82 80 a1 bc
       -0.06772057 -0.033369787 -0.06483502 -0.019714598
000020 2d d5 20 bd e6 35 af bc 78 c4 6d bd b3 d4 8a 3d
       -0.0392658 -0.021388005 -0.058048695 0.067788504
000030 b3 e7 ad 3c 2d 64 4f bd 13 df 4b bd 5f 75 56 bd
       0.021228647 -0.050632644 -0.049773287 -0.052358028
000040 08 1e 89 bd 79 bf f4 bd 91 7c c8 bd 4f b4 7e bd
       -0.06695181 -0.11950583 -0.09789384 -0.062183674
000050 b9 e2 d3 bd c6 d0 77 bd a7 32 4f bd ed 29 fe bd
       -0.10345978 -0.060501836 -0.050585415 -0.124103405
000060 6a 75 9a bd 69 c1 b7 bd 7e f6 81 bb 48 62 b0 bc
       -0.07541926 -0.08972437 -0.0039661517 -0.02153124
000070 52 96 ab bd 2e b5 ab bd b3 ad 91 bd ec b1 5c bd
       -0.08378281 -0.08384167 -0.071132086 -0.053880617
000080 14 60 07 be 53 23 0f be 85 dd a6 bd 0e c9 05 bd
       -0.13220245 -0.13978319 -0.0814772 -0.032662444
000090 2d 98 9f bc 0b 22 5f bd b4 93 0c 3d 64 53 19 bd
       -0.019481743 -0.054475825 0.03432055 -0.037433043
0000a0 11 32 52 bd 41 53 b3 bd 85 3d 93 bd 0d 2e 16 3b
       -0.05131728 -0.08756114 -0.07189468 0.0022915632
0000b0 c8 bd 42 bd 42 39 91 bc bd fe 0f bd 94 5e e7 bd
       -0.04754427 -0.017727498 -0.035155047 -0.11297336
0000c0 2a 2f 26 3c c7 fb ae bb 2d ee a8 bc fb 7e 9a bd
       0.010143081 -0.005340073 -0.020621384 -0.07543751
0000d0 a0 54 14 3c da 4f 8d 3d 40 88 91 bd ce 6d b6 bc
       0.009053379 0.06899996 -0.07106066 -0.022269156
0000e0 d7 71 48 bd f5 56 5a bd ad 9d 5b bd c1 17 d8 3c
       -0.04893669 -0.053305585 -0.05361717 0.026378514
0000f0 3b 32 9a bd cc 94 d6 bc aa e1 82 3d 28 bd 4c bd
       -0.07529112 -0.026193999 0.06390698 -0.04998508
000100 d8 46 a6 bd ed 4d 81 bd 62 ca 79 bd 1e 80 fe bc
       -0.08118981 -0.06313691 -0.060984023 -0.03106695
000110 c9 f5 a1 bd 03 06 4c bd 48 2f 9b bd 47 65 2f bd
       -0.07908208 -0.04981042 -0.075773776 -0.042821195
000120 43 fe b0 bd df fa d9 bc 44 e8 1a bd c7 ca 4e 3c
       -0.086422466 -0.026608882 -0.037819162 0.012621588
000130 c2 f7 2a bd 17 24 89 bb 7d bc c5 bc 73 5d 83 bd
       -0.041740187 -0.0041852104 -0.02413773 -0.064143084
000140 e4 92 e2 bd 49 22 ea bc 8e 72 29 bc 5c 84 84 bc
       -0.110631734 -0.028580802 -0.010342253 -0.016176395
000150 ed c6 92 bd 73 d4 1a bd 7f e0 63 bd 00 d4 f8 bd
       -0.07166848 -0.037800264 -0.055634018 -0.12149811
000160 fa a3 3c bd 06 fc 09 be 58 7c 8f bd c5 b1 11 3d
       -0.046054818 -0.13475046 -0.070061386 0.035569925
000170 cd 56 8b bd 55 54 b1 bd 2d 3f 0a bd c2 48 c4 ba
       -0.06803665 -0.08658663 -0.033751655 -0.0014975297
000180 65 00 4d bd 3b 80 aa bd be 84 c8 bc a0 75 9a bd
       -0.050049204 -0.08325239 -0.024477359 -0.075419664
000190 46 4f a8 bd 32 20 d8 bd 31 82 7c bd 34 7a 72 bd
       -0.08218245 -0.10553016 -0.061647598 -0.059198573
0001a0 10 e1 a4 bd 78 70 8f bb 13 10 89 bd b5 de 41 3c
       -0.0805074 -0.004377421 -0.06692519 0.011832883
0001b0 28 80 aa bd 4b 1a 98 bc ae 10 2a bd 29 19 a2 bd
       -0.08325225 -0.018567225 -0.041519813 -0.07914955
0001c0 40 92 1d bb bf ec be bc 1f b3 ec bd cb d0 08 bd
       -0.002404347 -0.023306249 -0.11557602 -0.033402245
0001d0 0e 8a 8b bd d5 8f e3 bd c5 49 6a bb fa f7 c1 bc
       -0.06813441 -0.11111418 -0.0035749536 -0.023677815
0001e0 e3 26 9e bd 84 94 ed bd 12 70 58 bd 21 7b 2a 3c
       -0.07722261 -0.11600593 -0.052841254 0.010405333
0001f0 84 70 a7 bd 33 4c 2e 3d 68 0f dc bc d3 44 74 bd
       -0.081757575 0.042553138 -0.026862815 -0.05963595
000200 a5 88 5b bd e6 9b c1 bd 09 5a 63 bc a0 d0 ae bd
       -0.05359711 -0.094535634 -0.0138764465 -0.08535886
000210 65 61 88 3d af da 82 bd 4b c7 4c bd 80 af 6f bd
       0.066592015 -0.06389367 -0.049994748 -0.05851698
000220 ea 86 1b bd 6a dc 22 3c a5 8a b3 bd 8d a4 d7 bd
       -0.03797046 0.009940246 -0.08766679 -0.105294324
000230 65 64 de bc af 69 0a 3d ab 73 cc bb 34 fe b0 bd
       -0.027147481 0.033792194 -0.0062393746 -0.086422354
000240 03 d3 2a bb 9c 97 85 bd 7e 4e 52 bd 72 3c de bd
       -0.0026065714 -0.06523058 -0.051344387 -0.10851373
000250 b6 d9 35 bd cb 31 89 3c d5 05 23 3d bc a5 ad bb
       -0.04439708 0.016747376 0.039800484 -0.005299298
000260 20 59 a0 bd 5a ce 6d bd a0 fa 38 3b a8 ca 0e bd
       -0.07829499 -0.05805812 0.0028225556 -0.034861237
000270 b2 7f 38 be 36 6b 94 bd bf 4a 6f bd b9 d9 5c bd
       -0.18017462 -0.07247011 -0.058420893 -0.053918574
000280 8d 1d 4a bc 32 f5 a2 3d 79 9d d4 3c 9f 39 db bd
       -0.012336147 0.079569235 0.025953995 -0.1070435
000290 2d bc d2 3a 77 96 84 bd 78 c0 a0 bd 3d 61 b2 bc
       0.0016077809 -0.064740114 -0.078492105 -0.021774882
0002a0 f4 e1 1c bd f5 3b ff 3b 8d ae f5 3c 6f 97 a7 bd
       -0.038301423 0.00778913 0.029990459 -0.081831805
0002b0 37 b3 a1 bd f0 98 7b bd 83 a5 63 3c 5b 0c 0e bd
       -0.07895511 -0.06142515 0.013894442 -0.03467975
0002c0 7b a3 4a bd 12 68 47 3d 45 a5 b5 bd 33 43 87 bd
       -0.049472313 0.048683234 -0.08869413 -0.06604614
0002d0 d4 5c a0 bc da 11 a3 bd b4 f8 a2 bd f7 2c 9c bc
       -0.019575514 -0.07962389 -0.079575926 -0.01906441
0002e0 72 bb cd bc 34 de d6 3c ae f9 bc bc 1a 44 b9 bd
       -0.025113795 0.026229002 -0.023068275 -0.090461925
0002f0 3b ae bf ba f5 e3 c2 bc 04 0d c9 bd d0 96 46 bd
       -0.0014624068 -0.023790339 -0.09816936 -0.04848367
000300 1d 61 b6 bd ca 99 76 bd 66 ed a7 3b f4 89 be bd
       -0.08905242 -0.06020526 0.0051247356 -0.09303656
000310 7a d3 2b bd f4 a9 e8 bd 5f 9c 8d bd b5 14 af bd
       -0.041949727 -0.11360541 -0.06914591 -0.085488714
000320 8a 2c 89 bd 98 a0 fd bd 51 a5 66 bd 25 70 90 bd
       -0.06697948 -0.123841465 -0.05631 -0.0705264
000330 9e 1b 1a bd f8 86 19 bd 96 d5 95 bd 8e f3 89 bd
       -0.037623994 -0.03748223 -0.07316129 -0.067359075
000340 81 c5 17 bd 22 69 14 bd 81 11 25 bd 0c 09 99 bd
       -0.03705359 -0.036233075 -0.040299896 -0.07472429
000350 32 ec d6 bb 57 55 b4 bd 60 2b 71 bd cd 5b a9 3c
       -0.0065589184 -0.0880534 -0.058879256 0.020673657
000360 5b 57 04 be 58 0e 2b bd 5c d2 64 bd 1b 45 af bd
       -0.12923948 -0.041761726 -0.055864677 -0.08558103
000370 5f fb f4 bd 98 65 87 bd 8c 87 e9 bc 8d 50 2f 3d
       -0.11962008 -0.06611174 -0.028507017 0.04280143
000380 9b b0 a8 bb 38 69 8f bd 9a 05 21 bc fc 19 36 bd
       -0.005148006 -0.07002491 -0.009827996 -0.044458374
000390 5f d4 5a bd af 11 23 bd 9b ad 9c bd be 2d 3b bd
       -0.05342519 -0.039811786 -0.076503 -0.04569792
0003a0 ad 0a 3f bd 9d 7e ab bd 14 f2 2b bd 20 a7 62 3c
       -0.04664104 -0.08373759 -0.04197891 0.013833791
0003b0 eb 42 e0 bc 56 f2 6d bb 95 6b 28 bd e2 f6 a0 bd
       -0.027375659 -0.0036307774 -0.041118223 -0.07859589
0003c0 9c 19 a2 bd 47 47 fa 3c ae 74 83 bc 5e 82 a6 3c
       -0.07915041 0.030551566 -0.016046848 0.020325836
0003d0 c2 4c 5a bd 44 59 f1 bc aa f0 f7 bc 34 0c 48 bd
       -0.05329586 -0.02946151 -0.030266125 -0.048839763
0003e0 18 66 62 bc 42 71 a6 bd 0b b1 42 bd a2 db 28 bd
       -0.013818286 -0.08127071 -0.047532123 -0.041225083
0003f0 36 9b fa bb 73 4a ae 3c cc fa 85 bd c8 e4 9e bd
       -0.007647897 0.021275735 -0.06541976 -0.0775848

weight f4 [128, 256]
000000 fc 36 17 3d 98 86 5c bd d7 fe de bd 8d e9 51 bc
       0.03691767 -0.053839296 -0.108884506 -0.0128120305
000010 47 bc fc bc 77 c0 fc 3c b8 08 14 3e 33 01 ba bd
       -0.030851496 0.030853493 0.14456451 -0.0908226
000020 81 8e 93 3d 9b 1f c9 3c fd 8f e8 3d fe 10 ec 3a
       0.07204915 0.024551203 0.113555886 0.0018010435
000030 bc ae 38 bc fb fb 51 3d 3c 6e 29 3d ba 01 d2 3d
       -0.011272129 0.051265698 0.041364893 0.102542356
000040 23 10 13 3d 23 21 2c bd 5f 74 b0 3d 4b b9 ea 3c
       0.03590406 -0.04202379 0.08615946 0.028652808
000050 a3 d7 9d 3d 71 be 6a 3d 50 df 31 3b eb 5f 6a 3c
       0.07707145 0.057310525 0.0027141161 0.014305095
000060 d3 21 bc 3a 35 3a 69 3c 40 93 43 bc dc 44 e4 3b
       0.0014353342 0.014235069 -0.011936963 0.0069662165
000070 d9 7f 86 3d 6b 19 f4 bc 5d d3 3d bc b3 32 8f 3d
       0.06567354 -0.029797276 -0.011586037 0.06992092
000080 28 e3 96 3c 82 79 dc bd 52 57 83 bd dd 36 96 bd
       0.018418863 -0.10765363 -0.064131394 -0.07334683
000090 69 93 87 3d c8 42 ae bc a0 40 18 3d 64 39 00 bd
       0.06619913 -0.021272078 0.037171006 -0.031304732
0000a0 53 31 b6 bc 90 f9 4d bd 9e 5b 0f 3e 75 d0 99 bb
       -0.022240316 -0.05028683 0.13999793 -0.0046940395
0000b0 2a 4e d2 bd c7 27 c0 3c fc 46 ed bc 72 1a 9f 3d
       -0.10268815 0.023456467 -0.028964512 0.07768716
0000c0 fb 1f 92 bd e3 16 f9 39 78 dc 8f 3d 16 8e c6 3d
       -0.07135006 0.00047510033 0.07024473 0.096950695
0000d0 a6 b6 5e bb e4 49 82 3d 53 01 26 bd a2 76 1f bd
       -0.0033983379 0.0636175 -0.040528607 -0.038931496
0000e0 56 e8 73 3d de be 95 bb a3 9a ff bc 3e cd 9d bd
       0.059547745 -0.0045698723 -0.031201666 -0.077051625
0000f0 09 bd 0e 3d 35 8b c3 3c d2 fb 13 bd 3c b0 bf bd
       0.034848247 0.02387009 -0.036128826 -0.09359786
000100 a8 0d b8 3c 1e 8c 0b 3b df 4a dd bc 11 5f 01 bb
       0.02246745 0.0021293233 -0.02701324 -0.0019740502
000110 cb 24 4c 3d 86 f2 57 3d 5f 0f bb 3d 56 3b 0e 3e
       0.049839776 0.052721523 0.09133791 0.13889822
000120 55 e1 66 bd f9 f7 2f bd 4d e7 91 bb dc fa de bc
       -0.056367237 -0.042961095 -0.004452622 -0.027219228
000130 a4 f2 e9 3d 21 6e 5b 3d 59 dc b1 3c 13 0f b3 3b
       0.11423233 0.053571824 0.021711515 0.0054644435
000140 1c 3e 9f bc 2d a6 2b 3d 6e e4 2e be c4 20 0e bb
       -0.019438796 0.041906524 -0.17079327 -0.002168701
000150 91 9c 06 bd 35 46 cf 3c 81 3d ff 3b 2c 27 ae bc
       -0.032864157 0.025302032 0.0077893143 -0.021258913
000160 df 0b 93 bd cd 0c 45 bd ee d9 df 3d 47 85 b8 bc
       -0.071799986 -0.04810791 0.10930239 -0.02252449
000170 de ba bd bc a2 f8 01 be 7a c1 f3 3c 14 48 5a 3c
       -0.023160394 -0.12692502 0.029755343 0.013322849
000180 34 de 7b bc d8 a4 e3 3d 26 f5 2e bd 12 b9 e3 3d
       -0.015372802 0.11115426 -0.04271426 0.11119284
000190 7d aa 2b bc e3 77 c3 bc e1 80 d2 3b 8e 78 88 3c
       -0.010477659 -0.023860877 0.006424055 0.016659047
0001a0 1e 13 49 3d e6 5b d2 3d 35 4c 68 bc 73 96 29 3d
       0.049090497 0.102714345 -0.014178325 0.041403245
0001b0 e5 b1 86 3d d7 82 b1 3d 67 95 8a bc 60 5d c7 3c
       0.065768994 0.08667534 -0.016916944 0.024336517
0001c0 23 1b 94 bc 86 f1 e8 3d 0f 89 61 3d 66 19 22 3c
       -0.018079346 0.11374192 0.05506235 0.009893751
0001d0 3a 14 75 3a 6e cf a2 3c 74 c6 15 be 2b 15 ce bc
       0.00093490223 0.0198743 -0.14626485 -0.025156578
0001e0 d4 48 92 3d 41 6b 68 3c a6 27 81 bd 00 10 dd bb
       0.07142797 0.014185728 -0.063063905 -0.006746292
0001f0 0a c6 54 bd 2b 3e b4 39 d2 fe 82 bd b1 4e 8f bd
       -0.051946677 0.00034378594 -0.06396259 -0.06997431
000200 11 e3 42 3d 63 0e 48 3d bc ca 2f 3d 1b 8b 8e bb
       0.04757983 0.048841845 0.042917952 -0.0043500788
000210 2c 39 7e bd f6 2b f9 3d 0a 14 a1 bd 04 8f bf 3b
       -0.062066242 0.12166588 -0.0786515 0.005845906
000220 b0 d6 b0 3c ef 38 55 3d 0f 21 25 3c 1c 41 79 3d
       0.021586746 0.05205625 0.010078683 0.06085311
000230 ab 2d ec bc c0 cb b3 bd 7d 77 e9 3c 4e 88 8d bd
       -0.02883037 -0.087790966 0.02849936 -0.06910764
000240 b6 c9 f8 bb 82 cb 21 3d 01 cf 80 3d 35 fd 36 3d
       -0.007592405 0.03950072 0.06289483 0.04467507
000250 04 f0 2b bd 47 92 5d bd 93 d2 cd bd 9d d4 a0 bb
       -0.041976944 -0.05409458 -0.100499295 -0.004908158
000260 aa ce de 3d 77 d2 8f 3d ab ec 72 3d a2 c4 58 3d
       0.10879262 0.07022565 0.059307735 0.0529219
000270 3d b5 3a bd 3b 56 d5 3d bd 80 be 3d 0d ae 3d 3d
       -0.045583 0.10416838 0.09301899 0.046308566
000280 79 49 9f 3c 3e 56 c7 bc ac 80 b7 bd ee 50 96 3b
       0.019444214 -0.024333116 -0.08960089 0.0045872843
000290 89 77 cd bd 72 23 65 3d 23 a6 ad bb a5 c1 b8 3c
       -0.10032565 0.055942006 -0.005299346 0.022553274
0002a0 31 5d ab 3c 2c a6 e9 bd f2 c9 41 bd 94 da 44 3d
       0.02091846 -0.11408648 -0.04731173 0.048060015
0002b0 86 dd 6c bd 0e 73 34 3c f3 7b c8 bd a5 a2 d9 bd
       -0.05782845 0.011013759 -0.097892664 -0.10626725
0002c0 76 9e 5d bd d1 fb a2 3b b0 da d8 bc 41 04 c5 bb
       -0.0541062 0.0049738665 -0.026471466 -0.00601247
0002d0 12 76 8e 3c 1e d8 d1 3d 74 36 2c bb 6b e4 8d 3d
       0.017390285 0.10246299 -0.0026277574 0.06928333
0002e0 c5 9e 7e 3c 18 3c b3 bc 8c 25 84 3c a4 9f ce 3c
       0.015540783 -0.02187924 0.016131185 0.025222607
0002f0 66 ec 1c bd 28 2f 1f bd 27 27 f3 bb 23 af 0e 3d
       -0.038311385 -0.03886333 -0.007420439 0.034834992
000300 9e 1a 4e 3b 26 9a 59 bd d9 d7 3d bd 16 11 a3 bd
       0.003144897 -0.053125523 -0.046348426 -0.07962243
000310 3a a5 a6 3d 43 de a3 bc 12 0a c7 3d 92 71 f1 3c
       0.08136983 -0.020003444 0.09718718 0.0294731
000320 e9 52 cd 3c b2 a2 9c bd 63 1d 8c 3d ca 62 11 3e
       0.025063949 -0.07648219 0.068415426 0.14197841
000330 a2 dd bb bd 45 68 33 bd 4f 12 45 bd db fc 12 3b
       -0.091731325 -0.04380061 -0.048113164 0.0022428546
000340 c7 3d 68 3c 94 c4 e0 3c 01 30 cb 3c 96 13 8c 3d
       0.014174885 0.027437486 0.024803163 0.06839673
000350 33 c5 7f bd 98 10 61 3d a1 e3 c1 3d c7 f3 96 bc
       -0.062443923 0.054947466 0.09467245 -0.018426789
000360 42 ae a1 3c 7c 19 4d 3d b0 c7 be bc dc 65 03 3d
       0.019736413 0.050073132 -0.023288578 0.032079563
000370 b4 f2 1a 3d de e7 89 3d fd 8e 41 3d 91 f3 09 3c
       0.037829116 0.06733678 0.047255505 0.008419887
000380 6e c6 5e 3a d9 6a 04 3d 0e f3 ea bc 85 a2 7a bd
       0.0008498196 0.03232846 -0.02868035 -0.061190147
000390 f1 04 43 3c cb 29 9b bd 6d cf ca bc 65 de 17 3c
       0.011903034 -0.07576331 -0.024757111 0.009269332
0003a0 78 f8 f6 3c 73 d4 32 bb 3a 0a bd 3d 85 d5 9c bd
       0.030147776 -0.0027287274 0.09230466 -0.07657913
0003b0 89 c2 7e 3d 53 1a 7a 3c ea 5e 81 3d d8 f2 55 3d
       0.062197242 0.015265065 0.063169315 0.052233547
0003c0 90 c9 5d 3d da 28 44 3d 61 35 5c bd b6 cd c6 bc
       0.054147303 0.04789052 -0.053761844 -0.024268012
0003d0 b6 2a e8 3d 39 4e f6 bc c4 fa 1d bd e4 da 90 bc
       0.113362715 -0.030066596 -0.038569227 -0.0176825
0003e0 52 dd db 3d 57 97 64 3d 6a dc fb bb 22 d8 52 3d
       0.10735573 0.05580839 -0.0076861875 0.05147565
0003f0 33 bb ac bc 77 ed c5 bd 5c 39 32 3d d8 1f 03 3d
       -0.021085357 -0.096644334 0.043511733 0.03201279

bias f4 [128]
000000 b2 ee ad bd 6b 28 c2 bb 62 61 cf bd 97 8c bc 3a
       -0.08492793 -0.0059252284 -0.10125996 0.0014385161
000010 68 fe 4d 3d 2d d5 e7 bd 58 28 e5 bd 4d 7a b2 bd
       0.05029145 -0.11319957 -0.111893356 -0.08714733
000020 7b 4c 43 3c f2 ac 96 bd 02 1c a5 3c f4 13 a4 bd
       0.01192009 -0.073572055 0.020154957 -0.08011618
000030 34 8c 3f bd fa d6 7d bd 0b b6 f7 bd 00 cf ad bd
       -0.046764567 -0.061972596 -0.12095269 -0.08486748
000040 45 4f 85 bd 0a 78 d2 bd 9f 0b 52 bd ac 3f 51 bd
       -0.0650926 -0.10276802 -0.051280614 -0.051086113
000050 3e 5a 84 bd 2e 65 f8 bc bb 97 3a bd 63 4c 74 bd
       -0.06462525 -0.030321684 -0.045554858 -0.05964316
000060 01 f8 90 3c 2f a8 5c bd c4 67 c4 3b 95 92 40 bd
       0.017696382 -0.05387133 0.005993815 -0.04701479
000070 20 d5 34 3c b2 0d 5b 3c 6b 5f bd bc 33 6f 08 3d
       0.011037141 0.013369964 -0.023116788 0.033309173
000080 ae 10 a3 3c 6b 38 ba bb 1b b7 49 bd 85 f3 1e bd
       0.019905414 -0.005682995 -0.04924689 -0.038806457
000090 6b 00 7e bd 33 e2 be bd f7 31 71 bd f2 27 bf bd
       -0.062012117 -0.09320488 -0.05888554 -0.09333791
0000a0 43 34 37 bd a0 b7 e1 bd 2f 6b c8 bd 3a f9 5e bd
       -0.044727575 -0.11021352 -0.09786069 -0.0544369
0000b0 ec c2 84 bc 9d f5 15 bd 92 61 e8 bc 6b cc 57 bc
       -0.016206227 -0.03661119 -0.028366838 -0.013171296
0000c0 6f 06 d5 bc 58 33 cd bd b1 26 bb 3c ad dc 68 3b
       -0.026004044 -0.10019559 0.022845598 0.0035531924
0000d0 f6 96 5e bc 79 e8 96 b9 70 86 62 bd aa 26 da b8
       -0.013585797 -0.00028783435 -0.05530399 -0.00010402252
0000e0 a9 c8 28 3d d9 0e 8f bd 74 fe d9 3c f3 99 11 3c
       0.04120699 -0.06985254 0.02661059 0.008886802
0000f0 e7 ce 78 bd b6 a3 00 3d ee dc 03 be 2d 96 a4 3c
       -0.060744192 0.031406127 -0.12877247 0.02009114
000100 c7 5a f1 bd d0 28 bf bd 74 af c0 3c 43 7b 16 bd
       -0.117848925 -0.09333956 0.023521163 -0.036738645
000110 5d a6 67 bd 2b 58 81 bc d4 a1 80 bd 54 47 22 bd
       -0.05655514 -0.015789112 -0.06280866 -0.039618805
000120 9f bf 80 bd e9 18 62 bd 67 45 9e 3c a3 8b f8 bc
       -0.06286549 -0.055199537 0.019320203 -0.030340021
000130 fe d4 4a 3d 66 01 94 bd b3 d1 9e bc 66 cf a5 bd
       0.04951953 -0.07226829 -0.019387102 -0.08096199
000140 78 0b b2 3c 67 0b 53 bd 94 07 e5 3c e9 59 c0 3c
       0.021733984 -0.051524546 0.027957715 0.023480373
000150 ca 74 2f bd 54 db 4c bd f5 56 1c 3c 91 5a b2 bd
       -0.042835988 -0.050013855 0.009542217 -0.087086804
000160 30 34 2d bd 79 b3 1f bd 7a c1 d5 bd 2a 3b 86 bd
       -0.042286098 -0.038989518 -0.10437293 -0.065542534
000170 2d 64 a1 3c 62 b3 7f bd f3 bd e4 bb b4 57 d2 bd
       0.019701088 -0.062426932 -0.0069806515 -0.10270634
000180 a2 d9 43 3d 8c 38 c3 3c ba a3 8a bd 5e 27 e6 bc
       0.047814973 0.023830675 -0.067695096 -0.028094944
000190 f0 0e a7 bd 51 40 cf bd 71 8f ab 3d 15 62 a8 3c
       -0.08157146 -0.10119689 0.08376969 0.020554582
0001a0 66 25 9a 3c c3 18 4c bc 1e 47 85 ba 5c e3 4f 3c
       0.018816661 -0.0124570755 -0.0010168289 0.012688484
0001b0 7c 68 5a bd 0b 07 2c bd 7d 0f 14 bd ec fc eb bb
       -0.0533223 -0.041998904 -0.036147583 -0.0072017815
0001c0 01 ae 1f 3d 58 9a 17 bd 08 d7 9c bd f5 f2 3a bd
       0.038984302 -0.037012428 -0.076582015 -0.045641858
0001d0 9a 31 04 3c 9c 94 3d 3c 98 51 3d bd ab 31 3c bb
       0.008068467 0.011571076 -0.046220392 -0.0028716128
0001e0 90 78 d5 3c f9 17 c6 3c 9a 16 64 bd f0 1e 8c bb
       0.026058465 0.024181353 -0.055685617 -0.004276149
0001f0 cf f8 79 bc ed ee 7f bd 30 82 a6 bd db 70 d9 bd
       -0.0152570745 -0.062483717 -0.081303 -0.106172286

weight f4 [12, 128]
000000 f6 1c 38 bd e4 0c 13 3d 38 c2 80 3d 1b a3 6c bb
       -0.044949494 0.035900965 0.06287044 -0.003610796
000010 e8 21 38 bd 7e c2 4a 3d 78 f8 ab 3c cb bc 4b 3d
       -0.04495421 0.04950189 0.020992503 0.049740594
000020 df 13 5d 3d 3a 3e 80 3c 1e c9 34 bc 6c 72 1c 3c
       0.05397403 0.015654672 -0.011034278 0.009548765
000030 74 71 57 bc f4 22 a0 bd 72 6d 02 3d d8 d4 42 bc
       -0.013149608 -0.07819167 0.031842656 -0.011891566
000040 58 68 1e bd a6 93 ef 3b 53 79 95 3c 97 bb 0e 3c
       -0.03867373 0.0073113022 0.018246328 0.008711717
000050 d7 75 be bb bf f9 c3 3c 5e 1a d3 3c df 4a e7 3c
       -0.0058123874 0.0239228 0.025769409 0.028233944
000060 33 85 16 bd e7 96 a4 3d 1f 83 8a 3d 97 1c 45 3d
       -0.036748122 0.08036595 0.067632906 0.04812297
000070 aa f1 b0 3c 34 98 83 bd 03 be f1 bc 7b f6 1a bc
       0.02159961 -0.06425515 -0.02950955 -0.00945818
000080 1f a9 a2 bc 4e eb b7 3d e6 90 f9 3c 63 a4 bd bc
       -0.019856034 0.08980428 0.0304646 -0.023149675
000090 a2 29 f0 3c b6 fa 06 3d 51 c3 34 bd a7 3d bd 3c
       0.029316727 0.03295394 -0.04413158 0.023100687
0000a0 f4 55 12 bd e3 e7 e0 3c b4 e1 c3 bc b8 54 d2 3c
       -0.035726503 0.027454322 -0.023911335 0.025675163
0000b0 4e 4a e4 bc 4a cc b9 3c 75 c1 eb 3c e1 39 b7 bb
       -0.027867462 0.02268042 0.028778771 -0.0055916165
0000c0 25 1c 57 3d 99 79 c7 3c f9 64 49 3c 97 2f ac bd
       0.052517075 0.024349974 0.01229214 -0.084075145
0000d0 9a d7 51 3c 34 b8 3a 3b 32 75 29 bc 1e bb 22 3d
       0.012807751 0.0028491141 -0.010342883 0.03972923
0000e0 83 86 7e 39 0b a5 71 bb 95 e4 27 bd 4d 7a bb bb
       0.00024273437 -0.0036872055 -0.040989477 -0.0057213665
0000f0 38 ce 2e bd 74 43 53 b9 c7 49 77 3b a5 a8 ab bb
       -0.042677134 -0.00020147656 0.0037733184 -0.00523861
000100 d9 9e a6 3c 6a 88 b7 3c 13 3d 3d 3d 7f e2 b7 bb
       0.020339416 0.022403914 0.046200823 -0.0056117172
000110 a9 16 84 3c 90 c8 7e 3c 16 a1 88 3c c9 ba 06 bd
       0.016124086 0.0155507475 0.016678374 -0.032892976
000120 46 f0 0f 3d c3 40 08 bd b8 9b 2d 3d e4 32 42 bb
       0.035141252 -0.033264887 0.042384833 -0.0029632384
000130 aa c0 f9 bc 3a 3b e1 bc c5 8b 4e 3c 90 ab 4b bd
       -0.030487377 -0.027494062 0.012606566 -0.04972416
000140 cc 25 03 bd 59 32 78 bc 05 00 31 bd 18 1d 02 bd
       -0.032018468 -0.015148723 -0.04321291 -0.031766027
000150 08 eb 7d bd 29 65 ad bc a5 1e 57 bd d9 96 5d bc
       -0.06199172 -0.021166401 -0.05251946 -0.013524734
000160 b9 b2 15 3d 89 76 d7 bc 21 3d 6c 3c 82 34 8c 3d
       0.036547396 -0.02630164 0.014418871 0.068459526
000170 1b 88 0d 3d ad 47 b8 3c 7d d4 93 bd 8a fc 16 3c
       0.03455363 0.022495115 -0.07218263 0.009215483
000180 09 d2 cd bc 5f 00 cf 3c 29 52 dc bb fe b0 ef bb
       -0.025124567 0.025268732 -0.0067236614 -0.0073148003
000190 1f 0b b5 3c 62 83 4c 39 98 1f a6 bd 02 53 f0 3c
       0.02210003 0.000195039 -0.08111495 0.029336456
0001a0 77 e4 5a bd 42 3a b5 3c 8e 0a 8a bd 17 6a 43 bc
       -0.053440537 0.022122506 -0.067402944 -0.011927149
0001b0 ce 13 3c 3d e2 43 92 3c d8 ec 0e 3c 67 a6 d0 bd
       0.045917325 0.017854635 0.00872346 -0.10187989
0001c0 ea fe a2 ba 84 9b aa bd 4d ff 01 3d a0 24 5b 3d
       -0.001243559 -0.083304435 0.031737614 0.053501725
0001d0 5d e7 8f bd ad ba fd bc f4 40 7b 3d 8a 8f 04 bd
       -0.07026551 -0.030972803 0.06134124 -0.032363452
0001e0 0a 6f 47 bd b6 0b db 3c cd 68 d0 39 e9 fc d6 3b
       -0.04868988 0.026738983 0.00039750934 0.006560911
0001f0 76 0f b9 bc c6 a7 af 3c 0a af 14 3d 50 36 e8 3a
       -0.02259038 0.021442305 0.036299743 0.0017716382
000200 96 25 fe bc b1 bb 64 bc 7a 1a ef 3c 70 2b 31 bb
       -0.031023782 -0.013960765 0.02918743 -0.0027033947
000210 bc 2b 6d bd 62 58 05 bd 2e ae 44 bd 3b d6 cb 3d
       -0.057903036 -0.03255499 -0.048017673 0.099529706
000220 8f 3b 81 bb e1 7b 57 ba 72 59 1d 3d 7a 3e 23 bd
       -0.0039438675 -0.00082200585 0.03841538 -0.039854504
000230 a8 53 50 3c fa a9 af 3b e0 e7 5a bd 82 a9 9c bc
       0.012715258 0.005360839 -0.05344379 -0.019123796
000240 0f ae ad bc 1f 29 89 bc 3c 18 3b 3d ab d5 3a 3c
       -0.021201162 -0.01674324 0.04567741 0.0114034815
000250 a4 be 43 bc 73 c1 c7 bc 93 c8 9b bc 95 fc d1 bc
       -0.011947308 -0.024384236 -0.01901654 -0.025633136
000260 bb f7 36 bd 40 3d 09 bd 8d e8 e8 bc 26 70 57 3d
       -0.044669848 -0.03350568 -0.028431201 0.052597187
000270 8f 23 9c 3b 56 81 b1 3d a6 d9 9b bc 88 b0 0d 3d
       0.004764981 0.08667247 -0.019024681 0.03459218
000280 55 62 47 bc 72 2b 80 bd b2 76 5f 3b 62 47 71 3c
       -0.01216944 -0.062582865 0.0034097848 0.014726492
000290 f9 d4 18 3d 4d 75 48 3d 00 2c b6 3d 1b e7 77 3d
       0.03731248 0.04893999 0.08895111 0.060523134
0002a0 8a cf 8c bc d2 50 b9 bc 09 1b 03 bc 99 d9 fd bc
       -0.017188806 -0.022621546 -0.008002051 -0.030987548
0002b0 1f bd 07 3d b1 ba 4c bd b4 b1 58 bd 81 aa ec bc
       0.033139344 -0.04998273 -0.052903846 -0.028889896
0002c0 26 55 7f 3c 84 33 59 bc 93 a6 97 bb b1 1e 55 3a
       0.015584266 -0.013256911 -0.0046280115 0.00081298786
0002d0 07 f4 84 bb d3 13 5f 3d 45 2d ce bd 7f 50 49 3d
       -0.0040574106 0.054462265 -0.10067228 0.049149033
0002e0 1d fd c0 bd 03 24 e5 bc 6f eb ac bd ff b0 b0 bb
       -0.094232775 -0.027971273 -0.08443343 -0.0053921933
0002f0 34 3a 8b bc 74 ea 41 bd f3 92 99 bc 09 26 a3 bb
       -0.016995527 -0.047342733 -0.018746829 -0.0049788994
000300 2f 94 0f bd 25 ef 94 3c 03 f0 8b bd 10 5b ae 3d
       -0.03505343 0.01818044 -0.06832888 0.085134625
000310 ad e0 9a 3b 0b 88 1d 3d 91 45 21 bc a9 68 14 3d
       0.0047264905 0.03845982 -0.009843246 0.036232624
000320 7c 08 da bc b1 a8 ce bb cd 6d 16 3d 3b d3 97 3c
       -0.026615374 -0.0063067307 0.036725808 0.01853334
000330 1a 36 35 bd 42 de f2 3c 72 ca b2 3a 74 38 bc 3c
       -0.04424105 0.029646996 0.0013640656 0.022976138
000340 7d 33 69 3b 5b e3 f0 3b a7 86 55 3c 6f 4f 10 bd
       0.0035583668 0.0073513216 0.013032592 -0.035232004
000350 1e e9 9f 3c 4c fa e2 bd 94 49 14 bd 72 09 09 3d
       0.019520339 -0.110828966 -0.036202982 0.033456273
000360 1b b5 ad bb 5e 81 63 bd fd 40 3b 3c f8 ae e4 3c
       -0.0053011305 -0.055543296 0.011429069 0.027915463
000370 94 9c fc bc 7f c7 87 3c 4a dd 76 3c 55 6c 2c 3d
       -0.030836381 0.01657462 0.015067408 0.0420955
000380 a2 94 02 3d 35 f8 55 bd 81 46 a3 bd c4 c0 f9 bc
       0.03188003 -0.05223866 -0.07972432 -0.030487426
000390 83 b1 ab bb b5 e2 9f 3c 8d a3 00 bd 63 9b 3d 3c
       -0.005239667 0.019517282 -0.031405974 0.011572692
0003a0 c3 a9 8d 3b 04 54 51 3d c8 58 96 3d 72 8f e4 bb
       0.0043232157 0.051105514 0.073411524 -0.006975108
0003b0 ff 15 e4 3c 41 43 5c 3c 9d 44 d2 bc c9 9b f2 bc
       0.02784252 0.013443769 -0.025667483 -0.0296153
0003c0 75 b9 ba bb 0e 39 39 3c 1b cd 57 bd 22 ad c4 3c
       -0.0056983777 0.011305107 -0.05268584 0.024008337
0003d0 cc 0e eb bc 88 ee 0b bd e0 71 06 bd ba 3e 0e 3d
       -0.02869358 -0.034163028 -0.032823443 0.03472779
0003e0 dc b5 f1 3b 52 c6 de bc b3 92 a0 bb 1f 48 b7 bd
       0.0073764157 -0.027194176 -0.0049003004 -0.08949303
0003f0 3f e7 42 bc 03 c3 14 bd 44 e3 1c bc f5 e2 02 3d
       -0.011895954 -0.03631879 -0.009575669 0.031954724

bias f4 [12]
000000 c3 a0 29 bc cf cb 1b bd 7d 61 70 3c c6 f6 19 3e
       -0.01035327 -0.038036164 0.0146716805 0.15035543
000010 fa 51 f1 3d 84 b7 11 bd c7 a8 d0 bc a1 ed 5e bb
       0.11783214 -0.035575405 -0.025471104 -0.003401615
000020 8b ba f0 bc 4c a7 c2 3d a0 af 80 3d 31 73 2a 3c
       -0.029385826 0.095045656 0.06283498 0.01040344
