policies/policy_rough.pt (torch, 775456 bytes, 8 tensors)

weight f4 [512, 48]
0	0x3e7fffaf	0.2499988
1	0xbcfdf300	-0.03099966
2	0xbeaf8603	-0.3428193
3	0xbdcd11ff	-0.10013198
4	0x3b78d9db	0.003797165
5	0xbe888d9c	-0.2667054
6	0x3d31e16d	0.043427873
7	0x3d90220b	0.07037743
8	0x3db3886e	0.08766256
9	0x3f12db98	0.57366323
10	0xbdbcc9d3	-0.092181824
11	0x3e8e9598	0.27848506
12	0xbde092d2	-0.10965504
13	0xbf043558	-0.51643896
14	0xbe083efb	-0.13305275
15	0x3d4d9ffb	0.050201397
16	0xbec8f0ab	-0.39246115
17	0x3d8ff9e9	0.070300885
18	0xbecd02d5	-0.40041223
19	0xbd00f726	-0.0314857
20	0xbdfbd635	-0.12296716
21	0x3e34c9b9	0.17655076
22	0x3e3e94a4	0.1861139
23	0x3dc37db8	0.09545463
24	0x3e1b5675	0.151697
25	0xbdbf9c40	-0.09355974
26	0xbc7ee9c4	-0.015558664
27	0xbd2c5894	-0.042076662
28	0xbd29275c	-0.0412973
29	0x3be974ae	0.007124505
30	0xbc5fac6d	-0.013651949
31	0x3ca23373	0.019799924
32	0xbc12e46b	-0.008965592
33	0xbd76bf65	-0.06024112
34	0x3c924373	0.017854428
35	0x3cad9735	0.021190265
36	0xbdc14762	-0.09437443
37	0x3c37c9aa	0.011217514
38	0x3e014ca8	0.12626898
39	0x3e09f133	0.13470916
40	0xbd8d41e6	-0.06897335
41	0xbd3a139e	-0.045428865
42	0xbd202c1c	-0.039104566
43	0x3d2024ec	0.03909771
44	0x3cef7098	0.029228494
45	0xbc2708fd	-0.010195014
46	0x3d57d3ac	0.0526921
47	0xbe0fd1a5	-0.14044817
48	0x3e400ff2	0.18756083
49	0xbe923f6c	-0.28564012
50	0xbe8d7100	-0.27625275
51	0x3e351604	0.1768418
52	0xbe5e8fc8	-0.21734536
53	0x3bba9e1a	0.0056951167
54	0x3f59b6b2	0.85044396
55	0xbe786a9a	-0.24259415
56	0xbe222202	-0.15833285
57	0xbe94de1d	-0.2907571
58	0x3e853527	0.26017115
59	0x3d033512	0.032033034
60	0x3db4bcd5	0.08825079
61	0xbe607b6c	-0.21922082
62	0x3d57a1fa	0.052644707
63	0xb9a37c75	-0.0003118251
64	0x3eeca469	0.46219185
65	0xbe8224a9	-0.25418594
66	0xbd720e1d	-0.05909549
67	0x3c6d4f88	0.014484294
68	0x3dcc75de	0.09983419
69	0x3eb536bb	0.3539332
70	0x3e2b390d	0.16720982
71	0xbe098926	-0.13431224
72	0x3d4ca868	0.049965292
73	0xbd9bb26f	-0.07602393
74	0x3d20f6be	0.03929781
75	0x3d35b960	0.04436624
76	0xbc84f3fb	-0.01622962
77	0x3c19ae59	0.009379947
78	0x3afc06d1	0.0019228106
79	0xbc1415ea	-0.009038428
80	0x3cf5a8a8	0.029987648
81	0x3d1381ec	0.036012575
82	0xbd2c76cc	-0.04210548
83	0xbc57b96b	-0.013166766
84	0x3d8f2058	0.06988591
85	0x3cfafd65	0.030638406
86	0xbd0cc45f	-0.03436696
87	0xbd963d5c	-0.07335922
88	0x3d998839	0.074966855
89	0xbe075cc4	-0.13218981
90	0x3d2b6234	0.0418417
91	0xbd942042	-0.07232715
92	0xbc4e73e8	-0.012600876
93	0x3ccccee3	0.025000995
94	0x3e18848f	0.14894317
95	0x3ddfe500	0.1093235
96	0xbeadafff	-0.33923337
97	0xbebb737b	-0.36611542
98	0x3e4eac06	0.20182809
99	0x3d423752	0.04741604
100	0x3daa5b39	0.083181806
101	0x3c0cee2c	0.0086017065
102	0xbef33906	-0.47504443
103	0xbefd1975	-0.49433485
104	0x3dc60075	0.09668056
105	0x3c0072ce	0.007839872
106	0x3edc762c	0.43058908
107	0x3ef4bb23	0.47799024
108	0x3e20e907	0.15713893
109	0x3de50c2c	0.11183962
110	0xbe4a8f85	-0.19781311
111	0x3f05fea4	0.52341676
112	0x3c09fd05	0.008422141
113	0xbb83dc5d	-0.004024072
114	0x3e8fc7c9	0.2808211
115	0x3eda8a6b	0.4268373
116	0xbe0fe8be	-0.14053628
117	0xbe10b653	-0.14132051
118	0xbea2998c	-0.31757772
119	0x3e372d63	0.17888407
120	0xbd5591e9	-0.052141104
121	0x3c5440e9	0.012954929
122	0x3d694d6d	0.056958605
123	0xbd2db697	-0.04241046
124	0x3c0da52a	0.008645335
125	0xbd895474	-0.06705561
126	0xbc46361a	-0.01209786
127	0x3c416be5	0.011805509
128	0x3c8b9e46	0.017043244
129	0xbd8de5ef	-0.06928622
130	0xbd4a33b3	-0.04936571
131	0xbc2bac4a	-0.010478089
132	0xbd889b7b	-0.066702805
133	0x3d174434	0.036930278
134	0xbd2a97e9	-0.04164878
135	0xbd057315	-0.032580454
136	0xbd0085e1	-0.031377677
137	0x3dae8e8e	0.08523284
138	0x3ce69e3b	0.028151622
139	0x3cf92499	0.030412959
140	0xbc6b99eb	-0.014379959
141	0x3d814556	0.06312053
142	0xbe05ccf6	-0.13066468
143	0xbd8d5ebc	-0.06902835
144	0xbd958f9c	-0.07302782
145	0x3d8a2938	0.06746143
146	0xbe23be7b	-0.15990631
147	0xbd4e1e0e	-0.05032163
148	0x3da0d140	0.07852411
149	0x3d1cd5f9	0.038289998
150	0x3ee8a2ed	0.45436803
151	0x3efa4cb6	0.4888665
152	0xbd941d69	-0.07232172
153	0x3eb5df24	0.35521805
154	0xbf504d74	-0.81368184
155	0xbe36350e	-0.17793676
156	0xbe358051	-0.1772473
157	0xbe11d601	-0.14241792
158	0xbdf13d8e	-0.11779319
159	0xbe415fcc	-0.188842
160	0x3e475418	0.19465673
161	0xbc8b32fb	-0.016992083
162	0xbb77b200	-0.0037795305
163	0xbe207c20	-0.1567235
164	0x3e041da8	0.12901938
165	0x3d6120dd	0.05496298
166	0x3ec3d99a	0.38251954
167	0x3e371db7	0.17882429
168	0xbdc14f3d	-0.09438942
169	0x3c2735c9	0.0102056945
170	0xbd0b6264	-0.03402938
171	0x3c87006b	0.016479691
172	0x3c4d5b02	0.012533905
173	0xbcd855a5	-0.026408026
174	0x3c886ade	0.01665252
175	0x3d75f300	0.060046196
176	0x3dc7e213	0.09759917
177	0x3dac8c22	0.08425166
178	0x3d6af8c6	0.057366155
179	0x3d6c4d3b	0.05769084
180	0xbdac1afc	-0.08403584
181	0x3b210038	0.002456678
182	0xbe0c7ba7	-0.13719045
183	0xbd9ae82e	-0.07563816
184	0x3df9c000	0.12194824
185	0x3cd70512	0.026247535
186	0xbca2e134	-0.019882776
187	0xbdd4cd30	-0.10390699
188	0xbe24d21f	-0.1609578
189	0xbdea6a18	-0.11446017
190	0x3d819e41	0.06329013
191	0xbd3db580	-0.04631567
192	0x3f037278	0.5134654
193	0xbdef6d21	-0.116907366
194	0xbd9b77bf	-0.07591199
195	0x3bd1d469	0.006403495
196	0xbead4f6d	-0.3384966
197	0x3dfb65c3	0.12275269
198	0x3ed955c7	0.42448255
199	0xbdb2f403	-0.08737948
200	0x3e1d6672	0.15371111
201	0xbcacb7f2	-0.021083806
202	0x3e99cbc9	0.30038288
203	0xbc9a33a7	-0.018823458
204	0xbe3946d8	-0.18093431
205	0x3e995b8f	0.29952666
206	0x3f0ca348	0.5493665
207	0xbe38adda	-0.18035069
208	0x3ead5469	0.33853462
209	0xbe3d0242	-0.18457893
210	0xbeca50ee	-0.3951487
211	0xbef2e161	-0.47437575
212	0x3e41926b	0.1890351
213	0x3daa259a	0.08307953
214	0x3dfbcd8b	0.122950636
215	0x3eb2d2a2	0.34926325
216	0x3cd0fcf7	0.025511248
217	0xbcbd72f9	-0.023126112
218	0xb897b1d2	-7.233363e-05
219	0x3dc06923	0.09395053
220	0xbdad2873	-0.08454981
221	0x3d6c3795	0.057670195
222	0xbd6821a6	-0.056672715
223	0xbd161eac	-0.036650345
224	0x3c70e6f8	0.014703505
225	0x3a80dd5d	0.0009831596
226	0xbccec197	-0.025238795
227	0xbbea9be7	-0.0071596983
228	0x3c043d0b	0.008071194
229	0x3cfebcd7	0.031095905
230	0x3d500636	0.050787173
231	0xbe3604c2	-0.17775252
232	0x3d9425bb	0.07233759
233	0xbe2167c7	-0.15762244
234	0x3d6743ae	0.05646103
235	0xbd56c7ac	-0.052436516
236	0xbe06bad7	-0.13157211
237	0xbe0950fd	-0.13409801
238	0x3cc1570c	0.023601077
239	0xbe4e9c1d	-0.2017674
240	0x3e17024a	0.14746967
241	0x3ec9964e	0.39372486
242	0xbee9ed35	-0.45688787
243	0x3d89ecfe	0.06734656
244	0xbe4bf951	-0.19919325
245	0x3e13ce8f	0.14434265
246	0x3f067774	0.5252602
247	0x3e4526be	0.1925306
248	0x3ddabaab	0.10680135
249	0xbe696640	-0.22792912
250	0xbf10821d	-0.5644854
251	0x3e93a86a	0.28839427
252	0x3dfb628d	0.122746564
253	0xbda53e88	-0.080685675
254	0x3d84e7b1	0.06489504
255	0x3e718e1c	0.23589367

bias f4 [512]
0	0x3dc756bd	0.09733341
1	0x3e3a5799	0.18197478
2	0x3d24970f	0.040183123
3	0x3ddbf3eb	0.10739883
4	0x3ade2a3e	0.0016949845
5	0x3e05315d	0.13007112
6	0xbe3956ba	-0.1809949
7	0xbe0f7822	-0.14010671
8	0xbdea3010	-0.114349484
9	0x3dd5408d	0.10412703
10	0xbd811b9d	-0.06304095
11	0x3d949bdb	0.072562896
12	0xbd2b8bbe	-0.041881315
13	0x3e5ef3cc	0.21772689
14	0x3d77e2f5	0.060519177
15	0xbe387a69	-0.18015446
16	0x3db79139	0.08963246
17	0x3da210f4	0.0791339
18	0xbdade288	-0.08490473
19	0x3dc33ce6	0.095331
20	0xbca9d3ba	-0.020730842
21	0xbe1be08b	-0.15222375
22	0xbe3b023a	-0.18262568
23	0x3cc45bcd	0.023969555
24	0xbce08240	-0.027405858
25	0xbd548bd1	-0.05189115
26	0xbd2d4cc2	-0.04230953
27	0xbd35b181	-0.044358734
28	0x3de94004	0.11389163
29	0x3d05dd09	0.0326815
30	0xbe260a3c	-0.16214842
31	0xbd84fe8e	-0.06493865
32	0xbc8811a0	-0.016609967
33	0xbdc85b62	-0.09783055
34	0x3dd92ed8	0.10604638
35	0xbe4e5933	-0.20151214
36	0x3ce05225	0.02738292
37	0xbda9ba30	-0.082874656
38	0x3e04b53a	0.12959757
39	0xbe804403	-0.2505189
40	0xbcff3408	-0.03115274
41	0xbe057190	-0.13031602
42	0x3e111a3a	0.14170161
43	0xbdb874c1	-0.09006644
44	0x3da8c76c	0.08241162
45	0xbe1657e7	-0.1468197
46	0x3df12bce	0.11775933
47	0x3e176209	0.14783491
48	0x3d70b2a4	0.058764115
49	0xbe058241	-0.13037969
50	0xbd756169	-0.05990735
51	0xbd9f5439	-0.07779736
52	0xbd8b322e	-0.067966804
53	0xbdb4d80c	-0.0883027
54	0x3e2c00d1	0.16797186
55	0xbd7ad556	-0.06123861
56	0xbcbc8429	-0.023012238
57	0xbc9ae425	-0.018907616
58	0xbcf13fae	-0.02944931
59	0x3d9422f1	0.07233227
60	0xbe1165a4	-0.14198929
61	0xbe5db38a	-0.2165052
62	0x3a70fc09	0.00091928296
63	0xbd90ecf6	-0.07076447
64	0xbd61f7dd	-0.05516802
65	0x3c386dd5	0.011256655
66	0x3d95436d	0.07288251
67	0x3da2dbc1	0.07952071
68	0xbc874de8	-0.01651664
69	0xbd6d053a	-0.057866313
70	0xbe26ccdc	-0.16289085
71	0x3cd00ecd	0.025397683
72	0x3e284a1a	0.16434518
73	0xbe23b263	-0.15986018
74	0xbd9e921e	-0.077427134
75	0xbdf2be9c	-0.11852762
76	0x3d7e5ba7	0.062099125
77	0xbe36046e	-0.17775127
78	0x3d5fd269	0.054644022
79	0xbe324e51	-0.17412688
80	0xbda83ca2	-0.0821469
81	0xbc1e6583	-0.009667757
82	0xbc138efa	-0.009006256
83	0xbd27ae86	-0.040937923
84	0xbd6203de	-0.05517947
85	0xbd90a650	-0.070629716
86	0x3d05f5b4	0.032705024
87	0x3d12de0b	0.035856288
88	0x3dbb9e7d	0.091610886
89	0xbe188e82	-0.14898112
90	0x3e61d8da	0.22055379
91	0x3e81c324	0.25344193
92	0xbd944bec	-0.072410434
93	0x3c77c735	0.015123178
94	0x3dd788a2	0.105241075
95	0xbc79d00b	-0.015247355
96	0xbdd3addd	-0.10335896
97	0xbe5195b6	-0.20467266
98	0xbe15eeee	-0.14641926
99	0xbddd7749	-0.108137675
100	0x3dff94e1	0.12479568
101	0xbdbf2541	-0.093332775
102	0x3dcae5b0	0.09907091
103	0xbdd2c60f	-0.10291683
104	0x3dedfa7c	0.11620042
105	0xbda74f6e	-0.08169447
106	0x3e2ef284	0.170847
107	0x3e00c847	0.125764
108	0x3e4142e7	0.18873177
109	0x3db61e3d	0.08892486
110	0xbe345581	-0.17610742
111	0x3dad4411	0.08460248
112	0xbd8f661b	-0.07001897
113	0xbdec7057	-0.115448646
114	0x3dfe62b4	0.1242117
115	0xbe3c32c6	-0.18378744
116	0x3e11758e	0.14205
117	0xbe2c4e3d	-0.1682672
118	0xbe18f53d	-0.14937301
119	0x3cf62887	0.030048622
120	0x3db2f8b0	0.087388396
121	0x3e767215	0.24066956
122	0x3e2b7c9a	0.1674675
123	0xbe67a290	-0.22620606
124	0x3d74cc13	0.059764933
125	0x3e5b87e9	0.21438564
126	0x3d9434b1	0.072366126
127	0x3e348be1	0.17631485
128	0x3d15ddf7	0.036588635
129	0xbe14a1d6	-0.1451486
130	0x3ce549b4	0.027989246
131	0x3e057ae6	0.13035163
132	0xbe4890f8	-0.19586551
133	0xba60775e	-0.0008562709
134	0x3dc9a3e0	0.0984571
135	0xbc04472a	-0.008073607
136	0x3c6e4692	0.014543192
137	0x3d3d8ae7	0.046275046
138	0x3d6febb7	0.058574405
139	0x3d363522	0.044484265
140	0xbdd752ad	-0.10513816
141	0x3c809827	0.015697552
142	0x3e8188b8	0.2529962
143	0x3d49ed06	0.04929831
144	0xbd750e3d	-0.05982803
145	0xbdfb7519	-0.12278194
146	0x3d983ad8	0.074330986
147	0x3e3246d5	0.17409833
148	0xbcaf9e63	-0.02143783
149	0xbe1717c3	-0.14755158
150	0xbdb83661	-0.08994747
151	0xbdb9551e	-0.09049438
152	0xbdb45bd4	-0.08806577
153	0x3db55fb7	0.08856147
154	0x3cd86fe9	0.02642055
155	0x3e039192	0.128485
156	0xbdd05402	-0.10172273
157	0x3d4d49ff	0.050119396
158	0xbcbe5b2e	-0.023236837
159	0xbe024d5e	-0.12724826
160	0x3babd821	0.0052442704
161	0xbc29f915	-0.010374327
162	0x3e36c8e9	0.17850079
163	0x3ca1059c	0.019655995
164	0x3cc8598d	0.024456764
165	0xbe202b2d	-0.1564147
166	0xbe50a8f2	-0.20376948
167	0xbe0d4f37	-0.1379975
168	0x3dbb5dd0	0.09148753
169	0xbceee124	-0.02916009
170	0x3d48d585	0.049031753
171	0xbe48dbc7	-0.19615088
172	0x3dc9d633	0.098553084
173	0xbdf12d88	-0.117762625
174	0x3d761303	0.060076725
175	0xbe2428f8	-0.16031253
176	0xbe81976d	-0.2531084
177	0xbe3ffc7d	-0.1874866
178	0x3e17de28	0.1483084
179	0x3e7ae805	0.24502571
180	0x3d837a67	0.06419831
181	0x3c13a9c2	0.009012641
182	0x3ddb336d	0.10703168
183	0xbd5922b3	-0.053011607
184	0x3d92d064	0.071686536
185	0x3dea233e	0.11432503
186	0x3dcb3b32	0.099234
187	0x3ded565a	0.11588736
188	0x3d5f59ab	0.054528873
189	0xbda46573	-0.080271624
190	0xbdeb6a98	-0.114949405
191	0x3d3e20de	0.046418063
192	0x3e047b28	0.12937605
193	0xbdb11b1e	-0.0864775
194	0x3e5202fb	0.2050895
195	0xbd094bd4	-0.03351958
196	0xbd6ed3e2	-0.058307536
197	0xbe009c72	-0.12559679
198	0xbda128f6	-0.07869141
199	0x3d372b92	0.044719286
200	0xbe4719aa	-0.19443384
201	0x3e2827d6	0.16421446
202	0x3e385260	0.18000174
203	0x3e28f0d5	0.1649812
204	0x3dbe8b40	0.093039036
205	0xbcbd9fce	-0.02314749
206	0xbd78227b	-0.06057976
207	0xbddfb493	-0.10923114
208	0xbdfc1fc2	-0.12310745
209	0xbe2fa38d	-0.17152233
210	0x3dcc4b2b	0.09975275
211	0x3d055c1e	0.032558553
212	0xbe53ed12	-0.20695904
213	0x3d7ab408	0.061206847
214	0x3e16b2ec	0.14716691
215	0xbd0947b2	-0.03351564
216	0x3d968811	0.07350171
217	0x3bdbc543	0.006706865
218	0xbdb0fb34	-0.08641663
219	0x3cac921f	0.02106577
220	0xbc813c12	-0.015775714
221	0xbe04df39	-0.12975778
222	0x3e44752c	0.19185323
223	0xbd983e84	-0.07433799
224	0x3d3fd009	0.046829257
225	0xbdf37368	-0.11887246
226	0xbe03df4d	-0.12878151
227	0x3b3c182c	0.002870093
228	0x3da33003	0.07968142
229	0xbda2af06	-0.07943539
230	0x3c6c544e	0.014424397
231	0x3e120809	0.14260878
232	0xbdacc8d7	-0.08436745
233	0x3dadfc5d	0.084954
234	0x3d80b625	0.06284741
235	0xbdc4ea0e	-0.09614955
236	0xbe4d1b62	-0.20029977
237	0x3e64ba8c	0.22336787
238	0xbd961aaa	-0.073293045
239	0x3e37bfc5	0.17944248
240	0x3d0e6fa0	0.034774423
241	0xbcf365f8	-0.029711708
242	0xbd8c8c9c	-0.068627566
243	0xbde546b0	-0.11195123
244	0x3c431823	0.01190761
245	0xbe237d12	-0.1596568
246	0xbdd59591	-0.10428918
247	0xbe439fee	-0.19103977
248	0x3dbc1e93	0.09185519
249	0xbc6a0037	-0.014282278
250	0xbda2b424	-0.07944515
251	0xbe0cc2bb	-0.13746159
252	0xbdc92c36	-0.09822886
253	0xbd4f93d3	-0.050678086
254	0xbbde91d3	-0.006792286
255	0xbd0bed36	-0.03416177

weight f4 [256, 512]
0	0x3c864155	0.016388575
1	0xbd01a72c	-0.03165357
2	0x3bf0e963	0.0073520406
3	0x3cf6f1f1	0.030144664
4	0xbde9dc62	-0.11418988
5	0x3c85cbbe	0.016332503
6	0xbcd3983e	-0.02582943
7	0x3daf73ad	0.08566985
8	0xbde54984	-0.111956626
9	0x3d0ccda1	0.03437579
10	0xbc90e93f	-0.017689345
11	0xbe276143	-0.16345696
12	0xbd7b27e0	-0.061317325
13	0xbe2510ce	-0.16119692
14	0xbc1d5080	-0.009601712
15	0xbd5160a5	-0.051117558
16	0xbd64f6bd	-0.05589937
17	0xbd84c314	-0.06482521
18	0xbc42be92	-0.011886256
19	0xb9ec45be	-0.0004506539
20	0xba77650e	-0.00094373606
21	0x3da7fa44	0.08202031
22	0x3ad77f85	0.0016441202
23	0xbd22d26a	-0.039751448
24	0xbba27a1e	-0.004958405
25	0xbd4de1dc	-0.050264224
26	0xbe124a37	-0.14286123
27	0xbdaf36d4	-0.085553795
28	0xbc24f86a	-0.010068992
29	0xbd93b369	-0.07211954
30	0xbd22347c	-0.039600834
31	0xbddda858	-0.10823125
32	0xbd915c3a	-0.07097669
33	0x3d5e81a7	0.054322865
34	0x3cbb855d	0.022890741
35	0x3cedb186	0.029015314
36	0xbe09d00c	-0.1345827
37	0xbca43013	-0.020042455
38	0xbc7210b4	-0.01477449
39	0xbe46b5c3	-0.19405274
40	0x3d8d8ad2	0.069112435
41	0xbd87510b	-0.066072546
42	0x3d455899	0.048180196
43	0x3c6e236a	0.014534811
44	0x3c201baf	0.009772225
45	0x3c92f5e7	0.017939521
46	0x3cf848e6	0.030308198
47	0x3d3a46d2	0.045477696
48	0x3d694824	0.056953564
49	0xbd7a1743	-0.06105734
50	0xbde295c9	-0.110637255
51	0x3af360a6	0.0018568232
52	0x3dce81fc	0.10083386
53	0xbdcaa4db	-0.09894725
54	0x3ced1c6e	0.02894422
55	0xbda4dbf7	-0.080497675
56	0x3dd531e9	0.1040991
57	0x3d51929e	0.051165216
58	0xbde67ebf	-0.11254644
59	0x3c649b23	0.013953003
60	0xbe7303f9	-0.23731984
61	0xbcf95d9c	-0.030440144
62	0x3d194fbf	0.037429567
63	0xbdf6173b	-0.120161496
64	0xbd4b8656	-0.04968866
65	0xbd66a0c8	-0.056305677
66	0x3d82f812	0.06394972
67	0xbe3e11ba	-0.1856145
68	0x3e328526	0.17433605
69	0xbca7dba0	-0.020490468
70	0xbce190ac	-0.027534805
71	0x3d91338d	0.07089911
72	0xbcbb6558	-0.022875473
73	0xbc980945	-0.018559108
74	0x3c83d80f	0.016094236
75	0x3d52f7dd	0.051505912
76	0x3d16375f	0.0366739
77	0xbd9d08d3	-0.07667699
78	0xbc67f018	-0.014156364
79	0x3bd97bbf	0.006637066
80	0x3bbc0977	0.005738433
81	0xbd9c9306	-0.0764523
82	0xbcc6022b	-0.024170956
83	0x3dc1ccef	0.09462916
84	0x3e0fd3cf	0.14045642
85	0x3e374f09	0.17901243
86	0xbe7abecb	-0.24486844
87	0x3d247632	0.040151782
88	0x3d178f48	0.037001878
89	0xbd958c78	-0.07302183
90	0x3d5fb4e3	0.054615866
91	0xbdba5078	-0.090973794
92	0x3d90e214	0.07074371
93	0x3c04ac85	0.0080977725
94	0x3c8fb523	0.017542427
95	0xbd9a72d3	-0.07541432
96	0x3c07ae9f	0.008281379
97	0x3d9aa410	0.07550824
98	0x3c139db5	0.009009768
99	0xbda53a1e	-0.080677256
100	0xbd0f2210	-0.034944594
101	0xbc288e09	-0.01028777
102	0x3dd1469a	0.10218544
103	0xbd27c814	-0.040962294
104	0x3d647331	0.055773918
105	0xbd890a38	-0.06691402
106	0xbdfdb5c3	-0.12388184
107	0xbd482be9	-0.04887
108	0x3e0cd473	0.13752918
109	0xbc44aa62	-0.012003513
110	0x3dd5890f	0.104265325
111	0x3c04c938	0.008104615
112	0x3dc9a696	0.09846227
113	0x3c841f06	0.016128074
114	0x3d8964bd	0.067086674
115	0x3d99f8f8	0.0751819
116	0x3dd7a643	0.10529759
117	0x3ddb28ef	0.10701167
118	0x3d8d60a2	0.06903197
119	0x3cc4240c	0.02394297
120	0xbdf5b91e	-0.11998199
121	0x3dc80e28	0.09768325
122	0xbe450c29	-0.1924292
123	0xbc885a0b	-0.016644498
124	0x3cd37857	0.025814218
125	0x3c93e5a0	0.01805383
126	0x3b84b861	0.0040503
127	0xbd848fd5	-0.06472746
128	0xbbd7c3ed	-0.0065846355
129	0xbdf5e7c9	-0.120071
130	0xbbdfb953	-0.0068275123
131	0xbd4f9a39	-0.050684188
132	0x3d1d9fd0	0.038482487
133	0xbd2a374a	-0.041556634
134	0x3de6a7c7	0.1126247
135	0xbb906044	-0.004406007
136	0x3db036d0	0.08604205
137	0xbd752f51	-0.059859578
138	0xbd446e24	-0.0479566
139	0xbdec74af	-0.11545693
140	0x3cb3b442	0.02193654
141	0x3c7e1d99	0.015509986
142	0x3c742a0c	0.014902603
143	0x3d117d3d	0.035519827
144	0x3ccda4b0	0.025102943
145	0x3d9d429a	0.07678719
146	0xbce9dd75	-0.028547982
147	0xbd9d3ebc	-0.07677981
148	0xbd5096ae	-0.05092495
149	0x3d2efdde	0.042722575
150	0x3d671621	0.05641759
151	0xbd89e172	-0.067324534
152	0xbd0a2afb	-0.033732396
153	0xbad0cdfc	-0.0015930529
154	0xbd22621f	-0.039644357
155	0x3c9a1e7e	0.018813368
156	0x3e280ca7	0.16411076
157	0x3ccd6c2c	0.025075994
158	0xbda4789a	-0.080308154
159	0x3d5c16be	0.053732626
160	0xbc10218f	-0.0087970635
161	0xbd11f61b	-0.035635095
162	0xbd813121	-0.06308199
163	0xbdb18e5f	-0.08669733
164	0xbdd67429	-0.104713745
165	0x3d683ce5	0.0566987
166	0xbe1458c0	-0.1448698
167	0x3dc44445	0.09583334
168	0xbd92da90	-0.07170594
169	0xbe2d4033	-0.16919021
170	0xbd2e2870	-0.042519033
171	0xbdb96172	-0.09051789
172	0x3d1c5271	0.03816456
173	0x3bedfaff	0.007262587
174	0x3d69c38c	0.057071254
175	0x3dc0ef0e	0.09420596
176	0x3e5bb8ef	0.21457265
177	0x3df01522	0.11722781
178	0xbdf6cd35	-0.12050859
179	0xbb823b87	-0.0039743814
180	0xbe0681f2	-0.13135508
181	0xbbe52b59	-0.006993693
182	0xbd8b7b73	-0.068106554
183	0x3d477cf3	0.048703145
184	0xbdb6397a	-0.088976815
185	0xbcbbcbe5	-0.022924373
186	0xbe05cbfc	-0.13066095
187	0x3d26758f	0.040639456
188	0xbd380a5e	-0.044931762
189	0xbd55a7cb	-0.052161973
190	0x3e1e5d74	0.15465337
191	0xbddb64c2	-0.107125774
192	0x3d9a437c	0.07532403
193	0xbe1c39ac	-0.15256375
194	0x3d8b2034	0.06793252
195	0xbd9940dd	-0.07483075
196	0xbd413a7d	-0.04717492
197	0xbdac6d63	-0.08419301
198	0xb95d23b4	-0.00021089503
199	0x3d8f828e	0.07007323
200	0x3d293e54	0.041319206
201	0xbe74339f	-0.23847817
202	0xbd3efd76	-0.046628438
203	0xbe065f60	-0.1312232
204	0xbe16f71e	-0.14742705
205	0xbd3efc0a	-0.046627082
206	0x3e01afb8	0.12664688
207	0x3e0136a1	0.12618496
208	0x3bd06f6a	0.006360938
209	0x3dc013d4	0.09378782
210	0x3d23cdec	0.039991304
211	0x3bb5eb1f	0.0055517103
212	0x3dba6f07	0.09103208
213	0x3dfd660a	0.12372978
214	0xbdb223d6	-0.086982414
215	0x3cbb4d27	0.022863938
216	0x3d83fee4	0.06445101
217	0xbd09f061	-0.03367651
218	0xbdc4e151	-0.09613288
219	0x3d7badf9	0.06144521
220	0xbe8b92e0	-0.27260494
221	0xbd8299aa	-0.06376965
222	0x3d8e23c3	0.06940415
223	0x3df85b70	0.12126815
224	0x3cc6a3d9	0.02424805
225	0x3d2684b0	0.040653884
226	0x3cfe1370	0.031015128
227	0x3cee3f13	0.02908281
228	0xbb44b42a	-0.0030014613
229	0x3dcf2fa1	0.10116506
230	0xbd344b9e	-0.044017427
231	0x399056ec	0.00027530582
232	0xbd80a639	-0.062817045
233	0xbe0f8ec7	-0.14019309
234	0x3c88040f	0.016603498
235	0x3d5d1a44	0.053980127
236	0x3cde3142	0.027123097
237	0x3b93f0b1	0.0045147766
238	0x3e01a9b1	0.12662388
239	0x3aebd3c7	0.0017992192
240	0xbd44c98a	-0.048043765
241	0xbde36f39	-0.111051984
242	0x3deb56dc	0.114911765
243	0x3d82f024	0.063934594
244	0xbd127533	-0.0357563
245	0x3d3a708f	0.0455175
246	0x3c04d29b	0.008106853
247	0xbcdbece7	-0.026846362
248	0x3d17d22a	0.037065662
249	0x3d3cfb30	0.04613799
250	0xbccd7337	-0.025079353
251	0xbd1ee388	-0.03879121
252	0x3ce7ea11	0.028309854
253	0xbda264a7	-0.07929354
254	0xbd658c95	-0.056042273
255	0xbe375b97	-0.17906033

bias f4 [256]
0	0xbdc25db6	-0.0949053
1	0xbe0393b1	-0.12849309
2	0xbd8e4902	-0.06947519
3	0xbd06f797	-0.032950964
4	0xbce1cadd	-0.027562553
5	0x3c0c9769	0.008581021
6	0xbdcad4b3	-0.099038504
7	0xbd41f8f8	-0.047356576
8	0xbbebdb93	-0.007197806
9	0xbd42e1db	-0.047578674
10	0xbdd5461d	-0.10413764
11	0xbd1f5407	-0.038898494
12	0xbdf19fee	-0.11798082
13	0xbd9baf94	-0.07601848
14	0xbd091e19	-0.03347597
15	0xbc4a3f51	-0.012344197
16	0xbd853c8b	-0.06505688
17	0xbe4885d1	-0.19582297
18	0xbcc833da	-0.024438787
19	0xbdf9af5f	-0.121916525
20	0xbcfa0be1	-0.030523242
21	0xbe06054c	-0.13087958
22	0xbdc3386d	-0.09532247
23	0xbe1762eb	-0.14783828
24	0xbcd4a736	-0.025958639
25	0xbd568ee7	-0.052382376
26	0xbd532a0e	-0.05155378
27	0x3d27e9cf	0.04099446
28	0xbbef1e06	-0.0072972802
29	0xbe0700db	-0.1318392
30	0xbe3c5df2	-0.18395212
31	0xbdc40eed	-0.09573159
32	0xbd31fecd	-0.043455888
33	0x3c18f0d2	0.00933476
34	0xbcadc6c4	-0.021212943
35	0xbd8e7d1f	-0.06957459
36	0xbe24089c	-0.16018909
37	0xba2bd305	-0.00065545767
38	0xbca7115e	-0.020394024
39	0x3d258657	0.04041132
40	0xbcc18a6f	-0.02362558
41	0x3c0ad347	0.008473224
42	0x3cca4ba8	0.024694279
43	0xbbccd01f	-0.006250396
44	0xbdae7b5a	-0.08519621
45	0x3ca1f7b4	0.019771434
46	0xbd4e1f91	-0.050323073
47	0xbd97136e	-0.07376753
48	0xbcb267d1	-0.02177802
49	0xbd05c3dd	-0.032657493
50	0x3dab0a27	0.08351546
51	0xbdab551c	-0.08365843
52	0xbde7aad8	-0.11311883
53	0xbd02ffdc	-0.031982288
54	0xbdecacfb	-0.11556431
55	0xbe5d11a9	-0.21588768
56	0xbd604cd9	-0.054760788
57	0xbdaa56b5	-0.08317319
58	0x3cf24fd0	0.029579073
59	0xbda34933	-0.07972946
60	0xbdd22e2b	-0.10262712
61	0xbcab8195	-0.020935813
62	0xbc091951	-0.008367852
63	0xbd9e6546	-0.0773416
64	0xbdda7d2f	-0.10668408
65	0xbdaf49e2	-0.08559014
66	0xbd3ac152	-0.04559452
67	0x3c4f288f	0.012643947
68	0xbe0005a6	-0.12502155
69	0xbe3fb796	-0.18722376
70	0xbda5e467	-0.08100205
71	0xbe311ca5	-0.17296083
72	0xbd073e0f	-0.033018168
73	0x3b3cf2c2	0.0028831218
74	0xbd0e74c1	-0.034779314
75	0xbdee7dee	-0.11645113
76	0xbc85bd81	-0.016325714
77	0xbe0410eb	-0.12897079
78	0xbe05c733	-0.1306427
79	0xbd889fd7	-0.06671112
80	0x3d1353ed	0.03596871
81	0xbd58c5fa	-0.05292318
82	0xbd85aa40	-0.06526613
83	0x3bb41b33	0.0054964065
84	0xbd9d04a6	-0.07666902
85	0xbdd74094	-0.10510364
86	0xbd06214a	-0.03274659
87	0xbd849eb0	-0.0647558
88	0xbdc3ace0	-0.09554458
89	0x3bbfeedf	0.005857333
90	0xbcf4f874	-0.029903628
91	0xbd8f8e57	-0.07009571
92	0xbde55168	-0.11197168
93	0xbe195be7	-0.14976464
94	0xbaf7a6b2	-0.0018894284
95	0xbd6613c1	-0.056171183
96	0xbe39c30b	-0.18140809
97	0xbde6d9c6	-0.11272006
98	0x3d5527ab	0.052039783
99	0xbe43e01d	-0.19128461
100	0x3c8d9238	0.017281637
101	0xbddb4152	-0.10705818
102	0xbe003e94	-0.12523872
103	0xbca58c3e	-0.020208474
104	0xbe2e6824	-0.17031914
105	0xbcda984a	-0.026683945
106	0xbcad854c	-0.021181725
107	0x3be40554	0.006958643
108	0xbdf159ad	-0.117846824
109	0xbda6d169	-0.081454106
110	0xbd76957d	-0.060201157
111	0xbd81d7ce	-0.063399896
112	0xbd40cdd1	-0.04707128
113	0x3cacfcc3	0.02111662
114	0x3dbae1f2	0.09125127
115	0xbdc2e1f9	-0.09515757
116	0x3d3e1089	0.046402488
117	0xbe02f062	-0.12787011
118	0x3bae3973	0.005316907
119	0xbda23006	-0.07919316
120	0x3d1a63a2	0.037692674
121	0xbdb6df6e	-0.089293346
122	0xbdd49c30	-0.10381353
123	0xbc603b1e	-0.01368597
124	0xbe31b03b	-0.17352383
125	0xbd88aa07	-0.06673055
126	0xbc558578	-0.01303231
127	0xbd2e329c	-0.042528734
128	0xbe075239	-0.13214959
129	0xbda9a784	-0.08283904
130	0xbe2ff133	-0.17181854
131	0x3c405ac8	0.011740394
132	0xbdb998ff	-0.09062385
133	0xbdee6f39	-0.11642308
134	0xbd44c9d6	-0.04804405
135	0xbdac7be2	-0.08422066
136	0xbe3bea19	-0.1835102
137	0xbe1ef915	-0.15524705
138	0xbd4101ec	-0.047120973
139	0xbe1c6d02	-0.15275958
140	0x3c70549b	0.014668609
141	0xbdb144e3	-0.08655717
142	0x3c3db175	0.011577954
143	0x3c23103e	0.009952603
144	0x3da1fa0a	0.07909019
145	0xbd7f649c	-0.062351808
146	0xbd918b4f	-0.07106649
147	0xbd8bc7f4	-0.068252474
148	0xbe1b7c7f	-0.1518421
149	0xbd3e28bf	-0.046425577
150	0xbd9c151d	-0.076212145
151	0xbd3da695	-0.046301443
152	0xbdb47751	-0.0881182
153	0xbd7cb333	-0.061694335
154	0xbc905c00	-0.017621994
155	0xbd165f8b	-0.03671221
156	0xbc3fabfb	-0.011698718
157	0xbdcaa89f	-0.09895443
158	0xbcab6554	-0.02092234
159	0xbd3901ed	-0.045167852
160	0xbd396364	-0.045260802
161	0xbd8a3bb1	-0.067496665
162	0x3c266cd5	0.0101577835
163	0xbcf60006	-0.030029308
164	0xbda9e8df	-0.0829637
165	0x3de02fa9	0.109465905
166	0xbc9f2be2	-0.019430105
167	0x3daa4594	0.08314052
168	0x3d124439	0.035709593
169	0xbd696c28	-0.05698791
170	0xbdee09df	-0.116229765
171	0xbddd12ff	-0.10794639
172	0xbd46a7bd	-0.04849981
173	0xbdfa603b	-0.12225386
174	0xbde45d7a	-0.11150642
175	0xbc8a59ae	-0.016888466
176	0xbe256b47	-0.16154204
177	0xbe199d4c	-0.1500141
178	0x3d100a92	0.03516633
179	0xbd1c89a9	-0.03821722
180	0xbd486e15	-0.048933107
181	0xbd9dbcbe	-0.07702015
182	0xbd8eb213	-0.06967559
183	0xbe228ac4	-0.15873247
184	0xbdb0d7ce	-0.086349115
185	0x3d2bda90	0.041956484
186	0xbe2ba685	-0.16762741
187	0xbc2fbe5b	-0.010726537
188	0xbdd947c8	-0.10609394
189	0x3b854ef3	0.0040682494
190	0xbd0077d8	-0.031364292
191	0xbb39a2bf	-0.0028325764
192	0xbc2bccfb	-0.010485883
193	0xbbb15244	-0.005411418
194	0xbdb4db31	-0.0883087
195	0xbd514882	-0.05109454
196	0x3d3544fd	0.044255245
197	0xbd34de88	-0.044157535
198	0xbd1aac2c	-0.037761852
199	0x3df3afff	0.11898803
200	0x3ce786aa	0.028262455
201	0xbe3e487a	-0.18582335
202	0xbd649dc3	-0.055814516
203	0xbc0b24c6	-0.008492654
204	0x3d2ab942	0.041680582
205	0x3cd46166	0.02592535
206	0xbdfbf697	-0.12302893
207	0xbdefe3fb	-0.11713406
208	0xbde56cae	-0.1120237
209	0xbd9fb898	-0.0779888
210	0x3d2b65e6	0.041845225
211	0xbe0bc66f	-0.13649915
212	0xbe0117a8	-0.1260668
213	0x3dad95fd	0.084758736
214	0xbe0aaeb3	-0.13543205
215	0x3d158904	0.03650762
216	0xbd045599	-0.032308195
217	0x3cb1b242	0.021691445
218	0xbd124943	-0.0357144
219	0xbd0aa224	-0.033846036
220	0x3b86384e	0.0040960675
221	0x3cdd7484	0.027033098
222	0xbd4283eb	-0.047489088
223	0xbdc2563f	-0.094891064
224	0xbdbad9a6	-0.091235444
225	0xbce82a1f	-0.028340397
226	0xbd8536ed	-0.06504617
227	0x3d3f454c	0.046696946
228	0xbdb9a2ea	-0.090642765
229	0xbe16e8b6	-0.1473721
230	0xbdd85765	-0.10563544
231	0xbbf29981	-0.007403553
232	0xbd2f5402	-0.042804725
233	0xbdb0408d	-0.08606062
234	0xbe333afd	-0.17502971
235	0xbe102e31	-0.1408012
236	0xbe04429b	-0.12916033
237	0xbd1c293c	-0.03812526
238	0x3d2d57bd	0.042320002
239	0xbd513186	-0.05107262
240	0xbdefc565	-0.11707572
241	0xbd2747dd	-0.04084002
242	0x3c02034c	0.007935356
243	0xbd8d3d1a	-0.0689642
244	0xbdf2b55a	-0.11850996
245	0xbe06f996	-0.13181147
246	0xbcf7e71f	-0.030261574
247	0xbd7ad7ac	-0.061240837
248	0xbddf0e03	-0.108913444
249	0x3c4b0f94	0.012393851
250	0xbdc76061	-0.0973518
251	0xbdc102d6	-0.09424369
252	0xbe1253a8	-0.14289725
253	0x3ce42eff	0.02785444
254	0xbe01018e	-0.1259825
255	0xbd1b5aaf	-0.03792828

weight f4 [128, 256]
0	0x3d2c3c35	0.042049605
1	0x3dc5a9c9	0.096515246
2	0xbe131a4b	-0.14365499
3	0x3c39ebf4	0.0113477595
4	0x3da1362d	0.07871661
5	0xbda3b9c9	-0.0799442
6	0x3d5ace3f	0.053419348
7	0xbcda7fbd	-0.026672238
8	0xbcfde96d	-0.030995095
9	0xbe4ce889	-0.2001058
10	0x3d04fbf3	0.03246684
11	0xbd0a077c	-0.033698544
12	0x3c815760	0.015788734
13	0x3d2517f9	0.040306065
14	0xbe253820	-0.16134691
15	0x3cd89ff1	0.026443454
16	0x3cafcbcb	0.02145948
17	0xbc7da731	-0.015481756
18	0xbc92eb1b	-0.017934373
19	0x3c76d4a3	0.015065345
20	0x3da6af71	0.081389315
21	0x3a3d8d76	0.0007230857
22	0x3d1f8b67	0.038951304
23	0xbcd902e7	-0.026490642
24	0xbd7d95f8	-0.0619106
25	0x3db1298c	0.086505026
26	0xbdcdd9b7	-0.100512914
27	0x3d9914da	0.0747468
28	0xbdff9046	-0.1247869
29	0x3dced57b	0.10099312
30	0xbd3a37c7	-0.04546335
31	0xbc13df9c	-0.009025481
32	0x3b9e7085	0.0048351907
33	0x3cd3193e	0.025768872
34	0xbd8f70d6	-0.070039436
35	0x3ced4947	0.028965605
36	0x3d299b92	0.04140813
37	0x3b8fb3ae	0.004385433
38	0xbd6ccc41	-0.05781198
39	0xbd6fbe98	-0.058531374
40	0xbd31d8bf	-0.043419596
41	0x3d016f9d	0.031600583
42	0x3cfc6c5d	0.03081339
43	0x3d7b6c18	0.061382383
44	0x3d48e4e6	0.04904642
45	0x3d453c8c	0.048153445
46	0xbc6c8716	-0.014436504
47	0x39dbe6ab	0.00041942796
48	0x3d802fb5	0.062590994
49	0xbe005377	-0.1253184
50	0xbd1114a8	-0.03542009
51	0x3cb14795	0.021640578
52	0xbcd5a9df	-0.026081977
53	0x3d3445e4	0.044011965
54	0x3dfc9bf4	0.12334433
55	0x3dc620d6	0.09674232
56	0xbc25a780	-0.010110736
57	0xbddf497b	-0.10902687
58	0xbceb9050	-0.028755337
59	0x3d8f963e	0.07011078
60	0xbd2f2a81	-0.042765144
61	0xbe005126	-0.12530956
62	0x3cd2fb5d	0.025754625
63	0xbd8a990f	-0.06767475
64	0xbe206a90	-0.1566565
65	0xbe00cfa9	-0.12579216
66	0x3d8d1a5e	0.06889795
67	0x3dbecca0	0.09316373
68	0xbdeb7acb	-0.1149803
69	0xbd903c70	-0.070427775
70	0x3c4414e8	0.011967875
71	0xbc78efcc	-0.015193891
72	0x3daabdbb	0.083369695
73	0x3d90248f	0.07038223
74	0x3cd539c8	0.026028529
75	0x3c06cc77	0.008227459
76	0x3d40c6b1	0.047064487
77	0xbdf0779a	-0.11741562
78	0xbd6783c0	-0.05652213
79	0xbc81236f	-0.015763966
80	0xbc199b5a	-0.009375418
81	0x3af9c16f	0.001905484
82	0x3d897374	0.06711474
83	0x3c8d2faa	0.017234642
84	0xbde1ef6b	-0.110319935
85	0x3c9b9298	0.0189908
86	0x3db49c12	0.088188305
87	0xbdd30de0	-0.10305381
88	0x3df09228	0.11746627
89	0xbda51c42	-0.080620304
90	0xbd804aea	-0.06264289
91	0x3d7932d5	0.060839493
92	0xbc828737	-0.015933616
93	0xbe31477c	-0.17312425
94	0xbce604f3	-0.028078532
95	0x3d27e336	0.04098817
96	0x3db5f526	0.08884649
97	0xbd7fa36e	-0.062411718
98	0x3cc096dd	0.023509437
99	0x3dbd5d5d	0.09246323
100	0x3c21ff46	0.009887522
101	0xbd8ffe6f	-0.07030951
102	0xbde6b0b3	-0.112641715
103	0x3d7e4e93	0.062086653
104	0xbd6b5bc9	-0.05746058
105	0xbcedf7ac	-0.029048763
106	0x3d26f44e	0.04076033
107	0xbcdd3a6d	-0.027005399
108	0xbd1e8bea	-0.03870765
109	0x3d2beedf	0.041975852
110	0x3cbb1332	0.022836301
111	0x3cada2dd	0.021195823
112	0xbce0b2c2	-0.027428988
113	0xbc82c8ee	-0.015964951
114	0xbd85c103	-0.06530955
115	0xbcdae7b3	-0.02672181
116	0xbc3a8930	-0.011385247
117	0xbde989df	-0.1140325
118	0x3d05fa71	0.032709543
119	0x3d26b162	0.04069651
120	0xbd7f8987	-0.062387016
121	0xbadc4206	-0.0016804344
122	0x3d0fceab	0.035109203
123	0x3a7d84b2	0.0009670957
124	0xbda40dc2	-0.080104366
125	0x3c007abe	0.007841764
126	0xbcb725ea	-0.022356946
127	0x3d011b57	0.031520214
128	0x3c8302b1	0.015992494
129	0x3d0909b9	0.033456538
130	0x3ae652ac	0.0017572246
131	0xbe3c6907	-0.1839944
132	0xbdcd4120	-0.10022187
133	0xbd30cde8	-0.043165118
134	0x3d841d6e	0.06450926
135	0x3db7463a	0.089489415
136	0xbd0b0705	-0.03394224
137	0x3da85235	0.08218805
138	0x3d760117	0.060059633
139	0xbc9bef25	-0.019034931
140	0xbe8a9e17	-0.27073738
141	0x3d896cb8	0.067101896
142	0xbdc1c2bb	-0.0946097
143	0xbd5b1e9c	-0.05349599
144	0xbcb633d2	-0.022241507
145	0xbcf470e3	-0.029838985
146	0x3d700118	0.058594793
147	0xbc84e1a7	-0.01622088
148	0xbb62be72	-0.0034598378
149	0xbcf670cc	-0.030083083
150	0x3c1484f0	0.009064898
151	0xbd822988	-0.06355578
152	0xbdd562b0	-0.10419214
153	0xbceb1c34	-0.028699972
154	0xbd655cea	-0.055996813
155	0xbd58388c	-0.052788302
156	0xbd1f8107	-0.03894141
157	0xbce8640a	-0.028368015
158	0x3d8e4e3b	0.06948515
159	0xbd77dcaa	-0.060513176
160	0x3c18e6e6	0.009332394
161	0x3d81012d	0.062990524
162	0x3d3ac728	0.045600086
163	0xbe6aeb6b	-0.22941367
164	0xbc111c21	-0.008856804
165	0x3d0055ac	0.031331703
166	0xbdbe2faa	-0.09286435
167	0xbcb5f372	-0.02221081
168	0x3d890335	0.06690065
169	0x3d99646a	0.074898556
170	0xbbd3851c	-0.006455077
171	0xbd297eec	-0.041380808
172	0x3d930e80	0.071805
173	0xbd739f93	-0.059478354
174	0x3d284430	0.041080654
175	0x3b055c2b	0.0020349126
176	0xbcf21ff9	-0.029556261
177	0xbb6a762b	-0.0035776
178	0xbd3ebbbb	-0.046565752
179	0xbe007951	-0.12546279
180	0x3d9ab7c9	0.075545855
181	0x3d59f545	0.053212423
182	0x3c6b27ff	0.0143527975
183	0x3de84776	0.11341755
184	0x3c570a53	0.01312502
185	0x3e086191	0.13318469
186	0x3dc9a5aa	0.09846051
187	0x3da95a28	0.08269149
188	0x3db0a3b9	0.086249776
189	0xbd812535	-0.06305925
190	0xbd4575dc	-0.048208103
191	0x3cbbcfcd	0.022926236
192	0x3d7be6c0	0.061499357
193	0xbcce958c	-0.025217794
194	0x3e0226b9	0.12710084
195	0xbdb02ccc	-0.08602294
196	0xbcbd7ad6	-0.023129862
197	0xbc7802ea	-0.0151374135
198	0x3ce418b1	0.027843805
199	0xbd72db27	-0.05929103
200	0xbc8522b1	-0.016251894
201	0xbd85ae06	-0.06527333
202	0x3d55c374	0.05218835
203	0x3d4ce4d0	0.0500229
204	0xbbb90d5b	-0.005647344
205	0xbd96e7b0	-0.0736841
206	0x3cc61940	0.024181962
207	0xbd80e4d9	-0.06293649
208	0xbdf028bb	-0.11726519
209	0xbd779bc5	-0.060451288
210	0xbd7e1a54	-0.062036827
211	0xbd508461	-0.050907496
212	0x3dc72bf0	0.09725177
213	0xbd3deb05	-0.04636671
214	0x3dbbc51e	0.091684565
215	0xbdd73da3	-0.10509803
216	0x3d46463d	0.04840683
217	0xbd41f177	-0.04734942
218	0x3d7caa1d	0.06168567
219	0x3ba32996	0.0049793227
220	0xba5941bc	-0.0008287688
221	0xbe214822	-0.15750173
222	0x3b7bc45f	0.0038416607
223	0x3bc397aa	0.0059690075
224	0x3d083084	0.033249393
225	0x3d7c3059	0.061569545
226	0x3d9ce7bf	0.076613896
227	0x3c8b43a5	0.017000029
228	0x3be1ea48	0.0068943836
229	0x3c760d0b	0.015017758
230	0xbdd1d605	-0.10245899
231	0xbd9d6215	-0.07684723
232	0xbdc940fa	-0.098268464
233	0xbc58ee3e	-0.013240395
234	0xbd0a0d65	-0.03370418
235	0xbd612a1e	-0.054971807
236	0x3d6320d2	0.05545122
237	0xbdfa927b	-0.1223497
238	0xbd9f9ebc	-0.07793948
239	0xbccb89de	-0.024846014
240	0x3a8743e1	0.0010319912
241	0xbda120db	-0.07867595
242	0xbd81c9ea	-0.0633734
243	0x3c136539	0.008996301
244	0xbc179b5d	-0.00925335
245	0xbd33de22	-0.043913014
246	0x3d1c8766	0.038215064
247	0xbd737c96	-0.059444986
248	0x3d49fa68	0.04931107
249	0x3cbd6fc1	0.023124577
250	0x3d2cf64c	0.042227075
251	0x3dda3654	0.106548935
252	0xbe1a4350	-0.1506474
253	0xbe2a7d19	-0.16649283
254	0xbdaf06eb	-0.085462414
255	0xbbba9594	-0.0056941006

bias f4 [128]
0	0xbd86f276	-0.065892145
1	0xbca786cb	-0.020450016
2	0xbdafc998	-0.08583373
3	0x3d265f20	0.040618062
4	0xbc6a9e8d	-0.014320028
5	0xbe073491	-0.13203646
6	0xbd4210f0	-0.047379434
7	0xbdc29569	-0.09501154
8	0xbdebf23b	-0.11520811
9	0xbde14697	-0.10999792
10	0xbdfa4954	-0.122210175
11	0x3d8f4607	0.069957785
12	0xbdb9967d	-0.090619065
13	0xbe01b436	-0.12666401
14	0xbd99c27b	-0.07507797
15	0xbdbb8074	-0.0915536
16	0xbc25fed7	-0.010131559
17	0xbcd9cb7e	-0.02658629
18	0xbd65e61f	-0.056127664
19	0xbd71fe0d	-0.059080172
20	0xbd24c231	-0.040224258
21	0xbd9198a0	-0.07109189
22	0x3aa28be0	0.0012401305
23	0xbd55c549	-0.0521901
24	0xbd9675a9	-0.07346661
25	0x3ce351bd	0.027748937
26	0xbd893a4a	-0.06700571
27	0x3b7173a3	0.0036842606
28	0xbe43924d	-0.19098778
29	0xbd420826	-0.047371052
30	0xbd688610	-0.056768477
31	0xbcaab48f	-0.02083805
32	0xbda16b2c	-0.078817695
33	0x3d811ff1	0.063049205
34	0xbdcdaf3a	-0.100431874
35	0xbc8afcb3	-0.0169662
36	0xbdddee84	-0.10836509
37	0xbd835d28	-0.064142525
38	0xbc275447	-0.010212964
39	0xbd40b865	-0.047050852
40	0xbda1b770	-0.07896316
41	0xbda36ec5	-0.07980112
42	0xbd421bf9	-0.047389958
43	0xbdd73649	-0.10508401
44	0xbd70ce03	-0.058790218
45	0x3cae0fe2	0.021247808
46	0x3d1c47fa	0.03815458
47	0xbccee973	-0.025257802
48	0xbe10816d	-0.14111872
49	0xbde81af8	-0.11333269
50	0xbc58f1f5	-0.013241281
51	0x3d7cea86	0.061747096
52	0xbda11962	-0.078661695
53	0xbda6f024	-0.08151272
54	0xbd6dd140	-0.058060884
55	0xbd45e2c2	-0.048311956
56	0xbd80c0ba	-0.0628676
57	0xbdb95455	-0.09049288
58	0xbd24d003	-0.040237438
59	0xbd2cbbdd	-0.042171348
60	0xbdde31ea	-0.10849364
61	0xbddb62b8	-0.107121885
62	0xbe027027	-0.12738095
63	0xbe29b595	-0.16573174
64	0xbd93364d	-0.071880914
65	0xbdeb7d4e	-0.11498509
66	0xbd407359	-0.046985004
67	0xbd5592e0	-0.052142024
68	0x3ba447fb	0.0050134636
69	0xbd87ec88	-0.06636912
70	0xbdb8b6e5	-0.09019259
71	0xbdb28c77	-0.08718198
72	0xbd34f50d	-0.04417901
73	0xbd954eac	-0.07290396
74	0xbe0153b8	-0.12629592
75	0xbd688caa	-0.056774773
76	0xbc1f2b7f	-0.00971496
77	0xba81122c	-0.0009847335
78	0x3c043dc0	0.008071363
79	0xbdf7bb0d	-0.12096224
80	0xbe0db95f	-0.13840245
81	0xbda39dc3	-0.07989075
82	0xbd47fbca	-0.04882411
83	0x3c4fb8e1	0.012678356
84	0xbdc8547a	-0.097817376
85	0xbd9f5796	-0.077803776
86	0xbde5e2fb	-0.11224934
87	0x3d3b4e8c	0.045729205
88	0xbda425cf	-0.08015024
89	0xbe1551af	-0.14581941
90	0xbd0fe1b4	-0.035127357
91	0xbda67b42	-0.08128978
92	0xbda9e8cc	-0.082963556
93	0xbca65f22	-0.020309035
94	0xbcd39484	-0.025827654
95	0xbd943642	-0.07236911
96	0xbdbb20d5	-0.091371216
97	0xbd3bec80	-0.04587984
98	0xbe0a96c0	-0.13534069
99	0xbd8220d4	-0.06353918
100	0xbe14d32e	-0.14533684
101	0x3c2f9af0	0.010718092
102	0xbc90caf2	-0.017674897
103	0xbd970834	-0.073746115
104	0xbe276179	-0.16345777
105	0xbd737729	-0.05943981
106	0xbda75a33	-0.08171501
107	0xbd69556f	-0.05696624
108	0xbdb689e2	-0.08913018
109	0xbd51f4a3	-0.051258694
110	0x3d09dbc3	0.033656847
111	0xbde6439c	-0.11243364
112	0xbc8d54da	-0.017252374
113	0xb9f1334a	-0.00046005315
114	0xbc4677f9	-0.012113565
115	0x3d2a9875	0.0416493
116	0xbdf2827b	-0.118412934
117	0xbd5d690a	-0.05405525
118	0xbdebd381	-0.115149505
119	0xbe2a75eb	-0.16646545
120	0xbd851073	-0.06497278
121	0x3d6478be	0.05577921
122	0xbd5871fa	-0.05284307
123	0xbd79f444	-0.061023965
124	0xbd70e0e4	-0.058808222
125	0xbd834226	-0.06409101
126	0xbd034f45	-0.03205802
127	0x3c550cb3	0.013003516

weight f4 [12, 128]
0	0x3cdab5c2	0.026697997
1	0x3d4e456d	0.05035918
2	0xbc88acae	-0.016683903
3	0xbcda93c0	-0.02668178
4	0xbc543e11	-0.012954251
5	0x3cdd9605	0.027049074
6	0xbd727280	-0.059191227
7	0x3b7f6b23	0.003897377
8	0x3bad082d	0.0052805156
9	0x3d2f87b7	0.042854037
10	0x3d9c325b	0.07626792
11	0xbd814629	-0.0631221
12	0x3d0f4aaa	0.034983315
13	0x3bea1d10	0.007144578
14	0x3cd74477	0.026277764
15	0x3c484f6d	0.012225968
16	0x3cf7c0e2	0.03024334
17	0xbd1b0d1d	-0.037854303
18	0x3cb87323	0.022515839
19	0x3d0dda3f	0.034631964
20	0xbd5db5eb	-0.05412857
21	0xbb64f3ac	-0.0034935279
22	0x3c67d39a	0.014149571
23	0xbd3e498a	-0.04645685
24	0x3bf550ed	0.0074864537
25	0x3ca3a168	0.019974425
26	0xbdd00f06	-0.101591155
27	0xbc19dc6b	-0.009390931
28	0x3d1c88ec	0.038216516
29	0x3d219e0b	0.039457362
30	0xbc7cb3c8	-0.015423723
31	0x3d3bbcd9	0.045834396
32	0xbc25867f	-0.010102867
33	0x3ca5908e	0.02021053
34	0xbbe870c4	-0.007093521
35	0xbbc770b0	-0.0060864314
36	0x3aad6734	0.001322961
37	0x3c4d90ce	0.012546731
38	0x3d26f7d8	0.040763706
39	0xbc457f13	-0.012054223
40	0x3aee3636	0.0018174115
41	0xbc296436	-0.010338834
42	0xbab817cd	-0.0014045179
43	0x3cc60d7f	0.024176357
44	0xbc73979b	-0.0148676885
45	0xbd882fb6	-0.06649725
46	0x3cbdfefb	0.023192873
47	0x3b5b7a03	0.0033489473
48	0x3d0d7b02	0.034541138
49	0xbda056e5	-0.07829074
50	0xbd9af536	-0.075663015
51	0x3d418f93	0.047256064
52	0xbd2b475d	-0.041816104
53	0xbc2d232d	-0.010567469
54	0xbd88dee4	-0.06683138
55	0x3c90dca7	0.01768334
56	0xbba88b18	-0.0051435344
57	0x3c9be48f	0.019029884
58	0x3bcf02ad	0.0063174576
59	0x3c587a28	0.013212718
60	0x3dbffbe3	0.093742155
61	0xbd363a9a	-0.04448948
62	0x3d23b2eb	0.03996555
63	0x3d9e7dbc	0.07738826
64	0x3c78c44e	0.015183521
65	0xbcc2e5d4	-0.023791231
66	0x3d1e9835	0.038719375
67	0xbd68ff71	-0.056884233
68	0x3d3e7382	0.046496876
69	0x3d0cf275	0.034410913
70	0xbd5ec814	-0.054390028
71	0xbc11c8bb	-0.0088979555
72	0x3c9d980d	0.019237543
73	0x3d99ab2b	0.07503351
74	0x3c050103	0.008117917
75	0xbdecccd9	-0.11562509
76	0x3d286561	0.041112307
77	0xbc584f76	-0.013202539
78	0xbd200141	-0.039063696
79	0x3d5c7acc	0.053828046
80	0x3d61c508	0.055119544
81	0xbd6b945e	-0.05751454
82	0x3b8cbbf1	0.0042948653
83	0xbd717028	-0.05894485
84	0xbd3914b2	-0.045185752
85	0xbc1d2e05	-0.009593491
86	0xbd04b5e4	-0.032400027
87	0xbd1d2930	-0.038369358
88	0x3d0de24d	0.034639645
89	0xbad3682c	-0.0016129068
90	0xbb163f54	-0.002292593
91	0x3caf51f2	0.02140138
92	0xbc1c7157	-0.009548507
93	0xbc96199d	-0.01832276
94	0xbb12a682	-0.0022377078
95	0x3a99434a	0.0011693027
96	0x3d886a96	0.06660955
97	0xbda0d277	-0.07852643
98	0x3d8bb5b2	0.06821765
99	0x3d9bf8d0	0.076158166
100	0x3d9a55af	0.07535874
101	0x3c2e1d2e	0.010627074
102	0x3b36dcc5	0.0027902585
103	0xbd2dd954	-0.04244359
104	0xbc95e015	-0.018295327
105	0x3d85d284	0.06534293
106	0xbd271215	-0.04078873
107	0x3db7d8b4	0.0897688
108	0x3d95a9ac	0.07307753
109	0x3ca443e6	0.020051908
110	0xbba71093	-0.0050984113
111	0xbc847ada	-0.016171861
112	0xbb772acc	-0.0037714718
113	0x3d4ca6f6	0.049963914
114	0xbd8ad56e	-0.0677899
115	0xbda2f6e8	-0.0795725
116	0x3da0ee63	0.07857969
117	0xbcb26181	-0.02177501
118	0xbd1168e9	-0.03550044
119	0x3cf30e84	0.029670008
120	0x3d488796	0.04895743
121	0x3d3465e4	0.044042483
122	0x3c5a035c	0.013306465
123	0xbc6772b3	-0.0141264675
124	0xbd4d36ad	-0.05010097
125	0x3c840e40	0.016120076
126	0x3d00d870	0.03145641
127	0xbba37e26	-0.0049894033
128	0x3bb3a1b1	0.0054819216
129	0x3c41371d	0.011792925
130	0x3d23480e	0.03986364
131	0x3d06da40	0.032922983
132	0xbb4aa03c	-0.003091826
133	0x3d30bcb4	0.04314871
134	0x3c83e406	0.016099941
135	0x3d0e6666	0.034765624
136	0xbd2d5c54	-0.04232438
137	0xbcdc010d	-0.02685597
138	0xbd081f38	-0.033232898
139	0xbd827520	-0.06369996
140	0xbcf80d14	-0.030279674
141	0x3d74bde1	0.059751395
142	0xbd1ee2ae	-0.038790397
143	0xbd964693	-0.0733768
144	0x3c1f01e3	0.00970504
145	0x3d26b7f4	0.040702775
146	0x3c3817f9	0.011236184
147	0xbd58e549	-0.05295304
148	0xbc53ef6c	-0.012935501
149	0xbccb159f	-0.024790583
150	0x3c36846b	0.011139969
151	0xbd8745f6	-0.06605141
152	0xbcaaba07	-0.020840658
153	0xbd814267	-0.06311493
154	0x3d247801	0.040153507
155	0xbd163801	-0.036674503
156	0xbb3fc569	-0.0029261953
157	0x3c83af20	0.016074717
158	0xbd1cf526	-0.03831973
159	0x3c9149e5	0.017735431
160	0xbc56312b	-0.013073246
161	0x3cd4eeeb	0.025992831
162	0x3d8ba40f	0.06818401
163	0x3d91d38e	0.07120429
164	0x3d0dc0f1	0.03460783
165	0xbb8c8bd1	-0.0042891284
166	0x3cae188b	0.021251937
167	0x3d1cbfd8	0.038268894
168	0xbd12d073	-0.035843324
169	0x3bd9f22c	0.0066511836
170	0x3d9e1031	0.07717932
171	0xbcd37c16	-0.025816005
172	0xbcbd41f1	-0.023102732
173	0x3db7f93c	0.089830846
174	0xbc8a8777	-0.016910298
175	0x3cb1a72d	0.021686161
176	0xbce2eb97	-0.027700229
177	0x3b372709	0.002794685
178	0x3c077c0b	0.00826932
179	0xbc949ce8	-0.018141225
180	0x3d84cbe4	0.064842016
181	0x3c7690a9	0.015049138
182	0x3d43b8b2	0.04778356
183	0x3c533e2e	0.012893243
184	0xbd20f5ce	-0.039296918
185	0xbd8df814	-0.06932083
186	0x3c667b71	0.014067517
187	0x3cfbe8b6	0.030750614
188	0xbd098385	-0.033572692
189	0x3d428101	0.04748631
190	0x3d7e276b	0.06204931
191	0xb8daea9a	-0.00010438748
192	0xbbb3978e	-0.005480713
193	0x3cdeca3a	0.027196039
194	0xbe1dd81f	-0.15414475
195	0xbd34aabf	-0.04410815
196	0x3d315ca6	0.043301247
197	0x3c824909	0.015903967
198	0x3c676abb	0.014124568
199	0xbd8fdeec	-0.07024941
200	0xbccf3256	-0.025292557
201	0xbca9aefa	-0.020713318
202	0xbcb656e4	-0.02225823
203	0xbd1d096b	-0.03833906
204	0x3c6ad9c1	0.014334143
205	0xbc227f72	-0.009918081
206	0xbccb3da7	-0.024809672
207	0xbd374b50	-0.044749558
208	0xbde07a0b	-0.10960778
209	0x3c2c7d83	0.010527971
210	0xbc463573	-0.012097704
211	0x3de797e3	0.11308267
212	0x3cc92df8	0.024558052
213	0xbbfeb20b	-0.007772689
214	0x3d1697b5	0.036765773
215	0xbd56e3ec	-0.052463457
216	0x3bce7a04	0.0063011665
217	0xbd34350d	-0.043995906
218	0xbcf780ce	-0.030212786
219	0xbd76cad4	-0.060252026
220	0xbc86dbdd	-0.01646226
221	0xbd06baf4	-0.032893136
222	0xbc79ed59	-0.015254342
223	0xbb53552d	-0.0032246814
224	0xbb57ae84	-0.0032910416
225	0xbbc27e49	-0.0059354645
226	0xbdac5593	-0.084147595
227	0x3c40ba69	0.011763194
228	0x3c48f3be	0.012265144
229	0x3d0dc87c	0.034615025
230	0x3ceb1a16	0.028698962
231	0x3d28fd42	0.04125715
232	0xbcc8c87e	-0.024509665
233	0xbd038844	-0.032112375
234	0x3ca5481c	0.020175986
235	0xbd04d1ee	-0.032426767
236	0xbccce3db	-0.025010994
237	0x3cceb1c0	0.025231242
238	0x3d00fd83	0.031491768
239	0xbda9c142	-0.08288814
240	0xbccb495e	-0.024815258
241	0xbc99de9a	-0.018782903
242	0xbc1cbbcf	-0.009566261
243	0xbc998dc6	-0.01874436
244	0x3ca0baf0	0.019620389
245	0xbd59b165	-0.053147692
246	0xbd3c259b	-0.0459343
247	0xbc3f7235	-0.011684944
248	0x3d24a384	0.040195003
249	0x3bbdcaf6	0.005792017
250	0xbcd4fb4e	-0.025998738
251	0xbccc893c	-0.024967782
252	0x3de60560	0.11231494
253	0xb8473a69	-4.7499696e-05
254	0x3c8097c7	0.015697373
255	0xbc3ac3ae	-0.011399193

bias f4 [12]
0	0xbbbb21b8	-0.0057108067
1	0x3de4a894	0.11164966
2	0xbdd072cf	-0.10178148
3	0xbcef9c02	-0.029249195
4	0x3d839d9f	0.06426548
5	0xbccab32d	-0.02474364
6	0x3c76d330	0.015064999
7	0x3c824e40	0.015906453
8	0xbdd0005c	-0.101563185
9	0x3d01549c	0.03157483
10	0xbe29d910	-0.16586709
11	0x3ac46f4e	0.0014986785
